lsf-related-folder-partial/lsf-ml-service/model.pt (torch, 6537 bytes, 4 tensors)

model.0.weight f4 [32, 22]
000000 de ea ad bc f6 f2 1a be 56 42 7b 3c 0b b8 ab 3d
       -0.021230157 -0.15131745 0.01533564 0.08384713
000010 60 8f 08 3c 95 af 0a 3e 9a e1 dc bd ac fc 30 be
       0.0083349645 0.13543542 -0.107852176 -0.17283887
000020 94 20 19 3c 48 e7 ce 3d 23 86 b9 3c 02 f6 39 be
       0.009346146 0.10102707 0.02264697 -0.18160251
000030 e1 ca b5 3d b5 b9 dc 3d 68 ae 4a be 87 d4 b8 3d
       0.08876587 0.10777608 -0.19793093 0.090249114
000040 36 da f4 bd b2 db 48 3d ac 19 55 3e 39 d1 da 3d
       -0.11955683 0.049037643 0.20810574 0.10684437
000050 d7 f0 23 be 6d b9 eb bd 4e 68 10 3e 3d 9b 49 3e
       -0.16009842 -0.115099765 0.14102289 0.19688125
000060 35 3d 2c 3e 21 8d 20 3e 87 c8 45 3e a8 c2 ea 3d
       0.16820224 0.15678836 0.19314776 0.11462909
000070 2d 49 86 bc 33 de 23 3d 9a 0d cb 3d f4 a5 d6 bd
       -0.016392315 0.040006828 0.09914704 -0.10480872
000080 63 5a 68 bd 32 2f 12 be f3 eb 20 be 8e 33 1c 3e
       -0.056726824 -0.14275816 -0.15715007 0.15254042
000090 2d 83 24 3e 67 e8 9e 3d ad c3 99 bb 82 f7 bb 3c
       0.16065665 0.07759171 -0.004692516 0.02294517
0000a0 cd c9 d9 3d 1f 70 b5 3b 72 55 95 3b 3e 2e 58 be
       0.106341936 0.0055370475 0.004557305 -0.2111139
0000b0 11 14 58 be 26 2f a4 bd 50 64 77 bd cb 17 eb bb
       -0.21101405 -0.08016805 -0.0603984 -0.007174467
0000c0 b5 f3 26 3e e5 bb bf 3d 7d 55 15 be 59 4f bd 3d
       0.16303904 0.0936201 -0.14583392 0.0924365
0000d0 da 41 73 bd 1a 2d 55 3e 77 59 9c 3d 97 58 90 bb
       -0.059388973 0.20817986 0.076342516 -0.004405092
0000e0 98 59 42 3e 55 2f 33 bd a5 33 3c be 2b 80 05 3e
       0.1897949 -0.04374631 -0.18379076 0.13037173
0000f0 e8 0e 85 3d b0 21 10 3c 12 eb 44 3d c1 50 d7 bc
       0.06496984 0.008797094 0.048075743 -0.026283624
000100 37 cf 01 be 11 6d 49 3e 8c d6 05 3e 80 76 e2 bd
       -0.12676702 0.19670512 0.13070124 -0.11057758
000110 43 72 be 3d 69 5e 56 3e 3c 0c 2f 3e 50 57 ed bd
       0.092991374 0.20934452 0.17094511 -0.11588919
000120 75 3d 3a be ed 31 3e 3a 45 c8 05 3e 28 8b 3c 3e
       -0.18187506 0.00072553643 0.13064678 0.18412459
000130 87 2c 26 bd 41 e0 ea bc 31 e1 9d 3d 4c f1 86 bd
       -0.04056981 -0.028671386 0.077089675 -0.065889925
000140 99 ea 06 3e a1 36 88 3d 82 04 35 3d 00 ee 0d be
       0.1317543 0.06651045 0.044193752 -0.13860321
000150 e2 5a 09 be 90 0b 07 bc e0 ea 44 3e 7a d4 04 be
       -0.13413575 -0.008242503 0.19230223 -0.12971678
000160 68 bc 58 be 89 af 48 be 3d da f8 bd 96 bd 06 be
       -0.21165621 -0.19598211 -0.12151001 -0.13158259
000170 43 a6 23 3e 15 a8 30 3e 8b e3 57 be 03 14 2e be
       0.15981393 0.17251618 -0.21082895 -0.16999821
000180 42 cf 53 3d f3 69 55 be 9c 45 00 3e 49 ff f9 bd
       0.05171133 -0.20841198 0.12526554 -0.12206895
000190 d1 29 54 3d 8b a8 40 be 6e 9b 52 3e 18 0d 53 3e
       0.05179769 -0.18814294 0.20567104 0.20610464
0001a0 d9 ce a2 bd 8d b9 af 3d 7d 47 1b 3d bf 36 eb bd
       -0.07949609 0.08580313 0.037909973 -0.11485051
0001b0 17 45 40 bd e1 eb 75 3d 67 e9 c0 3d 7f b5 56 3e
       -0.04694089 0.060039405 0.09419518 0.20967673
0001c0 cc a9 3b bd 76 04 12 be 0b 7c d3 bd 3e ca cc 3d
       -0.045816228 -0.14259514 -0.10326394 0.09999512
0001d0 dc 16 93 bd 6e 93 4b be 83 87 00 3e 4d 38 9f bd
       -0.071820945 -0.19880459 0.12551694 -0.077744104
0001e0 0d b1 c0 bd 33 58 43 3d 55 0c d8 bd 88 be ee bd
       -0.0940877 0.047691535 -0.10549227 -0.11657435
0001f0 5b 55 6c bd f1 32 1f bd 87 c8 63 bd 7b 43 d3 3b
       -0.05769859 -0.03886694 -0.05561116 0.0064472533
000200 65 ba 22 be 28 22 8f 3d b4 51 4c bd 15 95 03 3e
       -0.15891416 0.06988937 -0.049882606 0.12849839
000210 b4 90 c7 bd 55 21 13 3e 8f 03 ae bd 6e ed b6 3d
       -0.09744397 0.14368184 -0.084967725 0.08932005
000220 3e ea 10 be 2b 9e c2 bd 9b ea 2a be 98 0b b2 3c
       -0.14151856 -0.095028244 -0.16691057 0.021734044
000230 43 5e 15 3e 2a b8 1e 3d 6e 5a 2f be 53 87 b9 bd
       0.14586739 0.03874985 -0.1712434 -0.09059014
000240 4e d5 33 3e 28 da 51 be 5c 71 42 bc 25 06 67 3d
       0.17561838 -0.20493376 -0.011867847 0.056402344
000250 39 9c d4 3b 3e e7 e0 bd db 1c 3e 3e 7b 78 10 be
       0.0064883498 -0.10981606 0.18565695 -0.1410846
000260 1d b3 25 be ac 39 0e bc a8 08 ee 3c 0a 5b f7 bd
       -0.16181608 -0.008680742 0.029056862 -0.12077911
000270 c3 14 44 3e fb 69 49 3e 93 df b7 bd 9d 59 f8 bd
       0.19148545 0.19669335 -0.0897819 -0.121264674
000280 64 c7 c9 bd c1 e1 af 3c 1e 7d 03 be 37 e3 0f 3e
       -0.09852484 0.021469953 -0.12840697 0.1405152
000290 60 78 a9 3c b8 78 20 be 5e 53 4a be ee f6 d4 3d
       0.020687282 -0.1567105 -0.19758365 0.103986606
0002a0 80 49 d0 bb 68 74 8a bd ba 16 a5 3d 19 da ca 3d
       -0.006356418 -0.06760484 0.080609754 0.0990488
0002b0 ae e0 59 be b2 0a 5d 3d 43 f2 e2 bb 40 ef bd 3c
       -0.21277115 0.053965278 -0.0069258525 0.023185372
0002c0 34 db 41 3e 0a c2 2c 3d 8a 34 3f 3d d6 f1 41 bd
       0.18931276 0.042177238 0.046680965 -0.047349773
0002d0 4b 15 15 3e a1 88 40 be ea 0b 0f 3e 33 ec f5 bc
       0.14558904 -0.1880212 0.13969389 -0.030019855
0002e0 b3 fb 4b 3e a7 85 4a be 0a c9 c5 bd 76 f4 0a 3e
       0.19920234 -0.19777547 -0.09657486 0.13569817
0002f0 f4 8e b1 3d 1d 50 4e 3e 23 3e 3a be 5b e9 53 be
       0.08669844 0.20147748 -0.18187766 -0.20694487
000300 3a 6d 15 be fa 4c 3e bd 54 03 2a 3d 4b bc f2 3d
       -0.14592448 -0.04646013 0.04150708 0.1185232
000310 94 82 83 3d 5b c9 63 bd 71 06 2d be 82 28 47 be
       0.0642139 -0.05561195 -0.16896988 -0.19449046
000320 b9 7b 1d 3e ee 12 7f 3d 86 e8 56 bd 0d 12 ff bb
       0.15379228 0.062273912 -0.052467845 -0.0077841342
000330 38 0c 59 be 09 0f 37 bd a4 c1 43 be 7a 84 af b8
       -0.21196067 -0.044692073 -0.19116837 -8.369326e-05
000340 35 33 40 3d 5b 6b 86 bd da f2 1f be 7d cc f6 3c
       0.046923835 -0.06563445 -0.15619984 0.030126804
000350 a5 25 d3 3d 33 4b 01 3c aa f3 3d be 43 0a b2 bc
       0.103099145 0.007891464 -0.18549982 -0.021733409
000360 f5 be 0d 3e 82 35 48 bd e8 2c af bd 23 37 48 be
       0.13842376 -0.048879154 -0.08553487 -0.19552283
000370 fc 88 e6 bd b1 30 0c 3e c5 56 2d 3d a9 33 ad bd
       -0.112565964 0.1369045 0.042319078 -0.08457119
000380 2b e1 15 3e e1 3a 1e 3e 14 db 26 be b8 80 75 bd
       0.14636676 0.15452148 -0.16294509 -0.05993721
000390 56 8b 44 be c4 1d 2c 3e b8 02 e2 bd ba 89 4f be
       -0.19193777 0.1680823 -0.11035675 -0.20267382
0003a0 f2 14 9b 3d b6 18 96 bd c6 52 f4 bd 87 30 0b be
       0.075723544 -0.07328932 -0.1192985 -0.1359273
0003b0 73 d3 de bd d1 ba 72 bd 5a c3 2d be 4a 3f 39 3e
       -0.108801745 -0.059260193 -0.16969052 0.18090549
0003c0 55 03 02 be 27 38 49 3e 62 39 14 be 7c 65 d1 3a
       -0.12696584 0.19650327 -0.14475015 0.0015975679
0003d0 77 8a 0f be 8b 77 59 3e 3e 8b ed bd 02 76 28 be
       -0.14017664 0.21237008 -0.11598824 -0.16451266
0003e0 21 d0 81 3c f8 0b d3 bd 1e 61 34 be 90 2f e9 bb
       0.015846314 -0.10305017 -0.17615172 -0.0071162656
0003f0 b7 f9 21 be b0 b5 3f bd 54 54 ec bd e0 a4 19 3e
       -0.15817915 -0.04680413 -0.11539522 0.15004301

model.0.bias f4 [32]
000000 96 51 18 3d 7c 94 c5 3c 41 77 4d be 07 65 a9 ba
       0.03718718 0.024118654 -0.20065023 -0.0012923785
000010 a1 71 47 bd 35 8b 53 be 90 44 1b 3e 48 ca 03 3e
       -0.04869235 -0.20658572 0.15162873 0.12870133
000020 fe 9e 74 bd cb 53 94 bd a7 9d 93 3d e4 24 a8 bd
       -0.05972194 -0.07242545 0.07207804 -0.08210161
000030 80 c8 58 be d5 96 d9 3d a4 bb ad bd 00 75 94 bd
       -0.21170235 0.10624472 -0.08483055 -0.072488785
000040 7d df 52 3c d1 cd 35 be 54 61 0d 3d fe 24 45 3e
       0.012870667 -0.17754294 0.034516647 0.19252393
000050 7d d8 58 be e7 c1 97 bd 64 7f 54 3d 24 a7 3c 3e
       -0.21176334 -0.07410031 0.0518793 0.18423134
000060 29 f4 48 3d c4 02 54 3e 0e 5c 58 bc 19 11 20 bd
       0.049060974 0.2070418 -0.013205541 -0.039078806
000070 ad de 37 3e ce b3 72 3b dd 31 2f 3c e1 b3 07 3e
       0.17956038 0.0037033441 0.010693041 0.13252212

model.2.weight f4 [10, 32]
000000 3c b5 25 bd d3 08 26 3e 1f 93 70 bd 03 94 a3 3c
       -0.04045604 0.16214304 -0.058734056 0.019968038
000010 2d 99 b7 bd fd 0b cc bd d6 1f f5 bc 04 97 f3 3d
       -0.08964763 -0.09963224 -0.029922407 0.11894038
000020 8f 81 6b 3d c9 04 bb 3b 48 c0 05 3e 52 c9 60 bd
       0.057496604 0.0057073575 0.1306163 -0.054879494
000030 5e b5 cf 3b b7 75 15 3e c8 fa 06 be 85 4b d0 bd
       0.0063387593 0.14595686 -0.13181603 -0.10170654
000040 bc e9 2c 3e f5 83 b4 3d bc e2 03 3e 61 0e 99 bc
       0.16886038 0.08814231 0.12879461 -0.018683614
000050 aa ab 0a be 12 75 a0 3c 99 44 01 b9 32 9d 83 bd
       -0.13542047 0.019587073 -0.00012327953 -0.06426467
000060 e6 6f 98 3d 88 d1 13 3e e5 3e 20 3e 7b 41 01 bd
       0.07443218 0.14435399 0.15648992 -0.031556588
000070 be 3d c1 bd 2a 3c a1 bd 83 05 a2 bc 18 cd 26 3e
       -0.094356045 -0.078728035 -0.019778019 0.16289175
000080 a0 cd 10 3e 38 3d ec bd 96 13 03 be 7a 1e 45 3d
       0.1414094 -0.11535114 -0.1280044 0.048124768
000090 6c 30 83 3d 18 dc e2 bb d9 d4 96 bc 52 61 dc 3d
       0.0640572 -0.00692321 -0.01841204 0.1076075
0000a0 ee fb a6 3d f2 6b 13 3e f4 74 a1 bc 17 0c 1f bd
       0.081535205 0.14396647 -0.019709088 -0.03882989
0000b0 bb 74 ed bc eb 5e f8 3d 19 22 06 bd 6f de 8a 3d
       -0.028986325 0.12127479 -0.03274736 0.06780707
0000c0 6c 6f 2b be 51 c2 de bd 53 4b ba 3d 61 88 3e bd
       -0.16741723 -0.10876907 0.09096398 -0.04651678
0000d0 5b f1 bd 3d 71 15 23 be f0 e4 25 3e 25 13 c0 3c
       0.092745505 -0.15926148 0.16200614 0.023446629
0000e0 c1 ce 08 3d 76 11 f3 3d 21 aa 16 3e a8 bb 83 3d
       0.0334003 0.11868565 0.14713337 0.06432277
0000f0 37 6a 36 3c 43 b6 62 3c 0e ef 6a bd ae f7 da bd
       0.011133722 0.0138374 -0.057356887 -0.106917724
000100 fe 32 d8 bd bf af e8 3d 0b ba 4d bd 5a 1d d5 3d
       -0.10556601 0.11361646 -0.050226253 0.10405989
000110 11 85 ad 3c 75 df 28 be d8 dc c9 bd 0b 6c 22 3e
       0.021181615 -0.16491492 -0.09856576 0.15861528
000120 54 0a 06 3e 97 49 73 bd fa b5 92 bb 4a 20 e4 bd
       0.13089877 -0.059396353 -0.0044772597 -0.11138971
000130 6e 2c 7a bd 39 8a 32 be 85 73 83 3c 68 02 28 3e
       -0.061077528 -0.1743554 0.016046295 0.16407168
000140 bd 18 33 bd 74 5f 2f be a1 15 8e bd e3 fe 25 3d
       -0.043724764 -0.17126256 -0.06937719 0.040526282
000150 7a 22 1e 3e a2 41 fe bd c3 1d 32 3e d6 61 a4 3d
       0.1544284 -0.12414862 0.17394166 0.08026473
000160 8a e7 0d be 27 fb a9 bd 38 52 75 3d 66 ff b3 3d
       -0.13857856 -0.08299857 0.059892863 0.08788948
000170 6a 84 d1 bd 5a eb 75 bd b3 fd f8 3c 81 ff 03 3d
       -0.10230334 -0.060038902 0.03039441 0.03222609
000180 97 03 d5 bd e0 86 c7 bd 83 d1 81 bd 09 4e dd bd
       -0.10401075 -0.09742522 -0.06338789 -0.108059
000190 5f d4 75 bd 0e 4f 97 bd 93 eb ad bd bb 73 31 3e
       -0.060016986 -0.07388125 -0.08492198 0.17329304
0001a0 43 b2 34 bd 3d bf 4c bd d6 c3 a2 bd 01 3f 5a 3d
       -0.044115316 -0.049987067 -0.07947509 0.05328274
0001b0 fd e6 9c bd 04 4c 24 3e 04 35 45 bd fc 93 8f 3d
       -0.07661245 0.16044623 -0.048146263 0.07010648
0001c0 a6 97 64 bd ac fd 81 bd d9 41 0b bb ec 83 30 3e
       -0.055808686 -0.06347212 -0.0021248965 0.17237824
0001d0 41 ff a6 3d 83 70 30 3e 04 25 e9 3d ed 19 66 bd
       0.081541546 0.1723042 0.11384013 -0.05617707
0001e0 63 41 13 3e 5d ee aa 3d 2d 52 d3 3d 58 ce df bc
       0.14380412 0.083462454 0.10318408 -0.027320072
0001f0 f3 df 7d 3b ac fe 97 3a 8e b9 5a 3d d8 d9 0d bd
       0.003873822 0.0011596284 0.053399615 -0.03463158
000200 7f d4 d9 bd ce f5 83 3c 70 b4 f1 3d 0f b7 8e bc
       -0.106362335 0.01610842 0.11801994 -0.017421274
000210 4d 32 d7 bd 2e dc ef 3d 27 9f 19 be 40 e9 b0 bd
       -0.10507641 0.11711918 -0.15002118 -0.08638239
000220 f8 5a 0b 3e 6a 4d cf bd bd b7 df bd 98 86 e3 3c
       0.1360892 -0.101221874 -0.10923717 0.02777414
000230 07 fa 0b be 08 70 25 be 5c 28 08 be 4f 29 03 3e
       -0.13669597 -0.16156018 -0.13296646 0.12808727
000240 e8 52 c2 bd 8c e9 17 3e ee 23 8d bd e6 54 1a 3e
       -0.09488469 0.14835185 -0.06891619 0.15071449
000250 ee 1a 30 3e a9 55 7a 3d c8 22 46 bd df 60 07 bd
       0.17197773 0.06111685 -0.048373014 -0.033051368
000260 0c 5b 98 bd e2 2b 18 3d 6d 2b 9f bc 2d 24 f8 bc
       -0.07439241 0.037151225 -0.019429887 -0.030290687
000270 5b b5 de bc 79 5e 77 bd dc 56 36 3d b7 b6 58 bd
       -0.027186086 -0.06039283 0.04451643 -0.052908625
000280 a5 96 1a bd f7 3d 34 3e 79 7a 89 3b c3 2f 03 3e
       -0.037741322 0.17601763 0.004195508 0.12811188
000290 b2 9e 90 bb f7 b3 9f bd 66 85 08 be a8 5c 30 3e
       -0.004413449 -0.077979974 -0.13332137 0.17222846
0002a0 26 76 21 3e e6 e4 21 be f9 27 f2 bd 1d 3a 81 3d
       0.15767726 -0.15809974 -0.118240304 0.06309912
0002b0 94 ac f2 3d 18 7b 54 3d fe 69 b2 bd 10 1f 0f 3e
       0.11849323 0.051875204 -0.08711623 0.13976693
0002c0 8d ed 13 3e 1b 8e 87 3d c4 f4 3e bd ac 60 87 bc
       0.14446087 0.06618901 -0.046620145 -0.016525589
0002d0 f1 be 0e 3e ed fd e6 3c a3 60 40 3d ef 0f 28 3e
       0.13940026 0.028197253 0.04696716 0.16412328
0002e0 4f 78 11 bd 2e a8 0f 3d 7e 18 a9 3d da c0 8f 3d
       -0.035515126 0.035072498 0.08256625 0.070192054
0002f0 8a a7 19 3e 25 b4 04 be 84 df 09 be 35 4d d0 3d
       0.15005317 -0.12959345 -0.1346417 0.10170976
000300 ce 5b 1a be a2 b4 cc 3d 82 c7 d8 bc d9 45 0b 3e
       -0.15074083 0.099953905 -0.02646232 0.13600864
000310 63 61 c9 3b 0c 5c 69 3d cc e9 8f 3d 66 22 1a 3e
       0.0061456426 0.05697255 0.07027015 0.15052184
000320 a7 09 e8 bc eb f8 8c 3c a1 47 f8 3d 72 e8 20 be
       -0.028324915 0.017208537 0.12123037 -0.15713671
000330 b3 5b 42 3d 66 6b 01 bc 86 b5 cf bd 22 76 17 3e
       0.047450732 -0.007899141 -0.10142045 0.14791158
000340 65 2a b9 bd c4 88 b8 3d 58 fc 3a bd b9 a7 cd 3c
       -0.09041289 0.09010461 -0.04565081 0.02510439
000350 25 e3 c2 bd dc c7 58 bd 34 10 a3 3d 84 76 a2 3c
       -0.09515981 -0.052924976 0.07962075 0.019831903
000360 8c fa 12 3e 52 7a e7 bd e8 0c a8 3c 3d 4c 02 bd
       0.14353389 -0.113026276 0.020513967 -0.031810988
000370 3e 8c 19 be ad 43 9d 3d 48 ab bc 3c 5f d5 52 bc
       -0.14994904 0.07678924 0.023030892 -0.012868254
000380 bc b2 b9 3d 6d 01 bb bb 15 9e ca bd 1c fe 16 3e
       0.09067294 -0.005706957 -0.09893433 0.14745373
000390 ec 7c ff 3d 0a 84 b3 3d 66 7f 6a 3d 94 94 87 bd
       0.12474999 0.08765419 0.057250403 -0.06620136
0003a0 2b 05 1a 3e 49 d2 2b 3c c3 59 52 bd d4 47 f4 3d
       0.15041034 0.010487148 -0.051355135 0.11927763
0003b0 3c 7c c5 bc a2 bc 26 be 8e d5 9a bd e3 8e af bd
       -0.024107091 -0.16282895 -0.075602636 -0.08572175
0003c0 1b 75 e7 3d d9 9f 1a be 13 ee 74 3d 9e cb 17 3e
       0.11301633 -0.1510004 0.059797358 0.14823768
0003d0 6c b8 34 3e 40 9f 29 be 22 5a 30 be 68 64 31 3e
       0.17648476 -0.16564655 -0.17221883 0.17323458
0003e0 db b3 17 3e 6e 5e 81 bd 1e 93 0a be 2a df 21 be
       0.14814703 -0.06316839 -0.13532683 -0.15807787
0003f0 96 48 28 be 73 d6 c6 3c b4 3b d7 bc 08 58 fd 3d
       -0.1643394 0.02427218 -0.026273586 0.12370306

model.2.bias f4 [10]
000000 a4 61 60 3c d5 c5 fb bd fc 2c 25 be 53 41 b4 3d
       0.013695154 -0.12293593 -0.16130441 0.08801522
000010 aa da b2 bd 63 e7 ad bd e8 83 f9 3d b7 79 ef bc
       -0.08733113 -0.08491399 0.12183362 -0.029232843
000020 c8 ad 0e 3e c1 f0 a1 3d
       0.1393348 0.07907248
