training/checkpoint_2.pt (torch, 70935 bytes, 33 tensors)

policy_log_std f4 [30]
2.0004184 2.0004897 2.0003037 2.0002773 2.0001283 2.000299 2.0003781 2.000159
2.0008223 2.0004125 2.0005631 2.0003817 2.000352 2.0003676 2.0001307 2.000574
2.000474 2.000703 2.0003576 2.000155 2.0002189 2.000594 2.0003457 2.000173
2.0000927 2.0003974 2.000477 2.0003486 2.0002797 2.0001662
00000000: db06 0040 0608 0040 fa04 0040 8b04 0040
00000010: 1a02 0040 e604 0040 3206 0040 9b02 0040
00000020: 790d 0040 c206 0040 3a09 0040 4106 0040
00000030: c405 0040 0606 0040 2402 0040 6809 0040
00000040: c407 0040 850b 0040 dc05 0040 8a02 0040
00000050: 9603 0040 bb09 0040 aa05 0040 d602 0040
00000060: 8501 0040 8306 0040 d107 0040 b605 0040
00000070: 9504 0040 b902 0040

host_encoder.weight f4 [32, 2]
-0.16963668 -0.047749233 0.29961008 0.43253496 -0.25531557 -0.03680532 0.62427217 -0.49819115
0.17593248 -0.42324576 -0.11694671 -0.023729015 0.17909473 -0.41968328 0.29184327 0.2151487
0.27647123 -0.43013242 -0.072392635 -0.21697342 -0.1590047 0.55529886 0.04028163 0.8633574
-0.05978371 0.5256603 -0.18136789 -0.21276738 -2.5109453 -1.9540235 -0.30744624 0.15281498
-0.27732635 0.6370518 -0.60002977 0.13253954 0.046064764 0.5129799 -0.19776526 -0.11930294
-0.2920673 0.34584445 -0.12184898 0.28489625 0.002826165 -0.4552217 0.39990833 0.2132779
-0.1050901 -0.30198032 -0.07729636 -0.10853414 0.6134025 -0.24310882 0.23101404 -0.43269616
-0.035397854 0.20230818 -0.3248771 0.1164783 -0.26772544 -0.4695494 0.06596711 0.6289835
00000000: 3db5 2dbe b394 43bd 7e66 993e 3975 dd3e
00000010: b9b8 82be 2dc1 16bd 4dd0 1f3f e912 ffbe
00000020: a527 343e abb3 d8be c281 efbd 5a63 c2bc
00000030: 9c64 373e bae0 d6be 7b6c 953e f14f 5c3e
00000040: a38d 8d3e 513a dcbe 9742 94bd 482e 5ebe
00000050: 21d2 22be 1128 0e3f 5afe 243d fe04 5d3f
00000060: c3df 74bd ac91 063f 81b8 39be b1df 59be
00000070: 54b3 20c0 711d fabf 9869 9dbe 887b 1c3e
00000080: b8fd 8dbe d415 233f 8d9b 19bf 72b8 073e
00000090: 68ae 3c3d a752 033f fa82 4abe 1a55 f4bd
000000a0: d889 95be 8612 b13e f58b f9bd ecdd 913e
000000b0: 2e37 393b d212 e9be c9c0 cc3e 8665 5a3e
000000c0: 7a39 d7bd 2a9d 9abe 8e4d 9ebd 2647 debd
000000d0: f207 1d3f 85f1 78be f28e 6c3e 5a8a ddbe
000000e0: 57fd 10bd e029 4f3e 4b56 a6be 2d8c ee3d
000000f0: 4f13 89be c768 f0be c419 873d 1005 213f

host_encoder.bias f4 [32]
0.0 0.1552944 0.0 0.29888806 0.28182757 0.0 0.27690756 0.16779546
0.29495075 0.0 0.22237262 0.17627528 0.21511352 0.0 0.22521049 0.0
0.24538857 0.18638483 0.20990825 0.0 0.115287565 0.18384613 -0.008651679 0.18668067
0.0 0.0 0.27797213 0.085838795 0.22553714 0.0 0.0 0.18146399
00000000: 0000 0000 7f05 1f3e 0000 0000 db07 993e
00000010: b44b 903e 0000 0000 d4c6 8d3e 93d2 2b3e
00000020: c903 973e 0000 0000 a6b5 633e 8281 343e
00000030: b846 5c3e 0000 0000 949d 663e 0000 0000
00000040: 2447 7b3e aadb 3e3e 30f2 563e 0000 0000
00000050: e31b ec3d 2942 3c3e c6bf 0dbc 3829 3f3e
00000060: 0000 0000 0000 0000 5d52 8e3e 40cc af3d
00000070: 35f3 663e 0000 0000 0000 0000 b2d1 393e

job_encoder.weight f4 [32, 2]
-0.016504707 0.36418778 -0.00656718 -0.030349713 -0.07740957 -0.021255814 0.07604503 -0.59362733
-0.025726462 -0.13693681 0.0852402 0.06416665 0.08639995 -0.059877973 -0.18808559 -0.30239558
-0.16113599 -0.09670647 0.10886141 0.45396256 -0.21523055 -0.11679958 -0.38840872 0.19871311
-0.021373466 0.2681474 0.6371312 -0.06442179 0.46227172 -0.18294105 0.09970353 -0.038089205
-0.5552952 -0.24162206 -0.047372863 -0.28395605 0.1323968 -0.11116038 -0.114751115 0.4864714
0.03459673 -0.46454573 0.08580914 -0.31015173 -0.44850805 0.0863172 0.026332052 0.04211608
-0.08387841 -0.4559959 -0.019449327 -0.15792574 -0.38214263 -0.19726312 -0.23537423 0.06362556
0.2576174 -0.18332866 0.007498389 -0.28162095 0.33437672 0.1331498 0.040966246 -0.2567818
00000000: e134 87bc d276 ba3e 8031 d7bb f69f f8bc
00000010: e988 9ebd ac20 aebc 7fbd 9b3d f6f7 17bf
00000020: 4dc0 d2bc 2a39 0cbe 6a92 ae3d ce69 833d
00000030: 75f2 b03d 9b42 75bd 8299 40be 98d3 9abe
00000040: d500 25be 0b0e c6bd bbf2 de3d c86d e83e
00000050: 6665 5cbe 9e34 efbd 82dd c6be 737b 4b3e
00000060: 6817 afbc 9e4a 893e 081b 233f 92ef 83bd
00000070: e1ae ec3e e654 3bbe 5d31 cc3d 6d03 1cbd
00000080: d427 0ebf c66b 77be 0c0a 42bd b062 91be
00000090: 0793 073e 0ea8 e3bd a202 ebbd c812 f93e
000000a0: 4db5 0d3d f0d8 edbe b4bc af3d 35cc 9ebe
000000b0: d9a2 e5be 12c7 b03d 51b6 d73c e981 2c3d
000000c0: 72c8 abbd 4b78 e9be 3254 9fbc 49b7 21be
000000d0: 33a8 c3be 58ff 49be f105 71be 1e4e 823d
000000e0: 6ee6 833e 82ba 3bbe 0cb5 f53b 9f30 90be
000000f0: 6d33 ab3e 6c58 083e 39cc 273d e778 83be

job_encoder.bias f4 [32]
0.364524 0.0 0.0 0.0 0.0 0.32885402 0.34546077 0.2779478
0.0 0.43925548 0.0 0.28599697 0.33366778 0.39084524 0.3236737 0.30708057
0.0 0.0 0.30171493 0.35687307 0.0 0.2782686 0.0 0.30605757
0.0 0.29145226 0.0 -0.005084357 0.36479074 0.0 0.49926138 -0.007980692
00000000: e4a2 ba3e 0000 0000 0000 0000 0000 0000
00000010: 0000 0000 8e5f a83e 3ce0 b03e 2d4f 8e3e
00000020: 0000 0000 18e6 e03e 0000 0000 326e 923e
00000030: 81d6 aa3e de1c c83e 8fb8 a53e aa39 9d3e
00000040: 0000 0000 0000 0000 617a 9a3e 11b8 b63e
00000050: 0000 0000 3979 8e3e 0000 0000 94b3 9c3e
00000060: 0000 0000 3b39 953e 0000 0000 ae9a a6bb
00000070: dac5 ba3e 0000 0000 309f ff3e 73c1 02bc

attention.in_proj_weight f4 [96, 32]
-0.18389344 0.021038178 -0.02516149 -0.21476005 -0.039452944 -0.14051045 -0.20886374 0.040251054
-0.047241498 0.054036792 0.053632464 -0.29196686 -0.0346286 0.07096657 -0.28002083 -0.27927932
0.21192703 0.173965 -0.27086487 0.0695432 -0.027698105 -0.4334242 0.016266868 -0.06301229
-0.064943425 -0.12136208 -0.18513477 0.15006264 0.009206574 0.11939604 -0.076702915 0.070106365
-0.2599271 -0.054099176 -0.020669334 -0.12048278 -0.15991592 0.020131642 0.0041218917 -0.38689935
0.0688949 -0.0052547944 0.20567417 0.012347825 0.10323834 -0.16885816 0.028340876 0.03793249
-0.20445302 -0.1737911 -0.0963392 0.035709467 -0.10756318 -0.16684927 -0.0003143089 -0.083191454
-0.116339594 -0.051572792 0.14397874 -0.15033163 -0.16097923 0.00060071767 -0.037458144 0.19910105
0.19876301 -0.049195 0.19445148 -0.08238778 -0.062867336 0.1557193 -0.0130702 0.24025486
-0.14689425 0.13975033 0.020742944 0.20762031 -0.053514693 -0.12104674 0.21068841 0.33424097
-0.19212174 0.0801927 -0.021751838 0.14128749 0.20142834 0.34162867 -0.1582964 0.28940362
0.11308498 0.1707759 0.2097355 -0.085994855 0.10410262 -0.109425366 0.14011902 0.05748228
-0.043161675 -0.121814504 -0.0974639 0.073645175 -0.18983848 -0.12372793 -0.11719213 -0.20225129
0.07879057 -0.04501421 0.15200146 -0.108499624 -0.19607824 0.07628586 -0.07500841 -0.16924861
-0.14269994 0.050746694 -0.32213265 0.019176794 0.10705042 -0.36804292 -0.14174072 -0.25836846
0.181975 0.028235072 0.013553482 0.20327942 -0.21253967 -0.21018918 -0.007934099 0.07595658
0.1128089 -6.266563e-05 0.16592963 0.13271055 0.15670055 -0.31416395 0.07584598 -0.45235935
0.19410034 -0.08806732 -0.19187163 -0.02817014 -0.13050103 -0.23403102 -0.1411617 -0.07852952
0.16862524 -0.06656048 0.043524913 -0.0656899 0.007297965 -0.061338134 -0.14208634 -0.29098397
-0.06802881 -0.28443518 -0.100967854 0.00989454 -0.24442558 -0.08980597 -0.104036205 -0.027104318
-0.027872961 0.010403346 -0.030388935 0.061919864 0.009779039 0.00565812 0.05767485 0.17014955
-0.13509677 0.10076384 -0.015286594 0.20675258 0.13876829 0.2442649 0.105136484 -0.03228632
0.09678028 -0.14632319 0.09934752 0.0027273402 -0.082152136 0.10513465 0.19895212 0.2520507
0.060002007 0.3700481 -0.19620281 0.034928832 0.2911939 0.143823 -0.075528026 0.07784253
-0.234653 -0.008459731 -0.045178436 -0.18077512 -0.20652853 -0.26270953 -0.030662367 -0.13874643
-0.18830937 -0.17774907 0.0035365045 -0.30425438 0.020764466 0.12537158 -0.058951788 -0.28703427
0.050486326 0.07859475 0.05332112 -0.21397263 -0.19397016 -0.056260448 0.013478892 -0.2043114
-0.09072099 -0.24587859 0.17526124 -0.037407856 0.018036673 0.19326432 -0.06568333 0.044403654
-0.0858936 0.1486999 -0.19509125 0.0861009 -0.035275124 0.0132805435 -0.09920831 -0.25584054
-0.023371855 0.05650326 -0.15037014 -0.22888672 -0.112853855 -0.12505943 0.010841366 0.050836623
-0.023187522 0.20472273 -0.18175709 -0.17774193 -0.096928604 -0.28331885 -0.15175661 -0.29184803
-0.19188508 -0.05767049 0.13203725 0.20327297 0.071731776 -0.0124694025 -0.022799086 -0.13003714
00000000: 904e 3cbe 4258 ac3c 781f cebc 0fea 5bbe
00000010: 6999 21bd f9e1 0fbe 60e0 55be 4ade 243d
00000020: 4d80 41bd af55 5d3d b7ad 5b3d ae7c 95be
00000030: b8d6 0dbd ec56 913d e45e 8fbe b3fd 8ebe
00000040: 6603 593e e223 323e cdae 8abe aa6c 8e3d
00000050: 23e7 e2bc c7e9 ddbe 1842 853c 960c 81bd
00000060: 0f01 85bd af8c f8bd f893 3dbe 05aa 193e
00000070: 2cd7 163c e985 f43d 6b16 9dbd ed93 8f3d
00000080: 2a15 85be 1997 5dbd bc52 a9bc adbf f6bd
00000090: 00c1 23be 1deb a43c ef10 873b ac17 c6be
000000a0: c518 8d3d 6930 acbb 409c 523e 884e 4a3c
000000b0: 9f6e d33d 27e9 2cbe 202b e83c 195f 1b3d
000000c0: 225c 51be 4bf6 31be 7d4d c5bd 1744 123d
000000d0: 164a dcbd 89da 2abe d4c9 a4b9 4860 aabd
000000e0: 7443 eebd fe3d 53bd 2a6f 133e 89f0 19be
000000f0: bdd7 24be 7b79 1d3a b66d 19bd 25e1 4b3e
00000100: 8888 4b3e b280 49bd 4a1e 473e edba a8bd
00000110: 97c0 80bd e174 1f3e 6424 56bc 5f05 763e
00000120: 726b 16be b61a 0f3e 1bed a93c 6b9a 543e
00000130: 3932 5bbd 5ae7 f7bd b4be 573e a221 ab3e
00000140: 90bb 44be 123c a43d e930 b2bc abad 103e
00000150: 3b43 4e3e f4e9 ae3e 7418 22be b62c 943e
00000160: 1999 e73d e1df 2e3e e7c4 563e 121e b0bd
00000170: c133 d53d 681a e0bd 5c7b 0f3e 8a72 6b3d
00000180: 4cca 30bd e279 f9bd 279b c7bd 48d3 963d
00000190: 0565 42be 1265 fdbd 6d02 f0bd f61a 4fbe
000001a0: f35c a13d d260 38bd 45a6 1b3e 0d35 debd
000001b0: bcc8 48be c33b 9c3d 029e 99bd 824f 2dbe
000001c0: ef1f 12be c4db 4f3d 92ee a4be a718 9d3c
000001d0: 403d db3d 1f70 bcbe 7b24 11be df48 84be
000001e0: a857 3a3e 3d4d e73c 6c0f 5e3c 7b28 503e
000001f0: 00a4 59be d53b 57be 06fe 01bc 208f 9b3d
00000200: 5a08 e73d 5b6b 83b8 75e9 293e 46e5 073e
00000210: 1c76 203e 19da a0be 2355 9b3d a59b e7be
00000220: 3dc2 463e a45c b4bd ff79 44be 11c5 e6bc
00000230: 10a2 05be d4a5 6fbe b18c 10be 16d4 a0bd
00000240: 18ac 2c3e dc50 88bd 2e47 323d 6d88 86bd
00000250: c523 ef3b b23d 7bbd 157f 11be dafb 94be
00000260: b052 8bbd 7da1 91be 3cc8 cebd b51c 223c
00000270: b34a 7abe 31ec b7bd ef10 d5bd e009 debc
00000280: d655 e4bc cc72 2a3c 37f2 f8bc af9f 7d3d
00000290: 4338 203c c067 b93b 773c 6c3d af3b 2e3e
000002a0: cf56 0abe 465d ce3d 9f74 7abc f3b6 533e
000002b0: 4619 0e3e 9420 7a3e cc51 d73d a93e 04bd
000002c0: bd34 c63d bfd5 15be b676 cb3d 2dbd 323b
000002d0: 613f a8bd d650 d73d 1bba 4b3e ca0c 813e
000002e0: aac4 753d f276 bd3e 64e9 48be 8911 0f3d
000002f0: 5e17 953e 5646 133e 70ae 9abd e86b 9f3d
00000300: e048 70be af9a 0abc 060d 39bd 1d1d 39be
00000310: 377c 53be dd81 86be a52f fbbc 8b13 0ebe
00000320: 2cd4 40be da03 36be b3c4 673b 3bc7 9bbe
00000330: 3e1a aa3c 6861 003e 6e77 71bd 28f6 92be
00000340: c0ca 4e3d 49f6 a03d 3f67 5a3d a41b 5bbe
00000350: 1da0 46be 5b71 66bd 92d6 5c3c 0237 51be
00000360: edcb b9bd 99c7 7bbe af77 333e fb38 19bd
00000370: a5c1 933c 15e7 453e fb84 86bd 9be0 353d
00000380: fce8 afbd c944 183e 00c6 47be ab55 b03d
00000390: a67c 10bd a396 593c ba2d cbbd 88fd 82be
000003a0: 5576 bfbc f66f 673d a1fa 19be 4861 6abe
000003b0: ec1f e7bd 940f 00be fc9f 313c 103a 503d
000003c0: c2f3 bdbc d6a2 513e 881e 3abe fb01 36be
000003d0: 8182 c6bd 2b0f 91be 1666 1bbe 1b6d 95be
000003e0: 867d 44be e437 6cbd c634 073e ca26 503e
000003f0: 1ce8 923d 774c 4cbc 26c5 babc 7528 05be

attention.in_proj_bias f4 [96]
-0.17494172 -0.23845276 0.26116174 -0.15669201 -0.29845327 0.22227708 -0.28707245 -0.22686778
0.231528 -0.15860683 -0.065163136 -0.34262916 0.24763665 -0.40779853 0.13372235 -0.22699553
-0.48696363 0.32251662 0.29156217 -0.33278736 -0.46911502 0.33250418 0.5558944 0.41107515
0.23092617 -0.0069689862 -0.23151904 0.043925397 -0.14635769 -0.24671516 0.24466018 -0.19384639
0.004196974 0.0077225016 0.01593478 -0.0018427894 -0.015387269 0.0016939051 -0.011482182 -0.0062067052
0.018943988 0.0076763066 0.010349377 -0.030474769 -0.0025051695 -0.043476537 0.027940337 -0.015778081
-0.033881653 0.027968878 0.032437343 -0.029049315 -0.03408705 0.029971087 0.034397606 0.031752676
0.025268368 0.0020781 -0.03377494 0.015999291 0.011746232 -0.020188699 0.020360282 -0.034523994
-0.07556125 -0.14242072 -0.13482021 -0.12116745 0.15629503 -0.11997357 -0.19338667 -0.17061606
0.19947937 0.1823022 0.15693495 0.14073235 0.13251185 0.16972177 -0.16440839 -0.18070465
0.13712932 0.19912069 0.16568437 -0.122359365 0.20422855 0.17764741 0.19764033 0.14095189
-0.17934713 -0.15527508 0.1104603 -0.1588805 -0.15226017 -0.12273133 0.18283825 -0.13391966
00000000: ec23 33be f62c 74be feb6 853e df73 20be
00000010: dece 98be 9a9c 633e 29fb 92be 0750 68be
00000020: ad15 6d3e d469 22be 4074 85bd 176d afbe
00000030: 7694 7d3e f8ca d0be 83ee 083e 8471 68be
00000040: 4c53 f9be e620 a53e a347 953e 1b63 aabe
00000050: d82f f0be fd3d aa3e 184f 0e3f 7178 d23e
00000060: e977 6c3e 185c e4bb 5413 6dbe 1eeb 333d
00000070: cade 15be e6a2 7cbe 3388 7a3e ab7f 46be
00000080: c586 893b 0a0d fd3b a889 823c c089 f1ba
00000090: e21a 7cbc 0606 de3a c31f 3cbc 9e61 cbbb
000000a0: 6c30 9b3c 8789 fb3b 6f90 293c 39a6 f9bc
000000b0: c52d 24bb 7414 32bd 22e3 e43c 0941 81bc
000000c0: 7dc7 0abd fd1e e53c 05dd 043d d4f8 edbc
000000d0: dd9e 0bbd ed85 f53c 81e4 0c3d 180f 023d
000000e0: 9cff ce3c bc30 083b 9757 0abd f210 833c
000000f0: 4573 403c c562 a5bc 9bca a63c 0869 0dbd
00000100: dbbf 9abd bdd6 11be 4f0e 0abe a426 f8bd
00000110: ce0b 203e b4b4 f5bd 2807 46be fab5 2ebe
00000120: 5244 4c3e 6ead 3a3e 8eb3 203e 241c 103e
00000130: 30b1 073e 8bcb 2d3e ac5a 28be a40a 39be
00000140: a16b 0c3e 4be6 4b3e 2aa9 293e 8c97 fabd
00000150: 4a21 513e 34e9 353e 3a62 4a3e b155 103e
00000160: c6a6 37be 6e00 1fbe 0339 e23d 92b1 22be
00000170: 17ea 1bbe 905a fbbd f339 3b3e 3c22 09be

attention.out_proj.weight f4 [32, 32]
0.23986673 0.15199663 0.21972135 0.41109478 -0.42243558 0.60680825 0.11517236 0.09291191
-0.03738062 0.051330708 -0.29329446 -0.060176108 0.057573237 -0.6576778 0.5997233 0.030723631
-0.048641518 -0.18302673 -0.3143958 0.58382684 -0.46154246 -0.22859612 -0.07278023 -0.12661037
0.43189904 -0.27099684 -0.90063596 0.86444616 0.2604486 0.62208754 -0.042493917 0.053299755
-0.56655484 -0.00022177688 -0.59106386 -0.27561617 0.37539926 -0.79982066 -0.07352225 -0.12338031
-0.28072548 -0.10241159 0.46947727 0.3772026 0.48784766 0.14869945 -0.08676818 -0.22940533
-0.04129859 0.25500882 0.06850718 -0.17596397 0.44723162 -0.044127453 -0.09766656 -0.29606387
-0.26193598 -0.387066 0.24019913 0.062588885 -0.511241 -0.91106427 0.23287036 -0.3912005
-0.11340877 -0.369325 -0.48529047 -0.46319914 0.69316524 -0.88325053 0.38729417 -0.1806076
0.39470458 0.17251137 0.3748595 0.123552606 -0.11330137 0.25217354 -0.0032884693 -0.122379884
0.023141574 0.35319832 0.32348382 -0.47441125 0.4358981 -0.3988622 0.4271099 -0.016726406
0.3788514 -0.0730737 0.80271405 0.15630439 0.004489629 -0.18317562 0.0172435 -0.35635936
-0.3376649 -0.13867535 -0.22457846 -0.039678324 0.43925986 -0.9885469 -0.28630257 -0.18328519
0.34587637 0.4551122 0.1165396 0.43192154 -0.46404105 -0.16126055 -0.057524234 -0.6011512
0.29100242 0.18786454 0.3389058 -0.4039681 -0.16002187 -0.040510464 -0.039663963 0.25409314
0.0635042 -0.35520786 0.7284719 -0.49573162 -0.32267928 -1.048217 0.033122703 -0.39631876
-0.5048764 -0.12731001 -0.40731344 -0.57648236 0.05258273 -0.5257342 0.25003496 -0.5466218
0.32747757 0.12524037 0.55808717 -0.02868146 0.12179216 -0.034754194 -0.39379823 -0.4409102
0.098564036 0.107839234 0.33794108 0.046666685 0.02850367 0.4896701 0.4912185 0.3810823
-0.42404076 -0.5784671 0.99043477 0.019803548 -0.13133448 -0.59218657 -0.13379818 -0.12995833
-0.032994784 -0.5756873 -0.9303294 -0.063518725 0.36565354 -0.5761418 -0.107463755 -0.24200296
0.66947037 0.27564308 0.22409433 0.5783372 0.20656618 0.50784975 -0.04702215 -0.036425833
0.22979204 0.08391956 0.18947892 0.1397377 0.11786784 0.4427313 0.11403404 0.20241135
0.10278526 -0.14482053 0.42787665 -0.30866805 -0.51557684 -0.55651885 0.16130462 0.25076804
0.1784843 -0.06751091 -0.29225934 -0.34851846 -0.008505187 -0.6958362 -0.15872273 0.27064177
-0.01141079 0.87025857 0.18283205 0.047249757 0.37504375 -0.10648458 -0.06178671 -0.16400014
0.331074 0.44749668 0.21475476 -0.13228698 0.5006461 0.4894549 0.27149785 -0.14853223
0.054243013 -0.053396977 0.96801794 -0.1638453 -0.06735402 -0.70016736 0.3000218 -0.18596093
0.16425416 -0.27108115 -0.32791263 -0.15005082 0.08015028 -0.8170881 -0.38275483 -0.3524788
0.37711257 0.3594633 0.9136108 0.026757697 0.2577116 0.22383595 0.25126117 -0.1358812
-0.15068677 0.46165705 0.06311029 -0.65953887 0.056078557 0.27907333 -0.30404902 0.13952419
-0.2933373 -0.24525139 0.642729 -0.18344969 -0.30439386 -0.29282436 -0.46001598 -0.33575678
00000000: a09f 753e 01a5 1b3e a2fe 603e 047b d23e
00000010: 7a49 d8be c957 1b3f 7cdf eb3d 9948 be3d
00000020: 6c1c 19bd 2640 523d b12a 96be 397b 76bd
00000030: ead1 6b3d 935d 28bf 7787 193f 20b0 fb3c
00000040: 543c 47bd 5c6b 3bbe 7cf8 a0be ad75 153f
00000050: 4b4f ecbe 1a15 6abe cd0d 95bd 26a6 01be
00000060: df21 dd3e 19c0 8abe 1490 66bf 584c 5d3f
00000070: 8559 853e 2141 1f3f 1a0e 2ebd d850 5a3d
00000080: bd09 11bf c78c 68b9 f64f 17bf 901d 8dbe
00000090: 5534 c03e 0cc1 4cbf d592 96bd d1ae fcbd
000000a0: 40bb 8fbe 2bbd d1bd 535f f03e b320 c13e
000000b0: 2bc7 f93e ab44 183e 84b3 b1bd 3be9 6abe
000000c0: b628 29bd 8490 823e 7e4d 8c3d e62f 34be
000000d0: 8bfb e43e fdbe 34bd 6805 c8bd af95 97be
000000e0: 791c 86be 842d c6be c3f6 753e 9a2e 803d
000000f0: b1e0 02bf 823b 69bf 9175 6e3e 6f4b c8be
00000100: db42 e8bd 2b18 bdbe fe77 f8be 7028 edbe
00000110: 4773 313f b51c 62bf 6c4b c63e 33f1 38be
00000120: b816 ca3e d2a6 303e 96ed bf3e 2609 fd3d
00000130: 8c0a e8bd e41c 813e 5c83 57bb 4ea2 fabd
00000140: 6693 bd3c 69d6 b43e ac9f a53e 08e6 f2be
00000150: 092e df3e ab37 ccbe 26ae da3e d105 89bc
00000160: d0f8 c13e aaa7 95bd ab7e 4d3f 420e 203e
00000170: bd1d 933b 6492 3bbe 3e42 8d3c bc74 b6be
00000180: 6ae2 acbe e900 0ebe e5f7 65be bd85 22bd
00000190: abe6 e03e 6911 7dbf 4096 92be 1daf 3bbe
000001a0: b516 b13e 7704 e93e 50ac ee3d d224 dd3e
000001b0: ca96 edbe 7c21 25be 889e 6bbd 0ce5 19bf
000001c0: 45fe 943e 905f 403e 1085 ad3e e8d4 cebe
000001d0: c6dc 23be 4dee 25bd ae76 22bd 7f18 823e
000001e0: 7d0e 823d cedd b5be 227d 3a3f 89d0 fdbe
000001f0: 3836 a5be fa2b 86bf acab 073d 4bea cabe
00000200: 943f 01bf 8e5d 02be 638b d0be 5994 13bf
00000210: fd60 573d 8496 06bf 9504 803e 68ef 0bbf
00000220: 24ab a73e 033f 003e cdde 0e3f 62f5 eabc
00000230: 2b6e f93d 6a5a 0ebd ec9f c9be fbbe e1be
00000240: f1db c93d d1da dc3d 9d06 ad3e 9125 3f3d
00000250: 8780 e93c 0ab6 fa3e fe80 fb3e 381d c33e
00000260: df1b d9be 6b16 14bf 228d 7d3f 0d3b a23c
00000270: 8c7c 06be 8a99 17bf 6402 09be cc13 05be
00000280: 8a25 07bd 3e60 13bf 112a 6ebf 1b16 82bd
00000290: f136 bb3e 077e 13bf f515 dcbd a0cf 77be
000002a0: 6962 2b3f 1721 8d3e fc78 653e e80d 143f
000002b0: 1686 533e 7102 023f 4c9a 40bd 4133 15bd
000002c0: 9b4e 6b3e 05de ab3d c306 423e 6617 0f3e
000002d0: b264 f13d adad e23e ae8a e93d ec44 4f3e
000002e0: 1481 d23d d54b 14be a612 db3e bd09 9ebe
000002f0: d8fc 03bf 0578 0ebf 0a2d 253e ab64 803e
00000300: 97c4 363e 2943 8abd 04a3 95be 0371 b2be
00000310: 5759 0bbc 5222 32bf 3688 22be 8f91 8a3e
00000320: 52f4 3abc 44c9 5e3f 5338 3b3e f688 413d
00000330: bc05 c03e 9614 dabd 1014 7dbd a7ef 27be
00000340: 8882 a93e 491e e53e ace8 5b3e 3d76 07be
00000350: 582a 003f d599 fa3e c401 8b3e d518 18be
00000360: ec2d 5e3d cab6 5abd 06d0 773f 10c7 27be
00000370: e8f0 89bd 2b3e 33bf 759c 993e 8b6c 3ebe
00000380: 3e32 283e 26cb 8abe 2ae4 a7be eca6 19be
00000390: d425 a43d b02c 51bf 71f8 c3be 1a78 b4be
000003a0: e614 c13e 930b b83e 66e2 693f f532 db3c
000003b0: c6f2 833e 4035 653e 4ea5 803e 7124 0bbe
000003c0: a24d 1abe 505e ec3e f83f 813d 8ad7 28bf
000003d0: a1b2 653d b3e2 8e3e 50ac 9bbe 6edf 0e3e
000003e0: 4e30 96be 2e23 7bbe e389 243f 3cda 3bbe
000003f0: 83d9 9bbe 13ed 95be 3787 ebbe 50e8 abbe

attention.out_proj.bias f4 [32]
-0.09639928 0.094941646 0.08783644 0.09062626 0.10990163 0.12098233 0.11798827 0.09585672
-0.08811469 0.09911802 0.08090884 -0.11833665 0.10430832 -0.086753435 -0.0918481 0.10343303
-0.09683759 -0.1112438 0.09685889 -0.104249716 -0.08393105 -0.14009109 0.07820255 -0.09428495
0.100864686 0.10088764 0.09181171 -0.10803359 -0.08920708 0.122845486 -0.097124204 0.10319583
00000000: fc6c c5bd c470 c23d 97e3 b33d 439a b93d
00000010: 1b14 e13d 95c5 f73d d6a3 f13d 8750 c43d
00000020: 7975 b4bd 63fe ca3d 89b3 a53d 7c5a f2bd
00000030: 9a9f d53d c9ab b1bd db1a bcbd b2d4 d33d
00000040: c952 c6bd cad3 e3bd f45d c63d e080 d5bd
00000050: 0be4 abbd 0a74 0fbe a928 a03d 7818 c1bd
00000060: 2592 ce3d 2e9e ce3d c707 bc3d b740 ddbd
00000070: 34b2 b6bd 6a96 fb3d 0ee9 c6bd 5658 d33d

priority_head.weight f4 [1, 32]
-0.30404785 -0.019523539 0.24917415 0.17945708 -0.05348785 -0.30915567 -0.094220676 -0.5653638
-0.7155785 -0.0053485595 -0.4772256 0.1483278 -0.50839007 0.22143915 0.29886693 -0.20321141
-0.13714789 0.06974046 -0.25447622 -0.035670117 0.096714996 0.11549047 -0.37576172 -0.3325252
-0.039761912 0.062720634 -0.07840859 -0.18628074 -0.16511399 -0.074741974 -0.17376392 -0.00018378971
00000000: 29ac 9bbe d4ef 9fbc 8227 7f3e 99c3 373e
00000010: 1316 5bbd a749 9ebe c5f6 c0bd afbb 10bf
00000020: 2730 37bf f842 afbb ea56 f4be 3ee3 173e
00000030: da25 02bf f2c0 623e 1605 993e a716 50be
00000040: 7f70 0cbe 16d4 8e3d b54a 82be d41a 12bd
00000050: 8312 c63d 4486 ec3d d763 c0be be40 aabe
00000060: 63dd 22bd ad73 803d af94 a0bd 61c0 3ebe
00000070: a413 29be 5212 99bd 2bef 31be adb7 40b9

value_head.weight f4 [1, 32]
-0.4563882 0.52386814 0.34843397 0.6942577 0.3127126 0.27639773 0.30341417 0.44923535
-0.654086 0.46983477 0.703166 -0.2941106 0.4370075 -0.7350097 -0.4893959 0.36724067
-0.33282205 -0.3735412 0.39581522 -0.36019287 -0.50212175 -0.27573898 0.49956656 -0.6030134
0.46067294 0.4651602 0.6209587 -0.39581752 -0.7016779 0.33610395 -0.38167712 0.41047552
00000000: b7ab e9be 391c 063f f065 b23e dfba 313f
00000010: de1b a03e 0184 8d3e 1a59 9b3e 2d02 e63e
00000020: 2e72 27bf 2f8e f03e b002 343f aa95 96be
00000030: 72bf df3e 9829 3cbf 1992 fabe f806 bc3e
00000040: a767 aabe cb40 bfbe 4ba8 ca3e 336b b8be
00000050: 0d8b 00bf a92d 8dbe 30c7 ff3e 165f 1abf
00000060: 53dd eb3e 7a29 ee3e 26f7 1e3f 98a8 cabe
00000070: 2aa1 33bf d115 ac3e 2f6b c3be d929 d23e

exp_avg f4 [30]
-6e-45 -6e-45 -6e-45 -6e-45 -6e-45 -6e-45 -6e-45 -6e-45
-6e-45 -6e-45 -6e-45 -6e-45 -6e-45 -6e-45 -6e-45 -6e-45
-6e-45 -6e-45 -6e-45 -6e-45 -6e-45 -6e-45 -6e-45 -6e-45
-6e-45 -6e-45 -6e-45 -6e-45 -6e-45 -6e-45
00000000: 0400 0080 0400 0080 0400 0080 0400 0080
00000010: 0400 0080 0400 0080 0400 0080 0400 0080
00000020: 0400 0080 0400 0080 0400 0080 0400 0080
00000030: 0400 0080 0400 0080 0400 0080 0400 0080
00000040: 0400 0080 0400 0080 0400 0080 0400 0080
00000050: 0400 0080 0400 0080 0400 0080 0400 0080
00000060: 0400 0080 0400 0080 0400 0080 0400 0080
00000070: 0400 0080 0400 0080

exp_avg_sq f4 [30]
3.8643104e-16 5.7588743e-16 7.3271976e-16 1.8809441e-16 3.58791e-16 4.581564e-16 2.3583843e-16 8.131749e-17
4.842554e-16 2.4316752e-16 3.4568632e-16 1.3913482e-15 1.724992e-16 1.1214115e-16 3.1525142e-16 5.8035796e-16
4.0771208e-16 2.0764638e-16 1.0656651e-16 7.566926e-17 2.629631e-16 1.8116527e-16 7.482615e-17 1.9287092e-16
2.1429548e-16 1.1274702e-16 1.5401713e-15 6.962945e-17 1.8707506e-16 7.49128e-17
00000000: 28c3 de25 fefc 2526 2d31 5326 acdb 5825
00000010: 35d4 ce25 fa0d 0426 9cf3 8725 6081 bb24
00000020: be93 0b26 312d 8c25 4c46 c725 b083 c826
00000030: c7e0 4625 3a4a 0125 e6ba b525 dc46 2726
00000040: af07 eb25 6566 6f25 c4b9 f524 3f7b ae24
00000050: 8196 9725 8dde 5025 9089 ac24 735d 5e25
00000060: dd10 7725 0cfd 0125 4bf6 dd26 f98d a024
00000070: d0ae 5725 b6bc ac24

exp_avg f4 [32, 2]
0.0 0.0 -0.0007992281 0.0006790595 0.0 0.0 -0.002694618 0.0008788612
-0.0022208872 -0.00032398573 0.0 0.0 -0.0030183517 0.00022926096 -0.0011940321 0.0008492542
-0.0033950396 -0.00016742936 0.0 0.0 -0.0005604883 -0.0050588134 -0.00026301088 -0.0016590834
-0.00028465135 -0.0024088917 0.0 0.0 6.748341e-05 7.1602946e-05 0.0 0.0
0.0030366404 -0.0055079795 0.0020776684 0.00046152048 -0.00019200506 -0.00065237 0.0 0.0
0.012362868 0.0022632058 -0.0025076496 -0.0048746336 6e-45 6e-45 -0.00059672515 0.0007783076
0.0 0.0 0.0 0.0 -0.0024542112 0.00023952888 -3.8601112e-05 0.002377877
-0.0018322135 -0.0019607802 0.0 0.0 0.0 0.0 -0.0015565141 -0.0020487937
00000000: 0000 0000 0000 0000 4a83 51ba e902 323a
00000010: 0000 0000 0000 0000 3098 30bb 6063 663a
00000020: 4e8c 11bb a1dc a9b9 0000 0000 0000 0000
00000030: 8acf 45bb c565 7039 1281 9cba 7ca0 5e3a
00000040: 507f 5ebb fa8f 2fb9 0000 0000 0000 0000
00000050: bced 12ba 67c4 a5bb b9e4 89b9 9a75 d9ba
00000060: 423d 95b9 7fde 1dbb 0000 0000 0000 0000
00000070: e185 8d38 8a29 9638 0000 0000 0000 0000
00000080: 5f02 473b 487c b4bb 7e29 083b 3bf8 f139
00000090: f754 49b9 cf03 2bba 0000 0000 0000 0000
000000a0: a08d 4a3c 4b52 143b 6157 24bb 64bb 9fbb
000000b0: 0400 0000 0400 0000 8c6d 1cba 5707 4c3a
000000c0: 0000 0000 0000 0000 0000 0000 0000 0000
000000d0: d5d6 20bb 0b2a 7b39 a1e7 21b8 28d6 1b3b
000000e0: e226 f0ba 6f80 00bb 0000 0000 0000 0000
000000f0: 0000 0000 0000 0000 f203 ccba 0e45 06bb

exp_avg_sq f4 [32, 2]
0.0 0.0 9.9926605e-05 3.154254e-06 0.0 0.0 0.00090868183 6.399674e-05
0.0003083512 1.5195543e-05 0.0 0.0 0.00090790744 5.3998912e-05 8.131956e-06 8.59715e-07
0.00049532246 2.6955036e-05 0.0 0.0 0.015752606 0.0011334826 0.0041330564 0.0002710328
0.004450536 0.0003137345 0.0 0.0 6.738323e-08 1.8851075e-08 0.0 0.0
0.036856156 0.0024841754 1.2552654e-05 5.3117435e-07 0.0021222585 0.00013089477 0.0 0.0
0.00052576215 3.53783e-05 0.007900342 0.0006122891 7e-43 7e-43 5.561817e-06 2.8971172e-07
0.0 0.0 0.0 0.0 0.00056019163 3.5949746e-05 0.0039750854 0.0002798045
0.0014543671 0.000111501555 0.0 0.0 0.0 0.0 0.0021454867 0.00015525414
00000000: 0000 0000 0000 0000 b08f d138 acad 5336
00000010: 0000 0000 0000 0000 9b34 6e3a fd35 8638
00000020: 33aa a139 5cf0 7e37 0000 0000 0000 0000
00000030: a300 6e3a e47c 6238 7c6e 0837 2ac7 6635
00000040: 87d8 013a 801d e237 0000 0000 0000 0000
00000050: 9c0b 813c 5d91 943a 976e 873b 6819 8e39
00000060: cdd5 913b bb7c a439 0000 0000 0000 0000
00000070: 53b4 9033 f4ed a132 0000 0000 0000 0000
00000080: 7bf6 163d 8ccd 223b 3d99 5237 0696 0e35
00000090: 9715 0b3b cc40 0939 0000 0000 0000 0000
000000a0: 4dd3 093a 2963 1438 7070 013c 0782 203a
000000b0: f401 0000 f401 0000 a59f ba36 ad89 9b34
000000c0: 0000 0000 0000 0000 0000 0000 0000 0000
000000d0: d3d9 123a bfc8 1638 6f41 823b b9b2 9239
000000e0: 76a0 be3a f1d5 e938 0000 0000 0000 0000
000000f0: 0000 0000 0000 0000 4b9b 0c3b b7cb 2239

exp_avg f4 [32]
0.0 0.004574933 0.0 -0.014498703 -0.008178749 0.0 -0.014018964 0.0009178359
-0.009277882 0.0 0.059315212 0.029806713 0.031914283 0.0 -0.0076677203 0.0
0.09016607 0.013108725 0.02190853 0.0 0.05542901 0.041189954 6e-45 0.0012686832
0.0 0.0 -0.01104937 -0.029151639 0.017943863 0.0 0.0 0.02146531
00000000: 0000 0000 52e9 953b 0000 0000 f88b 6dbc
00000010: 2900 06bc 0000 0000 ccaf 65bc ed9a 703a
00000020: 4202 18bc 0000 0000 82f4 723d 352d f43c
00000030: 8db8 023d 0000 0000 8041 fbbb 0000 0000
00000040: fda8 b83d fac5 563c 8479 b33c 0000 0000
00000050: 8809 633d ccb6 283d 0400 0000 f249 a63a
00000060: 0000 0000 0000 0000 6b08 35bc 6bcf eebc
00000070: 02ff 923c 0000 0000 0000 0000 05d8 af3c

exp_avg_sq f4 [32]
0.0 0.00010942908 0.0 0.0010541523 0.0003612611 0.0 0.0010561642 5.727253e-06
0.0005808514 0.0 0.017880157 0.004723858 0.005049442 0.0 0.0012024203 0.0
0.042174034 0.0013137308 0.0024161332 0.0 0.011502666 0.008910739 7e-43 5.0045364e-06
0.0 0.0 0.0006511761 0.004534059 0.0016238574 0.0 0.0 0.0024101
00000000: 0000 0000 4a7d e538 0000 0000 7b2b 8a3a
00000010: a567 bd39 0000 0000 fd6e 8a3a bb2c c036
00000020: 4744 183a 0000 0000 6879 923c 98ca 9a3b
00000030: ca75 a53b 0000 0000 889a 9d3a 0000 0000
00000040: aebe 2c3d 7e31 ac3a fd57 1e3b 0000 0000
00000050: ae75 3c3c 59fe 113c f401 0000 a4ec a736
00000060: 0000 0000 0000 0000 b0b3 2a3a 7292 943b
00000070: 9dd7 d43a 0000 0000 0000 0000 c5f2 1d3b

exp_avg f4 [32, 2]
-0.00021773073 -0.0001786278 0.0 0.0 0.0 0.0 0.0 0.0
0.0 0.0 -0.00017997595 -0.00015478319 -4.7523707e-05 -4.2846244e-05 -0.00028426116 -0.00018671785
0.0 0.0 -0.00010233763 -7.480938e-05 0.0 0.0 -9.630844e-06 -4.440144e-05
-5.266445e-05 -4.660666e-05 -0.00010010229 -7.4594565e-05 -0.00021565025 -0.00017963277 -0.00026866246 -0.00022662575
0.0 0.0 0.0 0.0 -4.351668e-05 -4.6197558e-05 -4.3936383e-05 -3.9901108e-05
0.0 0.0 -0.00024064527 -0.00022140228 0.0 0.0 -0.00042414636 -0.000361282
0.0 0.0 -0.00019359679 -0.00017330133 0.0 0.0 6e-45 6e-45
-0.0001796006 -0.00015465426 0.0 0.0 -3.836284e-05 -2.242236e-05 6e-45 6e-45
00000000: a64e 64b9 094e 3bb9 0000 0000 0000 0000
00000010: 0000 0000 0000 0000 0000 0000 0000 0000
00000020: 0000 0000 0000 0000 edb7 3cb9 4c4d 22b9
00000030: 3154 47b8 ceb5 33b8 e308 95b9 b1c9 43b9
00000040: 0000 0000 0000 0000 199e d6b8 fbe2 9cb8
00000050: 0000 0000 0000 0000 2994 21b7 af3b 3ab8
00000060: 06e4 5cb8 857b 43b8 02ee d1b8 a76f 9cb8
00000070: 2c20 62b9 ce5b 3cb9 44db 8cb9 63a2 6db9
00000080: 0000 0000 0000 0000 0000 0000 0000 0000
00000090: ae85 36b8 40c4 41b8 5548 38b8 7d5b 27b8
000000a0: 0000 0000 0000 0000 b955 7cb9 3928 68b9
000000b0: 0000 0000 0000 0000 f65f deb9 736a bdb9
000000c0: 0000 0000 0000 0000 3e00 4bb9 39b8 35b9
000000d0: 0000 0000 0000 0000 0400 0000 0400 0000
000000e0: 2b53 3cb9 b02a 22b9 0000 0000 0000 0000
000000f0: c9e7 20b8 a717 bcb7 0400 0000 0400 0000

exp_avg_sq f4 [32, 2]
9.418041e-08 6.389918e-08 0.0 0.0 0.0 0.0 0.0 0.0
0.0 0.0 9.270974e-08 6.339547e-08 6.744917e-08 4.6580276e-08 1.1929913e-07 5.6067172e-08
0.0 0.0 1.9133607e-08 1.25769475e-08 0.0 0.0 1.3998401e-07 1.2339451e-07
3.8597207e-08 2.6778805e-08 3.6517626e-08 2.533314e-08 1.0324008e-07 7.0832e-08 1.4805826e-07 1.0060179e-07
0.0 0.0 0.0 0.0 8.4285105e-08 5.8134425e-08 1.7650098e-08 1.2004303e-08
0.0 0.0 3.2596722e-07 2.2401167e-07 0.0 0.0 2.811814e-07 1.8957724e-07
0.0 0.0 1.3454301e-07 9.188296e-08 0.0 0.0 7e-43 7e-43
1.04578675e-07 7.299315e-08 0.0 0.0 1.0944126e-08 7.789035e-09 7e-43 7e-43
00000000: 3a40 ca33 f238 8933 0000 0000 0000 0000
00000010: 0000 0000 0000 0000 0000 0000 0000 0000
00000020: 0000 0000 0000 0000 b817 c733 0724 8833
00000030: 93d8 9033 8e0f 4833 b218 0034 82ce 7033
00000040: 0000 0000 0000 0000 3f5b a432 0012 5832
00000050: 0000 0000 0000 0000 834e 1634 6d7e 0434
00000060: 14c6 2533 3707 e632 8ed7 1c33 2a9c d932
00000070: d6b4 dd33 4e1c 9833 f2f9 1e34 6b0a d833
00000080: 0000 0000 0000 0000 0000 0000 0000 0000
00000090: 3a00 b533 7aaf 7933 fa9c 9732 7c3b 4e32
000000a0: 0000 0000 0000 0000 9800 af34 dc87 7034
000000b0: 0000 0000 0000 0000 47f5 9634 988e 4b34
000000c0: 0000 0000 0000 0000 e776 1034 3151 c533
000000d0: 0000 0000 0000 0000 f401 0000 f401 0000
000000e0: bc94 e033 69c0 9c33 0000 0000 0000 0000
000000f0: c604 3c32 8ad0 0532 f401 0000 f401 0000

exp_avg f4 [32]
-0.00034649068 0.0 0.0 0.0 0.0 -0.00030711317 -0.00011302727 -0.00055999943
0.0 -0.00013462132 0.0 -9.6038166e-05 -0.00010458633 -0.00015581521 -0.0003602883 -0.00044802172
0.0 0.0 -0.00012080571 -7.502027e-05 0.0 -0.0004760976 0.0 -0.00069486705
0.0 -0.00034784077 0.0 6e-45 -0.0003181421 0.0 -4.635493e-05 6e-45
00000000: 31a9 b5b9 0000 0000 0000 0000 0000 0000
00000010: 0000 0000 0804 a1b9 0e09 edb8 edcc 12ba
00000020: 0000 0000 2329 0db9 0000 0000 1968 c9b8
00000030: 5c55 dbb8 5462 23b9 14e5 bcb9 75e4 eab9
00000040: 0000 0000 0000 0000 1259 fdb8 3354 9db8
00000050: 0000 0000 bd9c f9b9 0000 0000 bd27 36ba
00000060: 0000 0000 665e b6b9 0000 0000 0400 0000
00000070: 4fcc a6b9 0000 0000 3a6d 42b8 0400 0000

exp_avg_sq f4 [32]
1.9975727e-07 0.0 0.0 0.0 0.0 1.9725533e-07 1.3880285e-07 4.0585147e-07
0.0 3.727177e-08 0.0 3.1620755e-07 8.0695024e-08 7.821096e-08 2.1807755e-07 3.1448045e-07
0.0 0.0 1.7186764e-07 3.633603e-08 0.0 6.84884e-07 0.0 5.959072e-07
0.0 2.8411273e-07 0.0 7e-43 2.2261892e-07 0.0 2.3309042e-08 7e-43
00000000: dc7c 5634 0000 0000 0000 0000 0000 0000
00000010: 0000 0000 22cd 5334 d609 1534 cde3 d934
00000020: 0000 0000 bf14 2033 0000 0000 3cc3 a934
00000030: 8f4a ad33 eef4 a733 b328 6a34 ddd5 a834
00000040: 0000 0000 0000 0000 9e8a 3834 e30f 1c33
00000050: 0000 0000 dfd8 3735 0000 0000 6ef6 1f35
00000060: 0000 0000 2888 9834 0000 0000 f401 0000
00000070: 0609 6f34 0000 0000 2039 c832 f401 0000

exp_avg f4 [96, 32]
0.00018771221 0.0 0.0 0.0 0.0 0.00014312702 0.00012872761 1.7931492e-05
0.0 0.00025145625 0.0 6.90245e-05 0.00015993843 0.00024135107 0.00016678302 0.00012090821
0.0 0.0 0.00011270083 0.00018799049 0.0 6.302587e-05 0.0 0.00012089477
0.0 7.442118e-05 0.0 6e-45 0.00014530818 0.0 0.00025949386 6e-45
0.00026039002 0.0 0.0 0.0 0.0 0.00019806634 0.00017588872 1.9006988e-05
0.0 0.00035395398 0.0 7.901659e-05 0.00022057118 0.00035232835 0.00024128868 0.00016645162
0.0 0.0 0.00015520777 0.00025913498 0.0 8.164121e-05 0.0 0.00016495638
0.0 9.571995e-05 0.0 6e-45 0.00020311653 0.0 0.00036761642 6e-45
-0.00014037806 0.0 0.0 0.0 0.0 -0.000106056425 -9.344915e-05 -8.354168e-06
0.0 -0.00019156067 0.0 -4.0126826e-05 -0.00011857261 -0.00019121301 -0.00013018184 -8.870382e-05
0.0 0.0 -8.249352e-05 -0.00013979983 0.0 -4.1758536e-05 0.0 -8.789742e-05
0.0 -4.9457394e-05 0.0 6e-45 -0.00010835183 0.0 -0.00019832393 -6e-45
0.00020645697 0.0 0.0 0.0 0.0 0.0001569179 0.00014027912 1.758977e-05
0.0 0.00027799644 0.0 7.121052e-05 0.00017546401 0.00026961922 0.00018544942 0.00013214996
0.0 0.0 0.00012306654 0.00020649534 0.0 6.690773e-05 0.0 0.00013184444
0.0 7.9162346e-05 0.0 6e-45 0.00015947403 0.0 0.0002869907 6e-45
0.0003496305 0.0 0.0 0.0 0.0 0.00026597257 0.00023438131 2.0587919e-05
0.0 0.00048004845 0.0 9.065231e-05 0.00029507134 0.0004903119 0.00033418843 0.00022292322
0.0 0.0 0.00020807904 0.00034617673 0.0 0.00010524871 0.0 0.00021938753
0.0 0.00012228535 0.0 6e-45 0.00027515538 0.0 0.00050142594 6e-45
-0.00020854856 0.0 0.0 0.0 0.0 -0.00015833644 -0.00014084583 -1.5866777e-05
0.0 -0.00028237593 0.0 -6.686349e-05 -0.00017684269 -0.00027763212 -0.00019029496 -0.00013306842
0.0 0.0 -0.00012392933 -0.00020810192 0.0 -6.576839e-05 0.0 -0.00013231928
0.0 -7.763586e-05 0.0 -6e-45 -0.00016150528 0.0 -0.000292187 -6e-45
0.0003045506 0.0 0.0 0.0 0.0 0.00023123079 0.00020392891 1.847287e-05
0.0 0.00041698694 0.0 8.2670245e-05 0.00025718933 0.00042204384 0.0002877133 0.00019374666
0.0 0.0 0.00018064037 0.0003021995 0.0 9.178304e-05 0.0 0.00019118292
0.0 0.00010732016 0.0 6e-45 0.00023815813 0.0 0.0004342168 6e-45
0.00026426537 0.0 0.0 0.0 0.0 0.0002007521 0.00017766781 1.7677332e-05
0.0 0.00036038342 0.0 7.642947e-05 0.0002235259 0.00036123686 0.00024680985 0.0001684417
0.0 0.0 0.00015702248 0.00026269982 0.0 8.1213155e-05 0.0 0.00016664073
0.0 9.519537e-05 0.0 6e-45 0.0002061652 0.0 0.0003745892 6e-45
00000000: 9dd4 4439 0000 0000 0000 0000 0000 0000
00000010: 0000 0000 5e14 1639 0efb 0639 966b 9637
00000020: 0000 0000 e3d5 8339 0000 0000 3fc1 9038
00000030: 25b5 2739 2f13 7d39 7ae2 2e39 1a90 fd38
00000040: 0000 0000 0000 0000 cc59 ec38 501f 4539
00000050: 0000 0000 c22c 8438 0000 0000 e388 fd38
00000060: 0000 0000 9112 9c38 0000 0000 0400 0000
00000070: de5d 1839 0000 0000 ad0c 8839 0400 0000
00000080: f584 8839 0000 0000 0000 0000 0000 0000
00000090: 0000 0000 07b0 4f39 c56e 3839 3271 9f37
000000a0: 0000 0000 e692 b939 0000 0000 b5b5 a538
000000b0: 2049 6739 b6b8 b839 7002 7d39 8489 2e39
000000c0: 0000 0000 0000 0000 45bf 2239 82dc 8739
000000d0: 0000 0000 ca36 ab38 0000 0000 24f8 2c39
000000e0: 0000 0000 42bd c838 0000 0000 0400 0000
000000f0: aefb 5439 0000 0000 a4bc c039 0400 0000
00000100: 7332 13b9 0000 0000 0000 0000 0000 0000
00000110: 0000 0000 9c6a deb8 21fa c3b8 e128 0cb7
00000120: 0000 0000 addd 48b9 0000 0000 da4d 28b8
00000130: 2faa f8b8 5a80 48b9 6c81 08b9 8006 bab8
00000140: 0000 0000 0000 0000 5f00 adb8 3b97 12b9
00000150: 0000 0000 e325 2fb8 0000 0000 9155 b8b8
00000160: 0000 0000 7970 4fb8 0000 0000 0400 0000
00000170: f23a e3b8 0000 0000 2df5 4fb9 0400 0080
00000180: 5f7c 5839 0000 0000 0000 0000 0000 0000
00000190: 0000 0000 548a 2439 e417 1339 be8d 9337
000001a0: 0000 0000 0dc0 9139 0000 0000 db56 9538
000001b0: c3fc 3739 ae5b 8d39 3375 4239 bc91 0a39
000001c0: 0000 0000 0000 0000 6c0b 0139 ac86 5839
000001d0: 0000 0000 d050 8c38 0000 0000 b93f 0a39
000001e0: 0000 0000 f603 a638 0000 0000 0400 0000
000001f0: 7c38 2739 0000 0000 3d77 9639 0400 0000
00000200: 9d4e b739 0000 0000 0000 0000 0000 0000
00000210: 0000 0000 3c72 8b39 41c4 7539 38b4 ac37
00000220: 0000 0000 03af fb39 0000 0000 971c be38
00000230: ceb3 9a39 4688 003a 0336 af39 7fc0 6939
00000240: 0000 0000 0000 0000 cb2f 5a39 0e7f b539
00000250: 0000 0000 f9b8 dc38 0000 0000 640b 6639
00000260: 0000 0000 b939 0039 0000 0000 0400 0000
00000270: bb42 9039 0000 0000 2072 033a 0400 0000
00000280: d4ad 5ab9 0000 0000 0000 0000 0000 0000
00000290: 0000 0000 1d07 26b9 04b0 13b9 a519 85b7
000002a0: 0000 0000 db0b 94b9 0000 0000 1039 8cb8
000002b0: d96e 39b9 278f 91b9 ea89 47b9 4888 0bb9
000002c0: 0000 0000 0000 0000 07f3 01b9 ef35 5ab9
000002d0: 0000 0000 23ed 89b8 0000 0000 30bf 0ab9
000002e0: 0000 0000 6fd0 a2b8 0000 0000 0400 0080
000002f0: be59 29b9 0000 0000 ad30 99b9 0400 0080
00000300: 17ac 9f39 0000 0000 0000 0000 0000 0000
00000310: 0000 0000 8b76 7239 c0d5 5539 30f6 9a37
00000320: 0000 0000 0a9f da39 0000 0000 405f ad38
00000330: 5ed7 8639 c445 dd39 3ad8 9639 7928 4b39
00000340: 0000 0000 0000 0000 486a 3d39 8870 9e39
00000350: 0000 0000 a57b c038 0000 0000 4678 4839
00000360: 0000 0000 1211 e138 0000 0000 0400 0000
00000370: 16ba 7939 0000 0000 98a7 e339 0400 0000
00000380: 198d 8a39 0000 0000 0000 0000 0000 0000
00000390: 0000 0000 fb80 5239 574c 3a39 c849 9437
000003a0: 0000 0000 d8f1 bc39 0000 0000 c248 a038
000003b0: 4762 6a39 6464 bd39 4266 8139 b99f 3039
000003c0: 0000 0000 0000 0000 67a6 2439 f9ba 8939
000003d0: 0000 0000 fb50 aa38 0000 0000 48bc 2e39
000003e0: 0000 0000 a0a3 c738 0000 0000 0400 0000
000003f0: 0d2e 5839 0000 0000 8364 c439 0400 0000

exp_avg_sq f4 [96, 32]
9.828579e-08 0.0 0.0 0.0 0.0 5.654227e-08 4.4135373e-08 1.0484946e-09
0.0 1.839409e-07 0.0 9.3863015e-09 6.973181e-08 1.9712182e-07 9.287657e-08 4.00845e-08
0.0 0.0 3.5128533e-08 9.696287e-08 0.0 1.0637805e-08 0.0 3.863479e-08
0.0 1.26936905e-08 0.0 7e-43 6.21031e-08 0.0 2.0073966e-07 7e-43
8.058084e-08 0.0 0.0 0.0 0.0 4.6627264e-08 3.6380207e-08 7.1769485e-10
0.0 1.5117517e-07 0.0 6.9864425e-09 5.721245e-08 1.6234257e-07 7.635776e-08 3.3061845e-08
0.0 0.0 2.8942539e-08 7.9029434e-08 0.0 8.478917e-09 0.0 3.1828428e-08
0.0 1.0339149e-08 0.0 7e-43 5.1125927e-08 0.0 1.6565807e-07 7e-43
1.7453715e-08 0.0 0.0 0.0 0.0 1.0146662e-08 7.902045e-09 1.2276571e-10
0.0 3.2899223e-08 0.0 1.375503e-09 1.2383742e-08 3.5763733e-08 1.679902e-08 7.1959207e-09
0.0 0.0 6.302842e-09 1.7024412e-08 0.0 1.8006543e-09 0.0 6.9002026e-09
0.0 2.2022637e-09 0.0 7e-43 1.1174702e-08 0.0 3.6253255e-08 7e-43
8.633803e-08 0.0 0.0 0.0 0.0 4.981776e-08 3.894674e-08 9.0211816e-10
0.0 1.6156773e-07 0.0 8.163442e-09 6.129746e-08 1.7336232e-07 8.176879e-08 3.5360074e-08
0.0 0.0 3.100276e-08 8.503922e-08 0.0 9.387231e-09 0.0 3.406238e-08
0.0 1.1228176e-08 0.0 7e-43 5.4782866e-08 0.0 1.7667648e-07 7e-43
9.370188e-08 0.0 0.0 0.0 0.0 5.4602182e-08 4.2250477e-08 4.8961285e-10
0.0 1.780764e-07 0.0 6.045695e-09 6.63415e-08 1.9590703e-07 9.143247e-08 3.8613216e-08
0.0 0.0 3.3766426e-08 9.0716426e-08 0.0 9.126466e-09 0.0 3.687586e-08
0.0 1.1352309e-08 0.0 7e-43 6.0138895e-08 0.0 1.9708828e-07 7e-43
6.358367e-08 0.0 0.0 0.0 0.0 3.67654e-08 2.8729861e-08 6.0827837e-10
0.0 1.1911883e-07 0.0 5.77652e-09 4.5151726e-08 1.2794868e-07 6.030029e-08 2.6093344e-08
0.0 0.0 2.2867695e-08 6.2483956e-08 0.0 6.824308e-09 0.0 2.5122224e-08
0.0 8.23149e-09 0.0 7e-43 4.040295e-08 0.0 1.3046419e-07 7e-43
7.3964344e-08 0.0 0.0 0.0 0.0 4.305075e-08 3.34299e-08 4.6301268e-10
0.0 1.3992718e-07 0.0 5.3056315e-09 5.2436164e-08 1.5271712e-07 7.149695e-08 3.048714e-08
0.0 0.0 2.6674794e-08 7.18826e-08 0.0 7.4114688e-09 0.0 2.919158e-08
0.0 9.16817e-09 0.0 7e-43 4.736048e-08 0.0 1.544644e-07 7e-43
6.807617e-08 0.0 0.0 0.0 0.0 3.9510645e-08 3.0797306e-08 5.4037425e-10
0.0 1.2805852e-07 0.0 5.5454605e-09 4.832309e-08 1.3831074e-07 6.498104e-08 2.8016718e-08
0.0 0.0 2.4525908e-08 6.652821e-08 0.0 7.0640414e-09 0.0 2.6918942e-08
0.0 8.660564e-09 0.0 7e-43 4.3388237e-08 0.0 1.4076768e-07 7e-43
00000000: 2f11 d333 0000 0000 0000 0000 0000 0000
00000010: 0000 0000 e2d8 7233 5b8f 3d33 a01a 9030
00000020: 0000 0000 4a81 4534 0000 0000 6441 2132
00000030: 78bf 9533 6fa8 5334 6f73 c733 6029 2c33
00000040: 0000 0000 0000 0000 3be0 1633 e739 d033
00000050: 0000 0000 90c1 3632 0000 0000 67ef 2533
00000060: 0000 0000 7113 5a32 0000 0000 f401 0000
00000070: 8a5d 8533 0000 0000 e68a 5734 f401 0000
00000080: c90b ad33 0000 0000 0000 0000 0000 0000
00000090: 0000 0000 3843 4833 7640 1c33 4947 4530
000000a0: 0000 0000 b752 2234 0000 0000 660d f031
000000b0: c1b9 7533 6350 2e34 1ffa a333 e2ff 0d33
000000c0: 0000 0000 0000 0000 519d f832 e4b6 a933
000000d0: 0000 0000 acaa 1132 0000 0000 bab3 0833
000000e0: 0000 0000 0fa0 3132 0000 0000 f401 0000
000000f0: 8d95 5b33 0000 0000 bedf 3134 f401 0000
00000100: 20ed 9532 0000 0000 0000 0000 0000 0000
00000110: 0000 0000 7e51 2e32 90c1 0732 7afb 062f
00000120: 0000 0000 144d 0d33 0000 0000 360c bd30
00000130: 46c0 5432 a49a 1933 704d 9032 fd3f f731
00000140: 0000 0000 0000 0000 6290 d831 143d 9232
00000150: 0000 0000 e47a f730 0000 0000 d316 ed31
00000160: 0000 0000 a256 1731 0000 0000 f401 0000
00000170: dcfa 3f32 0000 0000 e0b4 1b33 f401 0000
00000180: d568 b933 0000 0000 0000 0000 0000 0000
00000190: 0000 0000 35f7 5533 6546 2733 ecf8 7730
000001a0: 0000 0000 667b 2d34 0000 0000 333f 0c32
000001b0: a3a2 8333 7925 3a34 de98 af33 d0de 1733
000001c0: 0000 0000 0000 0000 e527 0533 ce9e b633
000001d0: 0000 0000 7b45 2132 0000 0000 fc4b 1233
000001e0: 0000 0000 0ae6 4032 0000 0000 f401 0000
000001f0: 664a 6b33 0000 0000 76b4 3d34 f401 0000
00000200: 2739 c933 0000 0000 0000 0000 0000 0000
00000210: 0000 0000 bc83 6a33 e476 3533 7195 0630
00000220: 0000 0000 4535 3f34 0000 0000 7fba cf31
00000230: a077 8e33 845a 5234 8859 c433 aed7 2533
00000240: 0000 0000 0000 0000 9406 1133 e2cf c233
00000250: 0000 0000 9fca 1c32 0000 0000 7061 1e33
00000260: 0000 0000 fc07 4332 0000 0000 f401 0000
00000270: b525 8133 0000 0000 379f 5334 f401 0000
00000280: 7e8b 8833 0000 0000 0000 0000 0000 0000
00000290: 0000 0000 fce7 1d33 a2c9 f632 c933 2730
000002a0: 0000 0000 45ce ff33 0000 0000 cf7a c631
000002b0: d9ec 4133 4462 0934 6f7e 8133 df23 e032
000002c0: 0000 0000 0000 0000 986e c432 eb2e 8633
000002d0: 0000 0000 3f7b ea31 0000 0000 5bcc d732
000002e0: 0000 0000 7a6a 0d32 0000 0000 f401 0000
000002f0: 8387 2d33 0000 0000 b915 0c34 f401 0000
00000300: 54d6 9e33 0000 0000 0000 0000 0000 0000
00000310: 0000 0000 cde6 3833 9094 0f33 3e8b fe2f
00000320: 0000 0000 e43e 1634 0000 0000 d44c b631
00000330: 2c36 6133 90fa 2334 dd89 9933 f7f0 0233
00000340: 0000 0000 0000 0000 7e22 e532 e15d 9a33
00000350: 0000 0000 f8a7 fe31 0000 0000 f7c0 fa32
00000360: 0000 0000 0a82 1d32 0000 0000 f401 0000
00000370: 6669 4b33 0000 0000 dada 2534 f401 0000
00000380: 4531 9233 0000 0000 0000 0000 0000 0000
00000390: 0000 0000 6ab2 2933 ff45 0433 7589 1430
000003a0: 0000 0000 7580 0934 0000 0000 638a be31
000003b0: cd8b 4f33 9182 1434 b48b 8b33 6aa9 f032
000003c0: 0000 0000 0000 0000 0bad d232 45de 8e33
000003d0: 0000 0000 f7b7 f231 0000 0000 613b e732
000003e0: 0000 0000 90c9 1432 0000 0000 f401 0000
000003f0: df59 3a33 0000 0000 ed25 1734 f401 0000

exp_avg f4 [96]
0.00035737222 0.00048127346 -0.0002549931 0.00038769047 0.0006344465 -0.00038712376 0.0005539014 0.0004846054
3.962929e-05 2.9364019e-05 2.3164064e-05 -1.1595388e-05 -1.3429744e-05 -3.1477295e-05 5.634935e-06 7.874648e-05
-6.812601e-05 8.706857e-05 1.2227612e-05 -7.340873e-05 -5.0454986e-05 8.2673774e-05 -3.9912127e-05 4.8312777e-05
-0.0004297335 -4.107416e-05 0.0001731787 0.0003173737 6.575022e-05 2.0658837e-05 -3.90419e-05 0.00012510119
-1.1870159e-11 3.5994426e-11 -1.7205037e-10 1.510748e-10 7.920321e-11 -9.0400444e-11 8.6735334e-11 -6.915073e-11
-7.1696665e-10 1.0242445e-09 7.937357e-10 1.3979029e-09 -1.1765555e-09 1.7005445e-09 -2.588736e-10 5.5362187e-10
1.7272165e-09 -7.769215e-10 -7.90291e-10 8.629821e-10 1.252178e-09 -1.016993e-09 -1.6575326e-09 -1.0918333e-09
-1.7186962e-10 -3.3153538e-10 2.2107849e-10 -4.200912e-10 8.364523e-10 3.4534411e-10 -1.9687676e-10 2.3079283e-10
-0.0018160581 -0.00358405 -0.006370301 -0.0073947343 0.0050851544 -0.015164424 -0.0033654338 -0.005078131
0.0035156442 0.004480101 0.004546685 0.004516194 0.003345884 0.0022599695 -0.0029333858 -0.0027892322
0.0018361744 0.0032568695 0.0042412668 -0.0047713253 0.0037111575 0.0022219296 0.0025948326 0.0024415813
-0.002231179 -0.0047202334 0.011875455 -0.0047306987 -0.0060791536 -0.007716778 0.002185771 -0.0045979787
00000000: b05d bb39 6e53 fc39 98b0 85b9 ef42 cb39
00000010: fc50 263a dff6 cab9 b233 113a a312 fe39
00000020: a037 2638 c052 f637 7350 c237 d089 42b7
00000030: 5050 61b7 7d06 04b8 b913 bd36 b224 a538
00000040: e0de 8eb8 9598 b638 3225 4d37 03f3 99b8
00000050: a19f 53b8 2561 ad38 5267 27b8 73a3 4a38
00000060: db4d e1b9 0b47 2cb8 4e97 3539 2d65 a639
00000070: 61e3 8938 844c ad37 ecc0 23b8 982d 0339
00000080: 72d2 50ad 1f4e 1e2e e02b 3daf c71b 262f
00000090: 722b ae2e edca c6ae a7bb be2e 6610 98ae
000000a0: 0b14 45b0 66c5 8c30 2f2e 5a30 5620 c030
000000b0: 5eb4 a1b0 97b8 e930 3851 8eaf ad2d 1830
000000c0: 0763 ed30 fe8e 55b0 c93b 59b0 f736 6d30
000000d0: 1919 ac30 43c6 8bb0 3ecf e3b0 780f 96b0
000000e0: fff8 3caf 7543 b6af 1014 732f 95f2 e6af
000000f0: 19ec 6530 ddda bd2f e277 58af 68c2 7d2f
00000100: cc08 eeba 62e2 6abb f5bd d0bb 874f f2bb
00000110: 5ea1 a63b 3474 78bc 9c8e 5cbb 7366 a6bb
00000120: b966 663b d0cd 923b 5cfc 943b 95fc 933b
00000130: 9e46 5b3b ff1b 143b 0c3e 40bb 8dcb 36bb
00000140: caab f03a 3471 553b 53fa 8a3b c758 9cbb
00000150: e436 733b cb9d 113b 110e 2a3b f002 203b
00000160: f938 12bb 30ac 9abb 4591 423c fa03 9bbb
00000170: a333 c7bb 07dd fcbb 273f 0f3b a4aa 96bb

exp_avg_sq f4 [96]
3.1717428e-07 2.6102106e-07 5.6372265e-08 2.7985934e-07 2.9928873e-07 2.0626986e-07 2.3787698e-07 2.2036198e-07
2.5551883e-09 2.082062e-09 1.8955564e-09 3.1884593e-09 1.8727717e-09 9.121637e-09 4.430693e-10 8.414244e-09
5.3965032e-09 8.4304235e-09 9.920234e-10 7.618673e-09 3.041834e-09 8.703231e-09 2.2959226e-09 3.0158607e-09
1.435204e-07 6.338125e-08 2.2795934e-08 5.3678907e-08 2.8169147e-08 6.322673e-08 2.312696e-09 1.3741238e-08
3.9522703e-19 2.1902264e-19 6.789407e-19 3.6104816e-19 7.030573e-19 4.784068e-19 5.917284e-19 3.0877282e-19
2.9406666e-18 4.915859e-18 2.831473e-18 8.5926165e-18 7.027539e-18 1.2513457e-17 3.4659868e-19 2.2236203e-18
1.12016815e-17 2.7966602e-18 2.988241e-18 2.8681898e-18 8.13665e-18 4.0275263e-18 1.2530042e-17 4.9345546e-18
4.683906e-19 1.1341704e-18 2.6850396e-19 1.9690185e-18 4.174739e-18 1.379673e-18 2.0425372e-19 2.1326754e-19
1.71303e-05 6.700107e-05 0.0002117921 0.00028518302 0.00013464782 0.001202812 5.908077e-05 0.0001343714
6.462372e-05 0.000104940584 0.000108087166 0.000106599626 5.8579513e-05 2.6730497e-05 4.4993772e-05 4.0710947e-05
1.7625112e-05 5.5451812e-05 9.393472e-05 0.0001190625 7.193903e-05 2.5803132e-05 3.5176407e-05 3.112879e-05
2.5967784e-05 0.00011629621 0.000736807 0.000116910735 0.00019280375 0.00031121523 2.494988e-05 0.0001104644
00000000: 1a48 aa34 7622 8c34 f61d 7233 933f 9634
00000010: eead a034 077b 5d34 206b 7f34 a49c 6c34
00000020: 5997 2f31 0614 0f31 fb42 0231 f81b 5b31
00000030: 26b2 0031 62b5 1c32 7694 f32f 3d8e 1032
00000040: 256c b931 65d5 1032 b857 8830 47e3 0232
00000050: 8208 5131 3785 1532 4cc6 1d31 953f 4f31
00000060: 961a 1a34 361c 8833 cad0 c332 958c 6633
00000070: 9cf8 f132 43c7 8733 61ed 1e31 9b12 6c32
00000080: 054d e920 c449 8120 4f63 4821 0e20 d520
00000090: 8281 4f21 6533 0d21 bca5 2e21 6e44 b620
000000a0: 9ffb 5822 fa5c b522 03ed 5022 7c81 1e23
000000b0: 9da2 0123 21d5 6623 8398 cc20 0013 2422
000000c0: 72a2 4e23 6b5b 4e22 477e 5c22 93a2 5322
000000d0: 3e18 1623 e996 9422 7323 6723 8d0d b622
000000e0: 983e 0a21 bf5f a721 2c7f 9e20 b549 1122
000000f0: 4c05 9a22 929a cb21 e623 7120 29c8 7b20
00000100: 0ab3 8f37 ed82 8c38 8214 5e39 9e84 9539
00000110: 4030 0d39 aca7 9d3a 7ecd 7738 0ce6 0c39
00000120: 9886 8738 8c13 dc38 dbac e238 3d8e df38
00000130: 46b3 7538 4e3b e037 b2b7 3c38 0cc1 2a38
00000140: a4d9 9337 ee94 6838 d2fe c438 31b1 f938
00000150: f9dd 9638 ce73 d837 618a 1338 4990 0238
00000160: 64d5 d937 0de4 f338 4826 413a f92d f538
00000170: 5d2b 4a39 9a2a a339 764b d137 20a9 e738
