training/checkpoint.pt (torch, 48319 bytes, 39 tensors)

policy_log_std f4 [50]
0	0x40001a4c	2.001605
1	0x400007cf	2.0004766
2	0x4000143b	2.0012348
3	0x40001b16	2.0016532
4	0x40000d0b	2.000796
5	0x400009b7	2.000593
6	0x400010c2	2.0010228
7	0x4000030f	2.0001867
8	0x40000e33	2.0008667
9	0x40000543	2.0003211
10	0x400003e7	2.0002382
11	0x400015f9	2.001341
12	0x40000749	2.0004447
13	0x400001d0	2.0001106
14	0x40000279	2.000151
15	0x40000642	2.000382
16	0x40000779	2.000456
17	0x400001c5	2.000108
18	0x40000f7d	2.0009453
19	0x400015f1	2.0013392
20	0x40000ad7	2.0006616
21	0x400009a3	2.0005882
22	0x400018f7	2.0015237
23	0x4000041f	2.0002515
24	0x40001230	2.00111
25	0x40000d10	2.0007973
26	0x40000554	2.0003252
27	0x4000133b	2.0011737
28	0x40000271	2.000149
29	0x400011c2	2.0010839
30	0x40001094	2.0010118
31	0x40000c99	2.000769
32	0x40000f9f	2.0009534
33	0x4000205d	2.0019753
34	0x400014ef	2.0012777
35	0x400008ff	2.000549
36	0x40001441	2.0012362
37	0x40001011	2.0009806
38	0x40002970	2.0025291
39	0x40001fd0	2.0019417
40	0x400002f1	2.0001795
41	0x40000848	2.0005054
42	0x40000536	2.000318
43	0x4000292c	2.002513
44	0x40000bb4	2.0007143
45	0x40001523	2.00129
46	0x40000ad0	2.00066
47	0x40001a01	2.0015872
48	0x40000df8	2.0008526
49	0x400004d4	2.0002947

host_encoder.weight f4 [16, 4]
0	0xbec8db59	-0.3922985
1	0xbec4c667	-0.3843262
2	0xbe5bac0f	-0.21452354
3	0xbe3f11b4	-0.18659097
4	0x3d3d3673	0.046194505
5	0xbecc4761	-0.39898208
6	0xbe81d6f1	-0.253593
7	0x3f450678	0.76962996
8	0xbdd5e361	-0.1044376
9	0x3ecf59cc	0.40498197
10	0x3f32053f	0.69539255
11	0x3dede0de	0.11615156
12	0x3e5ec8ca	0.21756282
13	0xbe91d698	-0.28484035
14	0xbedb4865	-0.4282867
15	0xbe907580	-0.28214645
16	0xbef7aa6e	-0.48372215
17	0xbeccd87c	-0.40008914
18	0x3f208d93	0.62716025
19	0x3eb44f65	0.35216823
20	0xbe9247c5	-0.2857038
21	0x3f8b8766	1.0900695
22	0xbd7188d1	-0.05896837
23	0x3ea8c52b	0.32962927
24	0xbd27d57d	-0.040975083
25	0x3ec58381	0.38576892
26	0xbe76312f	-0.240422
27	0xbd736690	-0.059423983
28	0xbed6e6ee	-0.4197306
29	0xbeef1d9c	-0.46702278
30	0x3f0ac96f	0.54213613
31	0xbececabc	-0.4038905
32	0xbe53b2ab	-0.20673625
33	0xbe988a83	-0.29793176
34	0x3d5ccb34	0.053904727
35	0xbee86732	-0.45391232
36	0x3eba19c8	0.36347795
37	0xbe6e1ba5	-0.23252733
38	0xbe05d785	-0.13070495
39	0x3eb752c4	0.35805333
40	0x3f59f673	0.85141677
41	0x3c997d4b	0.018736502
42	0x3e03e5f6	0.12880692
43	0x3e29f7c1	0.16598417
44	0x3e5a86a1	0.2134042
45	0x3f681d50	0.9066973
46	0xbb919261	-0.0044424986
47	0xbeb3894d	-0.3506569
48	0x3f6d8bcf	0.92791456
49	0xbe9577c7	-0.29192945
50	0x3eee4993	0.46540508
51	0xbe9c79b3	-0.305616
52	0x3d66df17	0.0563651
53	0x3f211475	0.6292184
54	0x3dd2c70e	0.10291873
55	0xbd548170	-0.051881254
56	0x3e321e3b	0.17394345
57	0x3e1207ec	0.14260834
58	0xbea4142d	-0.32046643
59	0xbe1ce875	-0.1532305
60	0x3e6dfab9	0.23240174
61	0x3ea361ab	0.31910452
62	0x3dba525f	0.09097742
63	0x3dcabcd7	0.098992996

host_encoder.bias f4 [16]
0	0x00000000	0.0
1	0x3d00d65a	0.03145442
2	0xbd3866df	-0.04501998
3	0x00000000	0.0
4	0xbd0031b1	-0.03129739
5	0x3c1f5196	0.009724041
6	0x00000000	0.0
7	0x3dbfcffa	0.0936584
8	0x00000000	0.0
9	0xbd09bbea	-0.033626474
10	0xbb6264c2	-0.003454492
11	0x3dea5af0	0.11443126
12	0x3b99184d	0.0046720863
13	0xbd617359	-0.055041645
14	0x00000000	0.0
15	0xbd29d11b	-0.041459184

job_encoder.weight f4 [16, 2]
0	0x3d8d601e	0.069030985
1	0xbe9e4198	-0.3090942
2	0x3ebcf85e	0.3690824
3	0xbd330f06	-0.0437155
4	0x3ebe8518	0.37210917
5	0xbd5ce270	-0.053926885
6	0x3df8a18b	0.12140187
7	0x3ee455e2	0.44596773
8	0x3e5daa1d	0.21646924
9	0xbeb0c6bc	-0.34526622
10	0xbe8ffab8	-0.2812097
11	0x3e79f352	0.24409226
12	0x3f00f89a	0.50379336
13	0xbe302591	-0.1720183
14	0xba90861e	-0.0011026298
15	0xbe2fc022	-0.17163137
16	0xbe972077	-0.29516956
17	0xbf1a11b0	-0.6018324
18	0xbe1e6a21	-0.15470172
19	0xbe4371a5	-0.1908632
20	0xbed6cfbf	-0.41955373
21	0x3ee63f26	0.44970053
22	0x3f1289f8	0.57241774
23	0x3ef4d6f5	0.4782025
24	0x3bceb77f	0.0063084955
25	0x3e38cfcc	0.18048018
26	0xbe236db9	-0.15959825
27	0x3d317966	0.043328665
28	0xbe00b209	-0.12567915
29	0x3a4238ea	0.00074089936
30	0x3ee1712b	0.44031653
31	0xbee7b7a2	-0.45257288

job_encoder.bias f4 [16]
0	0x3e967203	0.2938386
1	0x3de23236	0.11044733
2	0x3e593b40	0.21214008
3	0x3e2c53c5	0.1682883
4	0x3e18f5c8	0.14937508
5	0x3e652efb	0.22381203
6	0x3de22a54	0.1104323
7	0x3e3c5bf8	0.18394458
8	0x00000000	0.0
9	0x00000000	0.0
10	0x3e9ec432	0.3100906
11	0x3db273e4	0.08713511
12	0x3e4c94b1	0.19978596
13	0x3e436a66	0.19083557
14	0x3e4946ca	0.1965591
15	0x3e8c21c7	0.2736952

attention.in_proj_weight f4 [48, 16]
0	0xbe4b9851	-0.19882323
1	0x3e4b5631	0.19857098
2	0x3c4ca025	0.012489353
3	0x3c4556b4	0.012044597
4	0xbddccd5e	-0.10781358
5	0xbea13879	-0.31488398
6	0xbe9db528	-0.30802274
7	0xbe2a96fd	-0.1665916
8	0xbe1f605c	-0.15564102
9	0x3dc35da0	0.09539342
10	0xbe103269	-0.1408173
11	0xbdf89f1b	-0.12139722
12	0x3e904a03	0.28181466
13	0x3de2d3fb	0.11075588
14	0x3e550c68	0.20805514
15	0xbe4e1229	-0.20124115
16	0xbe9704a5	-0.2949573
17	0x3d8959b5	0.067065634
18	0xbe7ef906	-0.24899682
19	0xbe350d45	-0.17680843
20	0xbe0c6d01	-0.13713457
21	0xbd5f12e8	-0.05446139
22	0xbe9af69f	-0.30266282
23	0x3dd1b089	0.102387495
24	0x3e7c220a	0.2462236
25	0x3d4b7359	0.04967055
26	0x3dc80e36	0.097683355
27	0xbe95d0f5	-0.29260984
28	0xbdc97155	-0.098360695
29	0x3de5354e	0.11191808
30	0x3e2355ab	0.15950648
31	0xbe27a630	-0.16371989
32	0x3df09fc7	0.11749225
33	0x3e8a9e45	0.27073875
34	0xbe0cc6c7	-0.13747703
35	0x3e896797	0.26836845
36	0x3c140833	0.009035158
37	0x3ddf6e0b	0.10909661
38	0x3d65d9d0	0.056115925
39	0x3e46a065	0.19397123
40	0xbdbd7fd7	-0.09252899
41	0x3e63fac3	0.22263627
42	0x3d7a8bd1	0.061168496
43	0x3ea23b13	0.31685695
44	0x3ec74bd4	0.3892504
45	0xbd54266a	-0.051794447
46	0xbddcbd1c	-0.10778257
47	0x3ecca931	0.39972833
48	0x3d99538b	0.07486638
49	0xbe8d462b	-0.27592596
50	0xbd92a713	-0.07160773
51	0xbebf6dd0	-0.37388468
52	0xbebf9afa	-0.37422925
53	0xbe2056c8	-0.15658104
54	0x3d449caf	0.048000988
55	0xbd395447	-0.04524639
56	0xbdaaaa89	-0.08333308
57	0x3e90a14c	0.2824806
58	0xbe45a464	-0.19300991
59	0xbe6340f9	-0.22192754
60	0xbde0d6ce	-0.10978471
61	0xbd942d7e	-0.072352394
62	0xbd0a8d18	-0.033825964
63	0xbe9e81b2	-0.30958325
64	0xbe238ed2	-0.1597245
65	0xbe0bbcbb	-0.13646214
66	0xbe828813	-0.2549444
67	0xbe1ba8c0	-0.15201092
68	0x3e7bd583	0.24593167
69	0x3e00bd8d	0.12572308
70	0x3e91b98e	0.2846188
71	0x3d1fa3be	0.038974516
72	0x3e6cdc11	0.23130824
73	0xbd27ddbc	-0.040982947
74	0xbeb17010	-0.3465581
75	0x3e4d8c65	0.20073088
76	0xbe4001af	-0.18750642
77	0xbe9ea123	-0.30982313
78	0xbe597906	-0.21237573
79	0xbcae1a12	-0.021252666
80	0x3ee5a145	0.448496
81	0xbdb11501	-0.08646584
82	0xbe068c7b	-0.13139527
83	0x3d77d578	0.060506314
84	0xbd749eeb	-0.05972187
85	0xbd9123ab	-0.07086881
86	0x3e517dc0	0.20458126
87	0x3df06e9f	0.11739849
88	0x3e8f406c	0.27978837
89	0x3e988024	0.29785264
90	0x3e5bdf21	0.21471836
91	0x3ddb6226	0.1071208
92	0x3e027bd1	0.12742545
93	0x3de8e3ba	0.113715604
94	0x3dcf3b88	0.101187766
95	0x3e14eec1	0.14544202
96	0x3eba0d9b	0.36338505
97	0x3e8e647f	0.27811047
98	0xbd8b60ab	-0.06805547
99	0xbe108d46	-0.14116392
100	0x3ab98d64	0.0014156518
101	0xbd3d66e7	-0.046240713
102	0x3d6e46be	0.058172934
103	0x3eaf860d	0.3428196
104	0x3e752d53	0.23943071
105	0x3e0ff3a8	0.14057791
106	0xbdab690a	-0.08369644
107	0xbe47375a	-0.19454709
108	0xbd3bfea1	-0.04589713
109	0x3c1aeb0c	0.009455454
110	0x3dd79afe	0.10527609
111	0xbe30c694	-0.17263252
112	0xbe414bf1	-0.18876626
113	0xbe6cf2d6	-0.2313951
114	0xbe57deaf	-0.21081041
115	0xbe814f81	-0.2525597
116	0x3e48854b	0.19582097
117	0xbed78eef	-0.42101237
118	0x3e63882e	0.22219917
119	0xbe1e24a7	-0.1544367
120	0xbd11dad6	-0.03560909
121	0x3e441bf6	0.19151291
122	0xbe5381c5	-0.20654972
123	0x3e61abcc	0.22038192
124	0x3e3c6271	0.18396927
125	0xbeb9a7b6	-0.36260766
126	0x3c02b411	0.0079775015
127	0xbd4ededd	-0.050505508
128	0x3e17c6ff	0.14822005
129	0x3ddac926	0.10682897
130	0x3e1a02f5	0.1504019
131	0xbd9878e7	-0.07444935
132	0xbd83df6d	-0.064390995
133	0x3ea2b1bb	0.31776223
134	0x3e8d3fe0	0.27587795
135	0xbcaf5d1f	-0.021406708
136	0xbe9371cd	-0.2879776
137	0x3c5bdd4c	0.0134194605
138	0xbd1f3329	-0.03886715
139	0x3ea73938	0.32660842
140	0xbe017c83	-0.12645154
141	0xbd0c45cd	-0.034246255
142	0xbd868b2e	-0.06569515
143	0x3dfe1be6	0.12407665
144	0x3eb6cc2d	0.3570265
145	0xbc058c2a	-0.0081510935
146	0x3e138ce8	0.1440922
147	0x3e49797c	0.19675249
148	0x3e96e272	0.2946964
149	0xbde4e60a	-0.11176689
150	0xbdc4439d	-0.09583209
151	0x3de2cc48	0.1107412
152	0xbdab1b62	-0.08354832
153	0x3e12d127	0.14337598
154	0x3c8be4cd	0.017076874
155	0xbe800c26	-0.2500927
156	0x3db2b862	0.087265745
157	0xbc9741c7	-0.018463982
158	0x3da808c1	0.08204795
159	0x3eaea641	0.34111217
160	0x3e2b6567	0.167379
161	0x3e8a9106	0.2706377
162	0xbb66be1a	-0.0035208524
163	0xbe8f1802	-0.27948004
164	0xbe684090	-0.22680879
165	0xbe315d63	-0.1732078
166	0xbe9a5dcb	-0.30149683
167	0xbdcbb2c0	-0.09946203
168	0xbe9050a2	-0.28186518
169	0xbe90a2ce	-0.2824921
170	0xbe972735	-0.295221
171	0xbea82b4f	-0.32845542
172	0xbe43e728	-0.19131148
173	0x3e4092d4	0.1880601
174	0x3e9feaff	0.31233975
175	0xbe15b408	-0.14619458
176	0xbd197af9	-0.03747079
177	0x3e063737	0.13107
178	0xbe3813bc	-0.17976278
179	0xbe2687b1	-0.162627
180	0x3e4371aa	0.19086328
181	0xbe63c6ed	-0.22243853
182	0x3bf9bd2d	0.0076214285
183	0x3e6f2e34	0.23357469
184	0x3d571160	0.052506804
185	0x3daa8713	0.083265446
186	0xbcb4ed74	-0.022085883
187	0xbd05c921	-0.032662515
188	0x3ac53a1b	0.0015047224
189	0x3d1c03fe	0.038089745
190	0x3db24df7	0.08706277
191	0x3e91fafe	0.28511804
192	0xbf07413a	-0.528339
193	0x3a956dd6	0.0011400532
194	0xbe3a8e53	-0.18218355
195	0xbe7d740e	-0.24751303
196	0xbe184a56	-0.14872107
197	0xbede097e	-0.43366617
198	0x3e4952ed	0.1966054
199	0xbdffb0ab	-0.124848686
200	0xbe28fb68	-0.16502154
201	0x3e23d8c0	0.16000652
202	0xbf025201	-0.5090638
203	0xbdc88cc7	-0.09792476
204	0xbdd9a719	-0.106275745
205	0xbec0c630	-0.37651205
206	0xbea40147	-0.32032225
207	0xbe3ed313	-0.18635206
208	0x3f14c8ac	0.581187
209	0x3e7bea3e	0.24601075
210	0x3e2f8051	0.17138793
211	0xbe66e053	-0.2254651
212	0xbd5a69c9	-0.05332354
213	0x3f09d8fe	0.5384673
214	0x3d6c39d6	0.057672344
215	0x3e83dd0b	0.2575458
216	0x3d29b9aa	0.04143683
217	0xbe7bfca0	-0.24608088
218	0x3e1e4712	0.15456799
219	0x3e479006	0.19488534
220	0xbd31d4b0	-0.043415725
221	0x3e48a09c	0.19592518
222	0xbd48ef6b	-0.04905645
223	0xbd8f95e6	-0.07011013
224	0xbea1a040	-0.31567574
225	0xbe0a6c58	-0.13517892
226	0xbb7b658b	-0.0038360085
227	0x3e3d8cd6	0.18510756
228	0xbeaea7b6	-0.34112328
229	0xbd5eb511	-0.054371897
230	0xbe244f0e	-0.16045782
231	0xbe95610a	-0.29175597
232	0x3df0bcef	0.11754786
233	0x3e794c3c	0.24345487
234	0xbe8e9748	-0.27849793
235	0xbd05cabc	-0.032664046
236	0xbe89432d	-0.26809064
237	0xbe79045a	-0.24318066
238	0xbeb781e5	-0.3584129
239	0xbe12aabf	-0.14322947
240	0x3ebfdd99	0.37473753
241	0xbe85c2d2	-0.261252
242	0x3ea0bddb	0.31394848
243	0x3e5fcfe6	0.2185665
244	0xbe259240	-0.16169071
245	0x3d4e17ee	0.05031579
246	0x3e07b89e	0.1325402
247	0x3df9e9c0	0.122027874
248	0xbd08abf0	-0.033367097
249	0xbe0d90da	-0.13824788
250	0x3efe88ac	0.49713647
251	0xbe32b442	-0.17451575
252	0x3ea5f616	0.3241431
253	0x3e2a6595	0.16640313
254	0x3e5d4fb0	0.2161243
255	0x3ec6a7ea	0.38799983

attention.in_proj_bias f4 [48]
0	0xbd877d3d	-0.06615684
1	0xbcba34d9	-0.022730278
2	0x3e24e924	0.16104561
3	0xbe08f71c	-0.13375515
4	0xbe24ed94	-0.16106254
5	0x3e2656aa	0.16243997
6	0x3e06909d	0.13141103
7	0xbe269df4	-0.16271192
8	0x3dea4117	0.11438196
9	0x3ccbb2ba	0.024865497
10	0xbd3f1c09	-0.046657596
11	0x3d1cd39c	0.038287744
12	0xbe34ae27	-0.17644559
13	0x3e3c3522	0.18379644
14	0xbe1cb6df	-0.15304135
15	0x3e50bcaf	0.20384477
16	0x3b300d65	0.0026863453
17	0x3b88a2b1	0.004169785
18	0xbbab23ac	-0.0052227583
19	0x3b324858	0.0027203765
20	0xbaa2f5d5	-0.0012432883
21	0x39f1aaef	0.00046094458
22	0x3938a18e	0.00017607791
23	0xba9eac90	-0.0012105871
24	0x3a3f3024	0.0007293245
25	0x3a140d02	0.000564769
26	0xba33d9e2	-0.0006860775
27	0x3a6274cb	0.00086386193
28	0xba112210	-0.0005536387
29	0xb91305c0	-0.00014021154
30	0xbabf2fad	-0.0014586352
31	0x3a4f80f0	0.00079156365
32	0xbd318efe	-0.04334926
33	0xbca0f164	-0.019646354
34	0x3d07f537	0.03319284
35	0x3ca69706	0.020335685
36	0xbccf3dd9	-0.025298046
37	0xbcde3c77	-0.027128441
38	0x3d4c8b8c	0.04993777
39	0x3ba715f6	0.0050990535
40	0xbc8a4ece	-0.01688328
41	0xbd1a5957	-0.037682857
42	0xbd0705bb	-0.03296445
43	0xbb621327	-0.003449628
44	0x3bf93988	0.007605735
45	0x3c9e918c	0.019356512
46	0x3cea8010	0.028625518
47	0xbcae8301	-0.021302702

attention.out_proj.weight f4 [16, 16]
0	0xbe737771	-0.23776032
1	0x3f6c9455	0.92413837
2	0xbdb8ce04	-0.09023669
3	0xbc91f61a	-0.017817546
4	0xbed41155	-0.41419473
5	0x3efe4ae8	0.49666524
6	0x3d6e701b	0.05821238
7	0xbf5b1832	-0.85583794
8	0xbe011e0d	-0.1260912
9	0xbecfb452	-0.4056726
10	0xbeccfad9	-0.40035132
11	0xbd8d854f	-0.06910192
12	0xbf3a2a3d	-0.727207
13	0x3f1fe684	0.62461114
14	0x3ca1d071	0.019752713
15	0xbe8cc55f	-0.27494332
16	0x3d747f7c	0.05969189
17	0x3f2078ca	0.6268431
18	0x3f08871c	0.5333116
19	0xbea791fe	-0.3272857
20	0x3e861f78	0.26195884
21	0x3e7d77a6	0.24752674
22	0xbe40287a	-0.1876544
23	0xbdfc6ed7	-0.123258285
24	0xbcc90c83	-0.024542099
25	0x3e954bc8	0.2915938
26	0x3ec7fdf5	0.3906094
27	0x3f272211	0.65286356
28	0x3f150ba7	0.58220905
29	0x3e649dc3	0.22325806
30	0x3f00cec5	0.50315505
31	0xbd944b11	-0.0724088
32	0x3f168997	0.58803695
33	0x3ecc0356	0.39846295
34	0x3e77472b	0.24148242
35	0x3e64fe63	0.22362666
36	0x3e787bf4	0.24266034
37	0xbdbda4c2	-0.09259941
38	0xbe93c1c7	-0.28858778
39	0xbe3486b0	-0.17629504
40	0x3f0e5ba2	0.5560857
41	0x3e0a9097	0.13531719
42	0xbe9ad2df	-0.30239007
43	0xbece9d89	-0.40354565
44	0xbe023339	-0.12714852
45	0xbd89d784	-0.067305595
46	0x3cc2bbae	0.023771133
47	0x3ee6139a	0.4493683
48	0xbe554e5b	-0.20830671
49	0x3ebc9945	0.36835685
50	0xbec3f57a	-0.3827322
51	0xbf489b32	-0.7836181
52	0xbddfba63	-0.10924222
53	0xbec5e363	-0.38650045
54	0xbebfc766	-0.37456816
55	0xbf3f0f4f	-0.74632734
56	0x3f6816a0	0.90659523
57	0xbeee5926	-0.4655239
58	0x3e5fedcc	0.21868056
59	0xbdb13601	-0.086528786
60	0x3e8e4206	0.27784747
61	0x3e97cae2	0.29646975
62	0xbf912f24	-1.1342511
63	0x3e063d77	0.13109384
64	0x3f1d80af	0.6152448
65	0xbe1dfe74	-0.15429097
66	0xbf600182	-0.875023
67	0xbf422a8d	-0.7584618
68	0xbda045ae	-0.0782579
69	0x3ed38ea8	0.41319776
70	0xbe50dda1	-0.20397045
71	0xbf37f5c5	-0.7185939
72	0xbe638203	-0.22217564
73	0x3e8a56b7	0.27019283
74	0x3b26539e	0.002537943
75	0xbe2c4d0d	-0.16826268
76	0x3e519c17	0.204697
77	0x3ead8321	0.33889106
78	0xbef9d37a	-0.48794156
79	0x3e04dd6e	0.12975094
80	0x3e8abb6f	0.27096125
81	0x3e1c6a8f	0.15275024
82	0xbe70ed5d	-0.23528047
83	0x3f9939b3	1.1970733
84	0xbeb56362	-0.35427386
85	0xbe4c1503	-0.1992989
86	0x3ee74ebf	0.45177266
87	0x3f0ef0b9	0.55836064
88	0x3e2a5b84	0.16636473
89	0x3f346f06	0.7048191
90	0x3d3c931d	0.046038736
91	0x3e7b3f02	0.24535754
92	0x3eca9461	0.3956633
93	0x3e38b439	0.180375
94	0x3ec4eae7	0.38460466
95	0xbe9389b1	-0.28815988
96	0xbe675b63	-0.22593455
97	0xbd07104c	-0.032974526
98	0x3efe9e08	0.49729943
99	0x3f32bb21	0.69816786
100	0x3eb766b0	0.35820532
101	0x3e608ac1	0.2192793
102	0x3cb23aab	0.02175649
103	0xbee3a72b	-0.44463477
104	0xbd8c22a3	-0.06842544
105	0x3f4561fd	0.77102643
106	0xbe8aae46	-0.27086085
107	0xbe98bec2	-0.29833037
108	0x3ebfe206	0.3747713
109	0xbecd0216	-0.40040654
110	0x3e7273cd	0.23676987
111	0xbf1120d2	-0.56690705
112	0xbe511be2	-0.20420793
113	0x3de46d16	0.11153619
114	0x3ddc38e9	0.10753042
115	0xbd5e5129	-0.05427662
116	0xbee7086c	-0.45123613
117	0xbe824e03	-0.25450143
118	0x3b0b55eb	0.0021260928
119	0x3f1de0a3	0.61670893
120	0xbdd557cc	-0.104171365
121	0x3ea59569	0.32340553
122	0x3ea149ae	0.31501526
123	0xbf3d2d34	-0.738971
124	0xbde5a753	-0.11213555
125	0xbe187d08	-0.14891446
126	0x3f84597a	1.0339806
127	0xbf7d90a3	-0.99048823
128	0xbf245306	-0.64189184
129	0x3d1831a3	0.037156712
130	0xbe45c736	-0.19314274
131	0x3e3e3e4e	0.18578455
132	0x3e2ea5ba	0.17055407
133	0x3f6e5d3f	0.9311103
134	0x3cd99f8c	0.026565336
135	0xbda8b32d	-0.082373
136	0x3e82bf68	0.25536656
137	0xbef4c3eb	-0.47805724
138	0x3e418c19	0.189011
139	0xbec64518	-0.3872459
140	0x3ec7aee0	0.39000607
141	0x3ee4e220	0.4470377
142	0x3df076e0	0.117414236
143	0x3d725e4a	0.059171952
144	0xbe321fea	-0.17394987
145	0xbf125ab3	-0.57169646
146	0x3f0512f5	0.5198205
147	0x3ea19217	0.3155677
148	0xbed8bbfc	-0.4233092
149	0xbebc86cb	-0.3682159
150	0x3d9250f2	0.07144345
151	0x3e99a090	0.30005312
152	0xbe1a3c1d	-0.15061994
153	0xbe0f661a	-0.14003792
154	0xbf5ffc9a	-0.87494814
155	0x3deee58c	0.11664876
156	0x3f29b587	0.66292614
157	0x3e7b8a61	0.24564506
158	0x3f8c3d72	1.0956252
159	0xbf01c67b	-0.5069348
160	0xbe896e30	-0.2684188
161	0x3de1cd14	0.11025444
162	0xbdaeecbd	-0.08541248
163	0x3f77f262	0.9685422
164	0xbe820591	-0.25394872
165	0xbeda0483	-0.42581567
166	0xbf1276fa	-0.57212794
167	0xbd0dca1f	-0.034616586
168	0xbf26e0ad	-0.6518658
169	0xbdeec079	-0.11657805
170	0x3e6490d9	0.2232088
171	0x3c7aa0de	0.015297143
172	0x3ebfb12e	0.37439865
173	0xbeae60dd	-0.34058276
174	0x3f7c81f8	0.98635817
175	0xbcf51604	-0.029917724
176	0xbf0ddaef	-0.5541219
177	0x3e01341d	0.12617536
178	0xbf008166	-0.50197446
179	0xbe14d397	-0.1453384
180	0x3d710289	0.05884031
181	0xbe95d154	-0.29261267
182	0x3e08d284	0.13361555
183	0x3f0e3d75	0.55562526
184	0x3e43bc12	0.19114712
185	0x3f56ae08	0.838593
186	0xbf07b2db	-0.53007287
187	0x3f103dcd	0.563443
188	0x3ddac90a	0.106828764
189	0xbf690a59	-0.91031414
190	0x3e74d90f	0.23910926
191	0x3ecd8ee2	0.40148073
192	0xbd1aa0cf	-0.037751015
193	0xbe2401f5	-0.16016372
194	0x3f14eea8	0.5817666
195	0x3e4ab14e	0.19794199
196	0xbf79dc13	-0.9760143
197	0x3eb221e7	0.3479149
198	0x3ea05c34	0.31320345
199	0xbeb99bb6	-0.3625161
200	0x3e8f8cba	0.28037053
201	0x3ec65932	0.38739926
202	0x3e9fd668	0.31218266
203	0x3e42276f	0.18960355
204	0x3eef1452	0.4669519
205	0xbef5e524	-0.48026383
206	0x3ee95e99	0.45579985
207	0x3ed6ebe8	0.41976857
208	0x3d72e609	0.05930141
209	0xbf180072	-0.5937568
210	0xbdfa3084	-0.12216285
211	0x3eec323d	0.4613208
212	0xbe018c4b	-0.12651174
213	0x3e46f2ce	0.1942856
214	0xbf3952e2	-0.72392094
215	0x3f03158b	0.51204747
216	0x3f03772e	0.5135373
217	0x3efc1313	0.49233302
218	0xbe0d1404	-0.13777167
219	0x3f2ae11f	0.6674976
220	0xbe5acffe	-0.21368405
221	0xbf380fb0	-0.7189894
222	0x3eaee513	0.34159145
223	0xbed27ee7	-0.41112444
224	0x3ec59339	0.38588884
225	0x3e57f848	0.21090806
226	0xbe1af9e3	-0.15134387
227	0x3e3f5439	0.18684472
228	0x3d088ca0	0.033337235
229	0x3ddd6e99	0.108121105
230	0x3f083140	0.5320015
231	0x3e7833d9	0.24238528
232	0x3daea32b	0.085272156
233	0xbf0f5e7e	-0.5600356
234	0xbe1a3ef2	-0.15063074
235	0x3e00d269	0.12580265
236	0x3ed4b010	0.41540575
237	0xbf4c3f60	-0.797842
238	0x3f0c7f99	0.548822
239	0xbf097ce9	-0.5370622
240	0xbec2ba62	-0.38032824
241	0xbcb2e040	-0.021835446
242	0x3d8b837b	0.06812187
243	0x3da23b30	0.07921445
244	0x3e9a2432	0.3010574
245	0xbd9da5d7	-0.07697647
246	0x3f43513a	0.76295817
247	0xbf9f048c	-1.2423263
248	0x3df8ace4	0.12142351
249	0xbeb1e8ed	-0.3474802
250	0x3f1df9fb	0.61709565
251	0xbe480ff9	-0.19537343
252	0xbe882a08	-0.26594567
253	0x3f7a9ed9	0.9789863
254	0x3f593712	0.84849656
255	0xbeac000e	-0.33593792

attention.out_proj.bias f4 [16]
0	0x3b684f74	0.0035447748
1	0x3c6e7e5b	0.014556493
2	0xbcca7403	-0.024713522
3	0x3b52b233	0.0032149672
4	0xbd16f7a1	-0.03685725
5	0xb982d74b	-0.00024955938
6	0xbba03d8e	-0.0048901504
7	0xbb83351d	-0.0040041343
8	0xbc350d9e	-0.01105061
9	0x3cf34184	0.029694326
10	0x3c374497	0.011185787
11	0xbd175f90	-0.03695637
12	0xbb3ebde5	-0.0029104885
13	0xbbe103d6	-0.0068669124
14	0x3c7f7853	0.015592652
15	0x3c8ea378	0.017411932

priority_head.weight f4 [1, 16]
0	0xbd8be3f4	-0.06830588
1	0x3f21e2d0	0.63236713
2	0x3f089d20	0.53364754
3	0xbe32db4b	-0.17466466
4	0x3dc0ae27	0.09408217
5	0xbe53b825	-0.20675714
6	0xbde616eb	-0.1123484
7	0xbf9e043c	-1.2345042
8	0x3f1a5b49	0.6029554
9	0x3f53c527	0.82722706
10	0x3ef3f049	0.4764426
11	0x3f1152ca	0.5676695
12	0x3f996690	1.1984425
13	0x3f15de92	0.5854274
14	0x3efd3ed6	0.49462003
15	0x3f01b4cc	0.506665

value_head.0.weight f4 [64, 16]
0	0x3e71e012	0.23620632
1	0xbdc68b94	-0.09694591
2	0x3e22b724	0.15890175
3	0x3d10d634	0.03536053
4	0xbe69a65e	-0.2281737
5	0x3c3b61dd	0.011436907
6	0xbe2f4dc9	-0.17119516
7	0x3f1c7b3a	0.6112553
8	0x3d64f565	0.05589809
9	0x3d20719b	0.039170843
10	0xbc392792	-0.011300938
11	0xbd666430	-0.05624789
12	0xbe49e350	-0.19715619
13	0x3bb392aa	0.00548013
14	0xbe1dbfa8	-0.15405142
15	0xbd4e39a3	-0.050347935
16	0xbe4fddfe	-0.20299527
17	0xbdb5b107	-0.08871656
18	0x3c670093	0.014099258
19	0xbe3b0af2	-0.18265894
20	0xbe024778	-0.12722576
21	0x3e2c569b	0.16829912
22	0x3e87caa4	0.2652179
23	0x3e88a625	0.26689258
24	0xbec0d64d	-0.376635
25	0x3f371ce5	0.71528465
26	0x3ea18870	0.31549406
27	0xbe733aab	-0.23752849
28	0xbe2caec6	-0.16863546
29	0x3cc4846b	0.023988923
30	0x3e2f5edd	0.17126031
31	0xbd835f6f	-0.06414687
32	0x3eee4962	0.46540362
33	0x3d6c5e31	0.057707015
34	0xbce837f5	-0.028346995
35	0x3e865b07	0.26241323
36	0x3db8929c	0.090123385
37	0xbead541a	-0.33853227
38	0x3e552bad	0.20817442
39	0xbd9636d1	-0.07334674
40	0x3ea7ef9d	0.32799998
41	0xbdf4a68a	-0.11945827
42	0xbd949d99	-0.07256622
43	0xbeee3544	-0.46525013
44	0xbe93185f	-0.2872953
45	0xbf2a7957	-0.665914
46	0xbee2e9cc	-0.44318998
47	0x3e6731cd	0.22577591
48	0x3f57dba7	0.8431954
49	0x3e9221ef	0.28541514
50	0x3d999690	0.07499421
51	0x3dee02b2	0.11621608
52	0x3de13955	0.10997263
53	0xbdd3f0f0	-0.103486896
54	0x3eadac82	0.33920676
55	0xbdee3305	-0.11630825
56	0x3f8c39a0	1.0955086
57	0xb92b40c3	-0.00016331956
58	0x3eb44072	0.35205418
59	0xbee2f890	-0.44330263
60	0x3e5dc4b2	0.21657065
61	0xbee7a2ab	-0.45241293
62	0xbdbd5eaf	-0.09246575
63	0x3fa48584	1.2853246
64	0x3ccd906a	0.025093276
65	0x3e2dff87	0.16992007
66	0x3cc9d968	0.0246398
67	0xbe2a3b28	-0.16624129
68	0xbd5a60be	-0.053314917
69	0x3e7f810d	0.24951573
70	0xbdfc74a7	-0.12326937
71	0x3d02b090	0.031906664
72	0x3de5b357	0.11215847
73	0x3f7b6cf7	0.9821314
74	0x3e715a95	0.2356971
75	0x3e55875f	0.20852421
76	0xbe9ce12e	-0.30640548
77	0x3e884bd5	0.26620355
78	0x3db411d3	0.08792462
79	0xbebc4a98	-0.3677566
80	0xbcafad33	-0.021444893
81	0xbec86baa	-0.3914464
82	0x3dfa1853	0.12211671
83	0x3e7cb906	0.24679956
84	0x3ea3d80a	0.32000762
85	0xbe21468f	-0.15749572
86	0xbe34f52f	-0.17671655
87	0xbc1bd51c	-0.009511258
88	0xbdab8dd6	-0.083766624
89	0xbf17dc81	-0.5932084
90	0xbe2b1740	-0.16708088
91	0xbe54ee0c	-0.20793933
92	0xbd0a8e34	-0.03382702
93	0xbea30233	-0.31837615
94	0xbe3efafb	-0.18650429
95	0x3d51abe5	0.051189322
96	0xbebe547f	-0.3717384
97	0x3e182bd3	0.14860468
98	0x3df24762	0.118300214
99	0x3d834fe4	0.06411722
100	0x3dff713f	0.12472772
101	0xbd18d3a0	-0.037311196
102	0x3e83226c	0.256122
103	0x3db64ee7	0.08901768
104	0x3d4f7e6a	0.050657667
105	0x3d96f7c6	0.07371478
106	0x3dd2c919	0.102922626
107	0xbd82f146	-0.063936755
108	0x3eb719ec	0.35761964
109	0x3d48bd31	0.049008552
110	0xbe8948a0	-0.2681322
111	0x3e63360c	0.22188586
112	0xbdebbe25	-0.115108766
113	0xbeabce93	-0.3355604
114	0x3e74f21e	0.23920485
115	0xbeafa17f	-0.343029
116	0xbda8be41	-0.08239413
117	0x3eb40554	0.35160315
118	0x3d8a1db0	0.06743944
119	0x3eae1126	0.33997458
120	0xbde103be	-0.10987042
121	0x3f81c0de	1.0136983
122	0x3e8324dd	0.25614062
123	0x3d9fa531	0.0779518
124	0xbe49ad61	-0.19695045
125	0x3e78e32a	0.24305406
126	0x3d9aaee1	0.07552887
127	0xbe357264	-0.17719418
128	0x3e8fc12c	0.28077066
129	0xbdb1c0b4	-0.08679333
130	0xbe7f4dc1	-0.24932005
131	0x3db84197	0.08996885
132	0x3d19cc32	0.03754825
133	0xbe287be5	-0.16453512
134	0xbeee883f	-0.46588323
135	0x3e2bdf0f	0.16784309
136	0x3e5a62df	0.21326779
137	0xbe87f971	-0.26557496
138	0xbec65dc1	-0.38743404
139	0xbece4391	-0.40285924
140	0x3d32339e	0.043506257
141	0xbf4e7f13	-0.8066265
142	0xbf142e11	-0.5788279
143	0x3e58bf3e	0.21166703
144	0x3b1c76be	0.0023874487
145	0xbe954208	-0.2915194
146	0xbdbfc9dd	-0.09364674
147	0x3eda5a23	0.42646894
148	0x3ee83599	0.45353392
149	0xbea1e053	-0.31616458
150	0xbd843b10	-0.06456578
151	0xbe29d033	-0.16583328
152	0x39a93cd0	0.000322795
153	0xbf39be5d	-0.72556096
154	0xbe289e2b	-0.16466586
155	0x3d891eec	0.06695351
156	0xbdb794d7	-0.08963936
157	0xbe2f603e	-0.17126557
158	0x3dc3ed1c	0.095667094
159	0xbe1bae00	-0.15203094
160	0x3ec9b859	0.3939846
161	0x3e0bcec6	0.13653097
162	0xbeaad71a	-0.33367234
163	0xbdc3e7d0	-0.09565699
164	0xbe78a600	-0.24282074
165	0xbf056636	-0.52109087
166	0x3d8dab41	0.0691743
167	0x3e015ede	0.12633845
168	0x3f9059ae	1.1277368
169	0xbd58df09	-0.052947078
170	0xbe4c76db	-0.19967215
171	0xbf08ca8a	-0.5343405
172	0x3ea61234	0.32435763
173	0xbef3d1ec	-0.47621095
174	0xbe471527	-0.19441663
175	0x3f9a7bbe	1.2069013
176	0xbc9a2e95	-0.01882104
177	0x3d508918	0.050911993
178	0xbdb4b6a5	-0.08823899
179	0xbf03d45a	-0.514959
180	0xbe7a51ca	-0.24445263
181	0x3eee3106	0.46521777
182	0x3eb08aef	0.34480998
183	0x3b98248e	0.0046430295
184	0xbb9db820	-0.004813209
185	0xbee6f164	-0.4510604
186	0x3e85d9a2	0.26142603
187	0x3ebe19a2	0.3712893
188	0x3e06daca	0.13169399
189	0x3d9fc620	0.07801461
190	0xbe8bb43f	-0.27285954
191	0xbd84ef89	-0.06491
192	0x3eebd37c	0.46059787
193	0xbdf9f7f9	-0.122055
194	0x3d74bfe3	0.05975331
195	0x3e966876	0.29376572
196	0xbdcec60f	-0.100963704
197	0xbeb037bc	-0.34417522
198	0xbe8b05a4	-0.2715274
199	0xbcfc4de8	-0.030798867
200	0x3ed69a4a	0.41914588
201	0xbe33a9d0	-0.17545247
202	0xbeb5c3df	-0.35501
203	0xbec32b4e	-0.38118976
204	0xbe3466c5	-0.17617328
205	0xbf262ed4	-0.64915204
206	0xbee837ae	-0.4535498
207	0x3f182e9f	0.5944614
208	0xbcebbe4e	-0.028777268
209	0x3cd2a1bc	0.025711887
210	0xbcc8d4e5	-0.024515579
211	0x3d9cc2ae	0.0765432
212	0xbe6de007	-0.23229991
213	0x3d1ed9dd	0.03878199
214	0x3e83bb3f	0.25728795
215	0x3e2e664b	0.17031209
216	0xbd736893	-0.0594259
217	0xbea18746	-0.31548518
218	0x3d59972e	0.05312269
219	0x3e61b153	0.220403
220	0x3e5f1632	0.2178581
221	0xbe4bf94f	-0.19919322
222	0xbe993513	-0.29923305
223	0xbe30ccac	-0.17265576
224	0xbd9a33a9	-0.07529385
225	0x3d5221f9	0.05130193
226	0x3dee7762	0.11643864
227	0x3f236ba0	0.638361
228	0x3ea9b684	0.3314706
229	0x3d2cf7e3	0.04222859
230	0x3df324ad	0.1187223
231	0xbecd532d	-0.4010252
232	0x3df7cdad	0.120997764
233	0xbef53ab1	-0.4789634
234	0xbe9675fa	-0.29386884
235	0xbd8fa5ab	-0.070140205
236	0xbe358864	-0.1772781
237	0xbcb8c557	-0.022555036
238	0xbe6fcb3b	-0.2341737
239	0xbde9990d	-0.11406145
240	0x3f2a9989	0.66640526
241	0x3db338a3	0.08751037
242	0xbe12f3c3	-0.143508
243	0x3dc1b19a	0.09457703
244	0xbee14863	-0.4400054
245	0xbdc55674	-0.0963563
246	0xbda1fe9e	-0.079098925
247	0x3e3e9814	0.186127
248	0x3f0cde71	0.5502692
249	0xbeaaaf46	-0.33336848
250	0x3eb94882	0.36188132
251	0x3e43a278	0.19104946
252	0xbd5b9956	-0.05361303
253	0x3d35fd2a	0.04443089
254	0xbd778485	-0.060429115
255	0x3f0e8ab9	0.55680424

value_head.0.bias f4 [64]
0	0xbc94955c	-0.018137626
1	0x3d49ea7a	0.04929588
2	0x3d8c6415	0.06855027
3	0xbd893fa4	-0.067015916
4	0x3d39c23d	0.045351256
5	0xbc01b795	-0.0079173045
6	0xbc0cf04e	-0.008602215
7	0x3c300216	0.010742685
8	0x3b28fa8b	0.00257841
9	0x3c3cc09d	0.011520532
10	0xbd91b1c1	-0.07113982
11	0xbddcc0c9	-0.10778958
12	0x3d94a9f4	0.072589785
13	0xbb9c8ca3	-0.0047775074
14	0x3cc9d4c9	0.024637597
15	0xbe066927	-0.1312605
16	0xba92d19c	-0.0011201384
17	0x3c77f723	0.015134606
18	0x3ccf5030	0.025306791
19	0x3bd0dfa9	0.0063743186
20	0x3d9ba9be	0.07600735
21	0xbd4499ff	-0.047998425
22	0x3d4d959d	0.05019151
23	0x3bd0cab7	0.0063718217
24	0x00000000	0.0
25	0x3d862c3d	0.065514065
26	0x3c01cc7f	0.007922291
27	0x00000000	0.0
28	0x3d8c535d	0.06851838
29	0x3c2c34ed	0.010510665
30	0x3bffaa01	0.0078022485
31	0x00000000	0.0
32	0x00000000	0.0
33	0x3bc07ecb	0.00587449
34	0xbc079e64	-0.008277509
35	0xbc9d1b11	-0.019177945
36	0xbcdd8710	-0.027041942
37	0x3bb4e48f	0.0055204104
38	0x00000000	0.0
39	0x3d81818a	0.06323536
40	0xbd41e1d7	-0.04733452
41	0x3dbb1670	0.09135139
42	0x3bcd1645	0.0062587583
43	0x3da90fc3	0.082549594
44	0xbd0d172b	-0.034445923
45	0x3d6583b4	0.056033805
46	0x3d89c92c	0.067278236
47	0x3d4117ff	0.047142025
48	0x3cd71a48	0.026257649
49	0x3d23f213	0.04002578
50	0x3aa9a6fd	0.0012943443
51	0x3ccb48b0	0.024814934
52	0xbc9b9c64	-0.018995471
53	0x00000000	0.0
54	0x3da16b5d	0.07881806
55	0xbe1bdbe6	-0.15220603
56	0xbc05677f	-0.008142351
57	0x3d901130	0.07034528
58	0x00000000	0.0
59	0x3a9e75d0	0.0012089554
60	0x3d516588	0.05112222
61	0x3d40e52b	0.04709355
62	0x3d8e2ff8	0.06942743
63	0xbc1ecc79	-0.009692305

value_head.2.weight f4 [1, 64]
0	0x3e8d00a9	0.27539566
1	0xbe4bc074	-0.19897634
2	0xbee300a6	-0.44336432
3	0x3f5a9011	0.8537608
4	0xbe29aea5	-0.16570528
5	0x3ee44efe	0.44591516
6	0xbe8b6f06	-0.27233142
7	0xbe8d2301	-0.27565768
8	0xbf3bc5da	-0.7334877
9	0x3e53eafa	0.20695105
10	0x3f1d5ae0	0.6146679
11	0x3eba4c46	0.36386317
12	0xbefcb502	-0.49356848
13	0x3dba2bc0	0.09090376
14	0x3e79fa78	0.24411952
15	0xbf8b26da	-1.0871232
16	0x3e3c51b3	0.18390541
17	0xbe6dfbe9	-0.23240627
18	0x3db25958	0.08708447
19	0x3ec30c07	0.38095114
20	0xbea6240b	-0.32449374
21	0x3e34b109	0.17645659
22	0xbdf353b0	-0.118811965
23	0x3e8de805	0.2771608
24	0x3dc2c153	0.0950953
25	0xbeb59e81	-0.3547249
26	0x3ed66706	0.41875476
27	0x3e65c1ee	0.2243726
28	0xbf1d4ba5	-0.6144355
29	0xbe245008	-0.16046154
30	0x3e8133ba	0.25234777
31	0x3ade84d2	0.0016976839
32	0x3dfca3be	0.12335919
33	0x3ea90217	0.33009407
34	0xbe8cb8b0	-0.27484655
35	0x3f168d24	0.58809114
36	0xbb9c7c33	-0.004775548
37	0x3e9d396b	0.3070787
38	0x3ef48c4e	0.47763294
39	0xbee71cd1	-0.45139173
40	0x3e3152e3	0.17316775
41	0xbec555f9	-0.38542154
42	0x3eb36f21	0.35045722
43	0xbeb60fe9	-0.35559013
44	0x3e8302fb	0.2558821
45	0xbd8e4050	-0.069458604
46	0xbef3a94b	-0.47590098
47	0xbefa96dd	-0.48943225
48	0x3e8888da	0.2666691
49	0xbe259c8d	-0.16173
50	0x3e4629e1	0.19351913
51	0x3efe48d7	0.49664947
52	0xbead5a0c	-0.33857763
53	0xbd7a6565	-0.061131854
54	0xbe5cca64	-0.21561581
55	0xbfb97393	-1.4488395
56	0x3ec02863	0.37530813
57	0xbf0291a6	-0.5100349
58	0x3dd43e25	0.10363416
59	0x3e3845b5	0.17995341
60	0xbec352f2	-0.3814922
61	0xbe6f759d	-0.2338471
62	0xbed542a9	-0.4165242
63	0x3d6cf02c	0.057846233

exp_avg f4 [50]
0	0x80000004	-6e-45
1	0x80000004	-6e-45
2	0x80000004	-6e-45
3	0x80000004	-6e-45
4	0x80000004	-6e-45
5	0x80000004	-6e-45
6	0x80000004	-6e-45
7	0x80000004	-6e-45
8	0x80000004	-6e-45
9	0x80000004	-6e-45
10	0x80000004	-6e-45
11	0x80000004	-6e-45
12	0x80000004	-6e-45
13	0x80000004	-6e-45
14	0x80000004	-6e-45
15	0x80000004	-6e-45
16	0x80000004	-6e-45
17	0x80000004	-6e-45
18	0x80000004	-6e-45
19	0x80000004	-6e-45
20	0x80000004	-6e-45
21	0x80000004	-6e-45
22	0x80000004	-6e-45
23	0x80000004	-6e-45
24	0x80000004	-6e-45
25	0x80000004	-6e-45
26	0x80000004	-6e-45
27	0x80000004	-6e-45
28	0x80000004	-6e-45
29	0x80000004	-6e-45
30	0x80000004	-6e-45
31	0x80000004	-6e-45
32	0x80000004	-6e-45
33	0x80000004	-6e-45
34	0x80000004	-6e-45
35	0x80000004	-6e-45
36	0x80000004	-6e-45
37	0x80000004	-6e-45
38	0x80000004	-6e-45
39	0x80000004	-6e-45
40	0x80000004	-6e-45
41	0x80000004	-6e-45
42	0x80000004	-6e-45
43	0x80000004	-6e-45
44	0x80000004	-6e-45
45	0x80000004	-6e-45
46	0x80000004	-6e-45
47	0x80000004	-6e-45
48	0x80000004	-6e-45
49	0x80000004	-6e-45

exp_avg_sq f4 [50]
0	0x173795ec	5.9319717e-25
1	0x172d3bec	5.5974947e-25
2	0x1711014c	4.6853664e-25
3	0x16f899bc	4.016358e-25
4	0x170d13a8	4.5584367e-25
5	0x16fcf46d	4.086705e-25
6	0x16c323cb	3.1526538e-25
7	0x16f1684c	3.900147e-25
8	0x172bb3ea	5.5480163e-25
9	0x16c4d275	3.1798325e-25
10	0x1701c07b	4.1925093e-25
11	0x173ea78f	6.16038e-25
12	0x16f6b346	3.985658e-25
13	0x16eba52a	3.807053e-25
14	0x172f25cc	5.6593256e-25
15	0x16e8bfdc	3.7602702e-25
16	0x16ef9b80	3.8710667e-25
17	0x16f5a56b	3.9686278e-25
18	0x172c0f78	5.559572e-25
19	0x170f18d8	4.623715e-25
20	0x16f8fd11	4.0226268e-25
21	0x1689dce9	2.2272958e-25
22	0x16ccd3b0	3.309157e-25
23	0x16ebd9b3	3.8103685e-25
24	0x16c31d6b	3.1522514e-25
25	0x16dca4bf	3.5646886e-25
26	0x16f46a63	3.9487466e-25
27	0x170dd6ab	4.5830506e-25
28	0x16f4464e	3.9464695e-25
29	0x16bcb94b	3.0489974e-25
30	0x16ff9721	4.1292848e-25
31	0x16d444b6	3.429381e-25
32	0x1726a796	5.3849016e-25
33	0x16edfc2c	3.8448558e-25
34	0x16fbd9c3	4.0688664e-25
35	0x173cea9c	6.1042195e-25
36	0x170d305d	4.56206e-25
37	0x16fe646d	4.109929e-25
38	0x17678a1c	7.4814444e-25
39	0x16f5549e	3.9635286e-25
40	0x16f55f6e	3.964211e-25
41	0x16c07700	3.1094373e-25
42	0x176aae98	7.5829846e-25
43	0x175882b1	6.995832e-25
44	0x16f16c24	3.9003896e-25
45	0x16e15c08	3.640879e-25
46	0x16821e0f	2.1021602e-25
47	0x168bf32f	2.2610132e-25
48	0x16bdd4ac	3.0668812e-25
49	0x1728f158	5.4588346e-25

exp_avg f4 [16, 4]
0	0x00000000	0.0
1	0x00000000	0.0
2	0x00000000	0.0
3	0x00000000	0.0
4	0xbb4d14d7	-0.003129294
5	0xba80ec1d	-0.0009835992
6	0xbb076c4b	-0.0020663913
7	0xbabbd5e0	-0.0014330707
8	0x3b00b74a	0.0019640499
9	0x39bf87f0	0.0003653164
10	0x3a7c5ac5	0.0009626563
11	0x3a66a8f5	0.000879898
12	0x00000000	0.0
13	0x00000000	0.0
14	0x00000000	0.0
15	0x00000000	0.0
16	0xb9ded49e	-0.00042501552
17	0xb8ec79f3	-0.00011276072
18	0xb992153b	-0.00027863108
19	0xb9b3bbce	-0.00034281466
20	0x3c5eab2e	0.013590617
21	0x3b1184e0	0.0022204444
22	0x3bda56e3	0.0066631897
23	0x3bcd4628	0.006264467
24	0x00000000	0.0
25	0x00000000	0.0
26	0x00000000	0.0
27	0x00000000	0.0
28	0xb991210d	-0.0002768118
29	0xb8b9d4ea	-8.861146e-05
30	0xbb46379a	-0.0030245543
31	0xbb3f2498	-0.0029166099
32	0x00000000	0.0
33	0x00000000	0.0
34	0x00000000	0.0
35	0x00000000	0.0
36	0xb9b65ef8	-0.00034784502
37	0xb8948318	-7.081608e-05
38	0xb920982f	-0.00015315482
39	0xb9323ecd	-0.00016998798
40	0xba93fe6b	-0.0011291032
41	0xb918571b	-0.00014528299
42	0xba0603f5	-0.0005112284
43	0xb9e27eae	-0.00043200463
44	0x3c620e00	0.013797283
45	0x3b1ed79e	0.0024237405
46	0x3c1f1b20	0.009711057
47	0x3c1ad95b	0.009451236
48	0xbb68697a	-0.003546326
49	0xba1edf72	-0.00060605176
50	0xbae98a17	-0.0017817643
51	0xbad7f54f	-0.0016476306
52	0x3b19db62	0.002347671
53	0x39cae1a6	0.00038696564
54	0x3ac9a151	0.0015383159
55	0x3ac656c8	0.0015132064
56	0x00000000	0.0
57	0x00000000	0.0
58	0x00000000	0.0
59	0x00000000	0.0
60	0xba6bce80	-0.00089953095
61	0xb9220d0a	-0.00015454381
62	0xb9deab0f	-0.00042470588
63	0xb9c66fc9	-0.0003784879

exp_avg_sq f4 [16, 4]
0	0x00000000	0.0
1	0x00000000	0.0
2	0x00000000	0.0
3	0x00000000	0.0
4	0x3a0b8c2c	0.00053233164
5	0x37cfd09d	2.4773466e-05
6	0x39a841e2	0.00032092544
7	0x39987746	0.00029080565
8	0x3a379900	0.0007003695
9	0x37f87554	2.9618539e-05
10	0x39dc23b5	0.00041988274
11	0x39d4aebe	0.00040565984
12	0x00000000	0.0
13	0x00000000	0.0
14	0x00000000	0.0
15	0x00000000	0.0
16	0x37bb2310	2.2308464e-05
17	0x3456edc2	2.0016799e-07
18	0x37e7d3e0	2.7636008e-05
19	0x3839cf42	4.430046e-05
20	0x3caf635c	0.021409683
21	0x3a84f342	0.0010143297
22	0x3c558681	0.0130325565
23	0x3c403b18	0.011732839
24	0x00000000	0.0
25	0x00000000	0.0
26	0x00000000	0.0
27	0x00000000	0.0
28	0x361421c1	2.2073366e-06
29	0x340ad3e4	1.2929337e-07
30	0x392bac4c	0.00016372016
31	0x3914cf04	0.00014191499
32	0x00000000	0.0
33	0x00000000	0.0
34	0x00000000	0.0
35	0x00000000	0.0
36	0x37e5d791	2.7399308e-05
37	0x3578ed2a	9.273232e-07
38	0x3777fc15	1.478104e-05
39	0x3788fd1f	1.6330332e-05
40	0x3997acaf	0.00028929624
41	0x37acf852	2.0619631e-05
42	0x394ed236	0.00019724
43	0x390788c4	0.00012925552
44	0x3d0e1a03	0.034692775
45	0x3ac97600	0.001537025
46	0x3ca5b4cb	0.02022781
47	0x3c9a42b9	0.018830644
48	0x3b0bf2af	0.0021354367
49	0x38deaf95	0.000106184896
50	0x3aaab358	0.0013023419
51	0x3a92bc44	0.0011195024
52	0x3a836bf4	0.0010026679
53	0x38478b7f	4.7575213e-05
54	0x3a1e5fe0	0.0006041508
55	0x3a0c7028	0.0005357289
56	0x00000000	0.0
57	0x00000000	0.0
58	0x00000000	0.0
59	0x00000000	0.0
60	0x390e6dac	0.00013583031
61	0x36f83c57	7.3980004e-06
62	0x38cac244	9.6682954e-05
63	0x38a73c84	7.9744525e-05

exp_avg f4 [16]
0	0x00000000	0.0
1	0xbb1d1a65	-0.0023972031
2	0x3aa6448c	0.0012685223
3	0x00000000	0.0
4	0xb9bf8792	-0.00036531367
5	0x3c211f53	0.009834128
6	0x00000000	0.0
7	0xbb7c01a4	-0.0038453126
8	0x00000000	0.0
9	0xb9610c2f	-0.00021462211
10	0xba44ac2a	-0.0007502461
11	0x3c5349d8	0.012896024
12	0xbb1eed30	-0.0024250261
13	0x3b08dd9b	0.002088404
14	0x00000000	0.0
15	0xba191b97	-0.0005840598

exp_avg_sq f4 [16]
0	0x00000000	0.0
1	0x3a0fbbd1	0.0005483004
2	0x3a3ed611	0.0007279823
3	0x00000000	0.0
4	0x38655908	5.468077e-05
5	0x3cb38b03	0.021916872
6	0x00000000	0.0
7	0x39856c79	0.00025448555
8	0x00000000	0.0
9	0x37eccb20	2.822798e-05
10	0x39a15fe8	0.0003077977
11	0x3d0e4edc	0.034743175
12	0x3b0f78b2	0.0021892008
13	0x3a85e33f	0.0010214819
14	0x00000000	0.0
15	0x39279204	0.00015980756

exp_avg f4 [16, 2]
0	0x386192e3	5.378098e-05
1	0xb9479cf8	-0.00019036594
2	0x36a72e02	4.982344e-06
3	0xb7a3a91c	-1.9509862e-05
4	0x376b0cb0	1.4010046e-05
5	0xb8848b4d	-6.320197e-05
6	0x37c9701b	2.401327e-05
7	0xb88ff05e	-6.863543e-05
8	0x36867988	4.0076593e-06
9	0xb6d4e462	-6.3446796e-06
10	0xb8701511	-5.724008e-05
11	0xb8f02983	-0.00011451824
12	0x3752b3a2	1.2558799e-05
13	0xb8216ba7	-3.848565e-05
14	0x37c8cfd5	2.3938637e-05
15	0xb8bef54b	-9.1055954e-05
16	0x00000000	0.0
17	0x00000000	0.0
18	0x00000000	0.0
19	0x00000000	0.0
20	0xb864992b	-5.4502085e-05
21	0xb92b5843	-0.00016340711
22	0xb65cb82e	-3.2889761e-06
23	0xb803df44	-3.1440766e-05
24	0x3860d024	5.3599608e-05
25	0xb88b1f27	-6.633839e-05
26	0x380b251e	3.317475e-05
27	0xb8a6d624	-7.9553836e-05
28	0x380c0b7d	3.33893e-05
29	0xb850de04	-4.9797833e-05
30	0x38301d38	4.1988882e-05
31	0xb8bc4d61	-8.9789515e-05

exp_avg_sq f4 [16, 2]
0	0x35a9d318	1.2652918e-06
1	0x354b35f1	7.570189e-07
2	0x325095eb	1.2141281e-08
3	0x31de7895	6.474759e-09
4	0x3412e3e8	1.3680221e-07
5	0x33c88886	9.338059e-08
6	0x3435c144	1.6927248e-07
7	0x33dc7df3	1.0267458e-07
8	0x330e8113	3.3179344e-08
9	0x32808518	1.4961685e-08
10	0x3475ca06	2.2890899e-07
11	0x343d0224	1.7602775e-07
12	0x337b149a	5.845923e-08
13	0x330a0ea8	3.214396e-08
14	0x348e828f	2.6544555e-07
15	0x342c91f2	1.6071843e-07
16	0x00000000	0.0
17	0x00000000	0.0
18	0x00000000	0.0
19	0x00000000	0.0
20	0x3538f9bc	6.890875e-07
21	0x351092f1	5.385801e-07
22	0x32d793fb	2.5096588e-08
23	0x32656ea1	1.33547085e-08
24	0x34975696	2.818894e-07
25	0x343a80a5	1.73694e-07
26	0x34880aa3	2.5339713e-07
27	0x3435e90a	1.6941718e-07
28	0x3425a664	1.5427355e-07
29	0x33e544f4	1.0676186e-07
30	0x3507c4ab	5.057761e-07
31	0x3494e9c1	2.7737227e-07

exp_avg f4 [16]
0	0xb95a0f20	-0.00020795735
1	0xb7db9156	-2.6174512e-05
2	0xb8919a2f	-6.942858e-05
3	0xb89735af	-7.2102404e-05
4	0xb7030050	-7.808281e-06
5	0xb93ac6fc	-0.0001781247
6	0xb82bc9c7	-4.0957497e-05
7	0xb8d14bdc	-9.9800265e-05
8	0x00000000	0.0
9	0x00000000	0.0
10	0xb9844b69	-0.00025233187
11	0xb8191126	-3.6494013e-05
12	0xb8643624	-5.440986e-05
13	0xb8ab61e5	-8.17215e-05
14	0xb832f1e4	-4.2663785e-05
15	0xb8c493c1	-9.3735296e-05

exp_avg_sq f4 [16]
0	0x363d145b	2.8175043e-06
1	0x32e412dc	2.655127e-08
2	0x34a9597c	3.1543811e-07
3	0x34cac5b8	3.776929e-07
4	0x3392c626	6.834698e-08
5	0x3518cf81	5.692637e-07
6	0x340344d9	1.2225372e-07
7	0x3522c94d	6.0642634e-07
8	0x00000000	0.0
9	0x00000000	0.0
10	0x35efbb4c	1.7861398e-06
11	0x3352bd19	4.906642e-08
12	0x35299c90	6.3185234e-07
13	0x351e9fcc	5.909212e-07
14	0x34c04e1a	3.5819613e-07
15	0x3591f553	1.0874741e-06

exp_avg f4 [48, 16]
0	0x365fbff8	3.334133e-06
1	0x36ecfe57	7.062957e-06
2	0x3756223a	1.2763363e-05
3	0x38082e55	3.2468077e-05
4	0xb681172b	-3.8471967e-06
5	0x37c0cfe1	2.2984985e-05
6	0x35f2d2c4	1.8091746e-06
7	0x363ca3ae	2.8109457e-06
8	0x00000000	0.0
9	0x00000000	0.0
10	0x381a68ae	3.681395e-05
11	0x38070e98	3.22001e-05
12	0x37ae7b89	2.0799942e-05
13	0x3751c37c	1.25028855e-05
14	0x3739321d	1.1038527e-05
15	0xb5d58ae8	-1.5910164e-06
16	0xb6f25c94	-7.2229395e-06
17	0xb78dcdd0	-1.6904349e-05
18	0xb77b6ac0	-1.49856205e-05
19	0x37612d16	1.34215425e-05
20	0xb7910834	-1.7289167e-05
21	0x37ddc6db	2.6437852e-05
22	0xb7e9b414	-2.785962e-05
23	0xb5ddf75f	-1.6537778e-06
24	0x00000000	0.0
25	0x00000000	0.0
26	0x382db386	4.141361e-05
27	0xb71a7df2	-9.208439e-06
28	0x3730f9ec	1.0548607e-05
29	0x3764b5a4	1.36321505e-05
30	0x3732cfa6	1.0657974e-05
31	0xb7fc05e7	-3.004349e-05
32	0x36ff7c90	7.614093e-06
33	0x37930d05	1.7529828e-05
34	0x376abc36	1.3991308e-05
35	0xb7c3baf4	-2.3332868e-05
36	0x37ada5a2	2.0700336e-05
37	0xb815b575	-3.5693363e-05
38	0x38035ad2	3.1317417e-05
39	0x35b17940	1.3222816e-06
40	0x00000000	0.0
41	0x00000000	0.0
42	0xb86b8438	-5.6151504e-05
43	0x36215be8	2.4044366e-06
44	0xb78f5c8a	-1.709002e-05
45	0xb79b3e0a	-1.8506329e-05
46	0xb77772b9	-1.4749058e-05
47	0x3811e771	3.478624e-05
48	0x37531caf	1.25832585e-05
49	0x37e30440	2.7062488e-05
50	0x380ba863	3.3297005e-05
51	0x38065749	3.202938e-05
52	0x374d543c	1.22385645e-05
53	0x36c56f7b	5.8840355e-06
54	0x380110cb	3.0771636e-05
55	0x36c95aea	6.0008506e-06
56	0x00000000	0.0
57	0x00000000	0.0
58	0x372bc407	1.0238035e-05
59	0x38635ec7	5.4209286e-05
60	0x379d7e26	1.87746e-05
61	0x368a639c	4.1243165e-06
62	0x36aad997	5.0917256e-06
63	0x37efed1a	2.860143e-05
64	0xb6ce76bb	-6.1531005e-06
65	0xb789e643	-1.6438897e-05
66	0xb7835198	-1.5654412e-05
67	0x36ac9550	5.1433817e-06
68	0xb76f9d1c	-1.428209e-05
69	0x37a1b29d	1.9275869e-05
70	0xb7d25239	-2.5072239e-05
71	0xb5c1407a	-1.4398386e-06
72	0x00000000	0.0
73	0x00000000	0.0
74	0x37fa5e71	2.98463e-05
75	0xb781ca5f	-1.5472235e-05
76	0x36b54cd7	5.4031657e-06
77	0x372920dd	1.0080837e-05
78	0x3702535a	7.768011e-06
79	0xb7d75e6b	-2.5673964e-05
80	0xb4c554e7	-3.6755884e-07
81	0x365eb12d	3.3183708e-06
82	0xb5e979a7	-1.7395258e-06
83	0xb7e5a9c9	-2.737799e-05
84	0x37292004	1.0080639e-05
85	0xb7ee2230	-2.838773e-05
86	0x374786c9	1.1892706e-05
87	0xb60b8b46	-2.0793682e-06
88	0x00000000	0.0
89	0x00000000	0.0
90	0xb83b7a3c	-4.4698114e-05
91	0xb78287d0	-1.556045e-05
92	0xb7a0291a	-1.9092626e-05
93	0xb7823094	-1.5519829e-05
94	0xb75d8f6e	-1.3206021e-05
95	0x376b26a7	1.4016091e-05
96	0xb5c29506	-1.4497498e-06
97	0x35a93be7	1.2608915e-06
98	0xb6596fc9	-3.2400587e-06
99	0xb7c4e41a	-2.3471239e-05
100	0x36f47da5	7.2863936e-06
101	0xb7c3214d	-2.3261318e-05
102	0x3704dd5c	7.919352e-06
103	0xb61a34d2	-2.2978534e-06
104	0x00000000	0.0
105	0x00000000	0.0
106	0xb8195be0	-3.6563608e-05
107	0xb778fe34	-1.4841138e-05
108	0xb7898504	-1.6393613e-05
109	0xb758b3b3	-1.2916443e-05
110	0xb73abd22	-1.11305e-05
111	0x371d3933	9.371247e-06
112	0xb660206a	-3.3397469e-06
113	0xb73b7810	-1.1174023e-05
114	0xb6fe85ad	-7.585352e-06
115	0x37a97516	2.0200892e-05
116	0xb76fb8bd	-1.4288523e-05
117	0x37ef45f4	2.8523595e-05
118	0xb7b3470d	-2.1371548e-05
119	0x34db5d97	4.0860024e-07
120	0x00000000	0.0
121	0x00000000	0.0
122	0x383b5e6c	4.467221e-05
123	0x35c2b7a0	1.4507568e-06
124	0x377bf415	1.5017596e-05
125	0x378042e4	1.5289937e-05
126	0x37527099	1.2543192e-05
127	0xb7c24f6f	-2.3163591e-05
128	0xb501a99f	-4.8303076e-07
129	0xb526ac40	-6.2090476e-07
130	0xb621bb18	-2.4099772e-06
131	0xb72ad2ab	-1.018184e-05
132	0x361d90d8	2.3479133e-06
133	0xb710ecea	-8.63823e-06
134	0x35e915d2	1.7366203e-06
135	0xb54628f7	-7.382036e-07
136	0x00000000	0.0
137	0x00000000	0.0
138	0xb7664337	-1.3724718e-05
139	0xb7099348	-8.200128e-06
140	0xb6e1e4f7	-6.7321776e-06
141	0xb69d2c65	-4.684133e-06
142	0xb68774db	-4.0369173e-06
143	0x3638d345	2.7541112e-06
144	0xb58f5995	-1.0680402e-06
145	0xb67d98fc	-3.7788986e-06
146	0xb6aec9d0	-5.209098e-06
147	0xb716fa82	-8.999023e-06
148	0xb504860f	-4.9368913e-07
149	0xb6937d30	-4.395515e-06
150	0xb652c5f4	-3.1407662e-06
151	0xb525c298	-6.175046e-07
152	0x00000000	0.0
153	0x00000000	0.0
154	0xb6f41ef7	-7.2753714e-06
155	0xb73f9d27	-1.1421077e-05
156	0xb6b2ae5c	-5.3251115e-06
157	0xb6188428	-2.272669e-06
158	0xb60b11b9	-2.072293e-06
159	0xb5ff59a3	-1.9025068e-06
160	0xb5db7ab7	-1.6352486e-06
161	0xb62587ab	-2.4665885e-06
162	0xb5b7c290	-1.3691188e-06
163	0x370357fc	7.828694e-06
164	0xb68ca5a1	-4.191607e-06
165	0x3711c7bb	8.689177e-06
166	0xb6bae4a2	-5.5698483e-06
167	0xb4ae2410	-3.2436265e-07
168	0x00000000	0.0
169	0x00000000	0.0
170	0x37689d07	1.3864838e-05
171	0x3667299d	3.4445904e-06
172	0x36ad84d4	5.171265e-06
173	0x36934d96	4.3899736e-06
174	0x366caf50	3.5268786e-06
175	0xb6e8b9e7	-6.9357807e-06
176	0x351d48b0	5.859283e-07
177	0xb4868b18	-2.506065e-07
178	0xb586db1a	-1.0047545e-06
179	0xb6bdda3e	-5.6580457e-06
180	0x35bde9e8	1.4149673e-06
181	0xb6928ea0	-4.367743e-06
182	0x3591c3f0	1.0860367e-06
183	0x340d06c9	1.3134117e-07
184	0x00000000	0.0
185	0x00000000	0.0
186	0xb6ef0c2c	-7.124172e-06
187	0xb6a76564	-4.9887913e-06
188	0xb665a290	-3.4218283e-06
189	0xb60e5822	-2.121095e-06
190	0xb5e8d817	-1.7348237e-06
191	0x361171db	2.1672956e-06
192	0xb6549b2c	-3.1680784e-06
193	0xb60dbf90	-2.1122141e-06
194	0x36a87963	5.0209214e-06
195	0x384384e0	4.6615372e-05
196	0xb7827008	-1.5549376e-05
197	0x382f3661	4.1773896e-05
198	0xb77c5b3e	-1.50416145e-05
199	0x351c977c	5.833497e-07
200	0x00000000	0.0
201	0x00000000	0.0
202	0x388c6131	6.6938235e-05
203	0x380ed12a	3.4050237e-05
204	0x37fbb5dd	3.0006218e-05
205	0x37b44af0	2.1492568e-05
206	0x3795f27f	1.7875105e-05
207	0xb7ba4ea3	-2.2209546e-05
208	0xb75534bb	-1.2708067e-05
209	0xb7e1e91f	-2.6930646e-05
210	0xb80fd7af	-3.4294728e-05
211	0xb82157eb	-3.846727e-05
212	0xb72e3c61	-1.0385266e-05
213	0xb74606fb	-1.1803345e-05
214	0xb7f288e7	-2.8912398e-05
215	0xb6d7888d	-6.423396e-06
216	0x00000000	0.0
217	0x00000000	0.0
218	0xb7a470ca	-1.9602845e-05
219	0xb8767778	-5.8762234e-05
220	0xb7c1ce43	-2.3103441e-05
221	0xb6f65722	-7.341515e-06
222	0xb7037e22	-7.837576e-06
223	0xb7dae2c6	-2.6093225e-05
224	0xb763f38a	-1.3586958e-05
225	0xb7e36062	-2.710539e-05
226	0xb7d769d3	-2.5679275e-05
227	0x377f88d0	1.5231039e-05
228	0xb7dad791	-2.6088006e-05
229	0x38151b2d	3.5549678e-05
230	0xb8346adf	-4.3014876e-05
231	0xb68f3b6b	-4.2686493e-06
232	0x00000000	0.0
233	0x00000000	0.0
234	0x386ac808	5.597624e-05
235	0xb79858f5	-1.8161236e-05
236	0x3748b76c	1.1963635e-05
237	0x3793a7a8	1.7601837e-05
238	0x375e2c1b	1.32425e-05
239	0xb845a018	-4.711756e-05
240	0xb596c4c2	-1.1233135e-06
241	0xb668000f	-3.4570728e-06
242	0xb7637daa	-1.3559513e-05
243	0xb87cdd31	-6.0287482e-05
244	0x37764071	1.4677747e-05
245	0xb8534651	-5.0371807e-05
246	0x37315c43	1.05715035e-05
247	0xb65c0882	-3.2787507e-06
248	0x00000000	0.0
249	0x00000000	0.0
250	0xb8a8aacd	-8.0426784e-05
251	0xb84f21b3	-4.938403e-05
252	0xb824832e	-3.9222818e-05
253	0xb7e0a8c1	-2.6781463e-05
254	0xb7c00511	-2.2890543e-05
255	0x3795d134	1.7859602e-05
