training/checkpoint_1750.pt (torch, 222999 bytes, 33 tensors)

policy_log_std f4 [30]
0.9968417 0.94603103 0.94816947 0.96170163 0.99344337 1.0270946 1.0416045 1.0306828
1.0910068 1.116644 1.1303629 1.1167593 1.1173513 1.0948515 1.0918682 1.0533044
1.0135162 1.034645 1.0329521 1.001334 0.9944528 1.00814 1.0020092 0.97595465
0.9353975 0.9212101 0.89150304 0.8244492 0.7250996 0.6912523
00000000: 0531 7f3f 172f 723f 3cbb 723f 1432 763f
00000010: 4e52 7e3f d677 833f 4c53 853f 6aed 833f
00000020: 1ca6 8b3f 31ee 8e3f bbaf 903f f8f1 8e3f
00000030: 5e05 8f3f 1824 8c3f 56c2 8b3f aed2 863f
00000040: e6ba 813f 3f6f 843f c637 843f b62b 803f
00000050: 7594 7e3f bb0a 813f d641 803f 2ad8 793f
00000060: 3676 6f3f 6dd4 6b3f 8b39 643f 1a0f 533f
00000070: 21a0 393f e9f5 303f

host_encoder.weight f4 [64, 2]
0.4238033 0.7380727 -0.18245792 -0.13598455 -0.23029771 -0.017165693 -0.045072224 0.040922254
-0.16552669 -0.047124423 0.49402183 0.6186417 -0.07838628 -0.022160256 -0.0760233 -0.07368633
-0.088546686 0.35611144 -0.16680762 -0.17133732 -0.15031716 0.0006544591 -0.4573435 0.15675333
0.47969788 0.7149072 -0.08237844 -0.14990383 0.5065512 0.76243776 -0.47085014 0.17499125
0.31073955 0.75396466 -0.10689768 -0.23817815 0.6050626 0.65142846 0.21075322 0.7919528
-0.20797804 -0.72811395 -0.123387314 0.5057395 -0.13307497 0.50773877 -0.0050316234 -0.60684335
-0.06803768 -0.021055937 -0.081639186 -0.131219 0.47490445 0.7094073 -0.17758563 -0.31304675
-0.2803078 0.19788964 -0.37648594 0.0046506994 -0.21214363 -0.10542414 0.4014645 0.8052932
-0.06181054 -0.1633112 0.5156457 0.64562666 -0.15731007 -0.21847554 0.35716265 0.7111385
-0.31616366 -0.34592044 -0.23894449 -0.28657967 -0.15855974 -0.40791035 -0.4898485 0.27858967
-0.3580362 -0.49713573 -0.03228865 -0.08355163 -0.28265083 -0.611845 -0.12500547 -0.13182437
-0.24845676 -0.05877359 -0.08615062 -0.11803073 0.12313147 0.67872614 0.3614802 0.901985
-0.21757998 -0.1222449 -0.29174158 0.15499243 0.3757631 0.60156536 -0.13565789 -0.14360088
-0.08821581 -0.43909976 -0.16505285 -0.03096419 0.07777347 0.8548966 -0.16144018 0.032545283
-0.10085425 -0.14048687 -0.082205586 0.3638793 -0.012031574 -0.028896617 0.69095135 0.73080295
-0.066869125 -0.22456703 -0.13212572 -0.0207465 -0.31137586 0.18459883 -0.2768287 -0.06579189
00000000: bffc d83e 55f2 3c3f 40d6 3abe 893f 0bbe
00000010: 2ad3 6bbe 119f 8cbc a79d 38bd 189e 273d
00000020: d47f 29be 8a05 41bd 6ef0 fc3e 4d5f 1e3f
00000030: fc88 a0bd 6d89 b5bc 1bb2 9bbd dce8 96bd
00000040: f757 b5bd 3d54 b63e 9ecf 2abe 0d73 2fbe
00000050: beec 19be 0290 2b3a ed28 eabe f283 203e
00000060: f69a f53e 2904 373f 07b6 a8bd 6480 19be
00000070: 57ad 013f 1f2f 433f 4513 f1be e830 333e
00000080: 4119 9f3e d403 413f 2ced dabd f9e4 73be
00000090: 62e5 1a3f 04c4 263f b1cf 573e 6bbd 4a3f
000000a0: 32f8 54be ad65 3abf 7db2 fcbd 2578 013f
000000b0: ce44 08be 2bfb 013f 51e0 a4bb 165a 1bbf
000000c0: 5757 8bbd 807d acbc 7232 a7bd 465e 06be
000000d0: ad26 f33e b89b 353f 02d9 35be aa47 a0be
000000e0: 8184 8fbe 95a3 4a3e c4c2 c0be e564 983b
000000f0: 2e3c 59be 9de8 d7bd c18c cd3e b227 4e3f
00000100: 0c2d 7dbd 0d3b 27be 5b01 043f ca47 253f
00000110: e415 21be 0db8 5fbe 06de b63e 2c0d 363f
00000120: 34e0 a1be 7c1c b1be ddad 74be 92ba 92be
00000130: 7c5d 22be a0d9 d0be 6ccd fabe 4ea3 8e3e
00000140: 8550 b7be 9388 febe 1a41 04bd 1e1d abbd
00000150: 9cb7 90be e0a1 1cbf 6f01 00be f8fc 06be
00000160: 736b 7ebe 93bc 70bd bc6f b0bd 18ba f1bd
00000170: 5a2c fc3d ffc0 2d3f ef13 b93e 7de8 663f
00000180: 49cd 5ebe 895b fabd 275f 95be 56b6 1e3e
00000190: 0564 c03e 3000 1a3f e7e9 0abe 1c0c 13be
000001a0: 7eaa b4bd afd1 e0be 9d03 29be 9da8 fdbc
000001b0: b247 9f3d 81da 5a3f 9350 25be 344e 053d
000001c0: ac8c cebd cadb 0fbe 675b a8bd 634e ba3e
000001d0: 1420 45bc 99b8 ecbc 30e2 303f e715 3b3f
000001e0: aef2 88bd e6f4 65be f74b 07be 90f4 a9bc
000001f0: a86c 9fbe 7a07 3d3e 7ebc 8dbe e6bd 86bd

host_encoder.bias f4 [64]
0.002460617 0.0 0.0 -0.0016994503 0.36373717 -0.24640912 0.0 0.42311445
-1.380364e-05 0.0 0.0 0.0 0.0024372167 0.0 -0.00594131 0.43548092
0.0024307265 0.39036143 -0.00226583 0.0022531431 0.5540117 0.05234525 0.06675741 0.4888708
0.0 0.0 -0.008456041 0.0 -0.0042428775 0.46136037 0.0 0.0025558278
0.0 -0.025889933 0.0 0.0025142317 0.5626169 0.5051934 0.0 0.4425179
0.5889719 0.0 0.5744543 0.45835945 0.0 0.0 0.0016235817 0.0022941795
0.0 -0.0013340889 0.0024495146 0.46277323 0.0 0.0 0.001698716 0.0
0.0 0.3501477 0.0 -0.0011866589 0.0 0.0 -0.0017665057 0.0
00000000: 4e42 213b 0000 0000 0000 0000 17c0 deba
00000010: c23b ba3e ac52 7cbe 0000 0000 75a2 d83e
00000020: 2f96 67b7 0000 0000 0000 0000 0000 0000
00000030: b6b9 1f3b 0000 0000 52af c2bb 5bf7 de3e
00000040: d34c 1f3b 74dd c73e 527e 14bb 78a9 133b
00000050: b6d3 0d3f f967 563d 1cb8 883d 464d fa3e
00000060: 0000 0000 0000 0000 358b 0abc 0000 0000
00000070: d607 8bbb 6d37 ec3e 0000 0000 ad7f 273b
00000080: 0000 0000 2017 d4bc 0000 0000 cfc5 243b
00000090: a907 103f 5b54 013f 0000 0000 b591 e23e
000000a0: ddc6 163f 0000 0000 700f 133f 17ae ea3e
000000b0: 0000 0000 0000 0000 5dce d43a f259 163b
000000c0: 0000 0000 98dc aeba 0988 203b 9df0 ec3e
000000d0: 0000 0000 0000 0000 73a7 de3a 0000 0000
000000e0: 0000 0000 8f46 b33e 0000 0000 aa89 9bba
000000f0: 0000 0000 0000 0000 188a e7ba 0000 0000

job_encoder.weight f4 [64, 2]
-0.3748337 0.081755 0.13165163 -0.1384671 -0.08689567 -0.19633383 0.20687161 0.11327209
0.044544738 0.27782616 0.14880039 -0.18687864 0.22895505 -0.15212813 -0.059286557 -0.16058733
0.3597463 0.024122179 -0.21287768 0.042403463 0.47887817 -0.017390354 -0.060781408 -0.08958675
-0.021573832 -0.28759274 -0.2577807 -0.080139175 0.04143552 -0.053294353 -0.14873832 0.07126123
-0.024173765 -0.07054344 -0.08382155 0.036072746 -0.20994528 -0.2705258 -0.016582847 -0.04186441
-0.27202868 0.13561302 0.5146077 -0.10427708 0.18317205 -0.15233636 -0.12606402 -0.39976758
0.031340126 0.18187685 -0.23771757 0.12653911 0.10907702 -0.1771126 -0.19729082 0.15105669
-0.1325642 -0.25928965 0.05873483 -0.23514946 -0.09160382 -0.17106739 0.067173205 0.18866478
0.04263554 0.30535954 -0.106932454 0.0443587 -0.2407547 -0.10194549 -0.05455582 0.19526727
-0.25891152 -0.02379694 -0.2257502 -0.028657498 -0.28481668 -0.105979934 -0.07475192 -0.011604037
-0.042825226 -0.022749288 0.26605785 0.0924694 -0.13159879 -0.065777324 0.1369184 0.15708332
-0.20816314 0.13762683 -0.122069314 0.1561053 0.0305942 -0.091270216 0.05986299 -0.16568552
0.24063268 0.217025 0.0037449468 0.05496465 0.047507994 -0.12629956 0.12595232 -0.10729326
0.024417697 -0.17931494 0.20367974 -0.038892236 -0.3631476 0.25869286 0.17350522 0.3898738
-0.3118601 -0.23319805 0.21897969 -0.16596271 0.25345474 0.010480157 0.22338957 -0.2046952
0.061521403 -0.012736733 0.087282114 0.25094217 -0.050091382 -0.030166572 -0.13341723 -0.24150081
00000000: 34ea bfbe 2a6f a73d afcf 063e 52ca 0dbe
00000010: 5bf6 b1bd bc0b 49be 27d6 533e 33fb e73d
00000020: 8b74 363d 3b3f 8e3e 215f 183e 1d5d 3fbe
00000030: 3173 6a3e 7ac7 1bbe 76d6 72bd 0171 24be
00000040: ab30 b83e e09b c53c 9bfc 59be 41af 2d3d
00000050: 852f f53e 3776 8ebc edf5 78bd 4279 b7bd
00000060: 9bbb b0bc 5b3f 93be d5fb 83be 0220 a4bd
00000070: 4bb8 293d 2e4b 5abd dc4e 18be 68f1 913d
00000080: 0f08 c6bc 1479 90bd a2aa abbd 04c1 133d
00000090: e5fb 56be 5c82 8abe c0d8 87bc 047a 2bbd
000000a0: 5847 8bbe 24de 0a3e 55bd 033f 398f d5bd
000000b0: 7491 3b3e 10fe 1bbe ed16 01be 56ae ccbe
000000c0: 815e 003d ed3d 3a3e 3c6c 73be 7893 013e
000000d0: c663 df3d 015d 35be 9b06 4abe 9bae 1a3e
000000e0: e9be 07be 9dc1 84be ef93 703d 05cb 70be
000000f0: c99a bbbd 4a2c 2fbe 1b92 893d 5731 413e
00000100: 9ba2 2e3d 1658 9c3e 67ff dabd 78b1 353d
00000110: 6688 76be ccc8 d0bd ec75 5fbd 25f4 473e
00000120: 0d90 84be cdf1 c2bc 0f2b 67be 21c3 eabc
00000130: 7ed3 91be 020c d9bd 8917 99bd dc1e 3ebc
00000140: 8169 2fbd b75c babc bc38 883e 9960 bd3d
00000150: d5c1 06be 43b6 86bd 5634 0c3e 73da 203e
00000160: b828 55be 0cee 0c3e 7aff f9bd 11da 1f3e
00000170: b0a0 fa3c e1eb babd e532 753d 77a9 29be
00000180: 6a68 763e cd3b 5e3e c86d 753b 9d22 613d
00000190: be97 423d ac54 01be a5f9 003e 92bc dbbd
000001a0: 9f07 c83c 569e 37be 6c91 503e 774d 1fbd
000001b0: 7bee b9be 6473 843e 5aab 313e 8a9d c73e
000001c0: 21ac 9fbe 78cb 6ebe 363c 603e 21f2 29be
000001d0: d2c4 813e f7b4 2b3c 3cc0 643e 9e9b 51be
000001e0: defd 7b3d bbad 50bc f7c0 b23d 7e7b 803e
000001f0: 9f2c 4dbd e31f f7bc 879e 08be fd4b 77be

job_encoder.bias f4 [64]
0.2265433 0.11805359 0.0 0.24344721 0.186469 0.16376734 0.22782308 0.0
0.06139811 0.0 0.24072504 0.0 0.0 0.0 0.13282038 0.1263749
0.12587976 -0.015110645 0.0 0.0 0.17287023 0.16491468 0.21432194 0.0
0.17854981 0.14823714 0.17322935 0.14459552 0.0 0.16998634 0.0 0.2762485
0.33944252 0.23190995 0.17259087 0.14840233 0.20911697 0.20234278 0.0 0.0
0.0 0.33203596 0.0 0.21083963 0.123983495 0.12538175 -0.018143676 0.14453153
0.31324947 0.21864165 0.15121141 0.11454572 0.0 0.19397834 0.20914175 0.15849984
0.0 0.18451045 0.2389105 0.22448131 0.2138627 0.25474298 0.0 0.0
00000000: f8fa 673e 15c6 f13d 0000 0000 3a4a 793e
00000010: bbf1 3e3e a0b2 273e 744a 693e 0000 0000
00000020: 967c 7b3d 0000 0000 a080 763e 0000 0000
00000030: 0000 0000 0000 0000 1102 083e 6c68 013e
00000040: a0e6 003e a492 77bc 0000 0000 0000 0000
00000050: e504 313e 65df 283e 3677 5b3e 0000 0000
00000060: c3d5 363e 7acb 173e 0963 313e d910 143e
00000070: 0000 0000 e610 2e3e 0000 0000 7270 8d3e
00000080: 69cb ad3e cd79 6d3e a9bb 303e c8f6 173e
00000090: c222 563e f232 4f3e 0000 0000 0000 0000
000000a0: 0000 0000 9e00 aa3e 0000 0000 58e6 573e
000000b0: 0feb fd3d 1364 003e 0ca2 94bc 1300 143e
000000c0: 3c62 a03e 99e3 5f3e 2ad7 1a3e f296 ea3d
000000d0: 0000 0000 42a2 463e 4129 563e c84d 223e
000000e0: 0000 0000 4ff0 3c3e f4a4 743e 6ede 653e
000000f0: d3fe 5a3e ac6d 823e 0000 0000 0000 0000

attention.in_proj_weight f4 [192, 64]
-0.01529649 -0.016630897 0.14372724 -0.07479128 -0.046629786 -0.0297018 0.08489474 -0.1342118
-0.02679765 0.11118222 0.038575348 0.10823357 -0.051857974 -0.09650713 -0.11252394 -0.08595123
-0.12641841 0.06713126 0.041149206 -0.09795271 -0.0051787985 0.042984817 0.050575115 -0.064506255
0.108350925 -0.24136281 -0.007702496 -0.1578912 0.06502416 -0.10113435 0.09945988 -0.118398875
-0.021002414 -0.026687937 -0.23950669 -0.07494342 -0.10296281 -0.021407895 0.108666405 -0.025157373
0.15006196 -0.061653808 -0.07881461 0.00063181634 -0.106385164 0.040841166 0.12199223 0.044170734
-0.12089912 -0.056943346 -0.11332412 -0.14320828 0.047334593 0.13740437 -0.06473905 0.005477404
-0.011655184 -0.10799641 -0.013681857 0.0873211 -0.0767483 0.027318718 -0.11232771 -0.041865103
-0.13449742 -0.13602796 0.04159524 -0.13152933 -0.06328874 0.071560174 0.14565988 -0.011969452
-0.09814498 -0.12570064 -0.033906978 -0.07812464 0.12169542 -0.10913532 0.08390725 0.028465103
-0.054534204 0.116277255 0.08519467 -0.0053544943 -0.2490337 -0.04886484 0.04227958 0.1326506
-0.05324017 -0.19756861 -0.265426 0.018778624 0.14942285 0.07334638 -0.085305244 0.11609382
-0.04155737 0.08183596 -0.09403891 -0.12794963 -0.048332438 -0.003848213 -0.09203465 0.1415421
0.11951603 0.13642542 -0.0013810596 -0.07678175 -0.16454625 0.043093123 -0.049394596 0.116167806
0.1321957 0.0050451388 -0.20509638 0.05587295 0.13700227 -0.037377473 -0.2223775 -0.032073155
0.02193369 -0.14968945 0.08214395 0.019306375 -0.058373816 -0.058691017 -0.07264138 0.11967232
0.19899574 0.039106645 -0.0068664076 0.0075926348 0.12046046 0.059453376 -0.106922604 0.05922104
-0.113894776 -0.0054362 -0.13608475 -0.004479109 0.0079867095 -0.092847526 0.085191324 0.14344896
-0.12998669 0.053183295 -0.1057573 -0.030428428 0.22022422 -0.036910478 0.025378082 -0.049602043
0.12142573 0.061909612 0.128558 0.094852656 0.10428355 0.057711065 0.092302784 0.0060843807
0.06591329 -0.018071987 0.1385394 0.1313789 -0.00675013 -0.03669491 0.11113174 0.058542665
-0.1445059 0.016195888 -0.15014672 -0.116995476 0.13562322 0.077251986 -0.015539273 0.11596571
0.118754104 0.10432022 -0.07405571 -0.07948213 0.009314314 0.09154876 0.1126023 -0.003084606
0.080579326 -0.07106184 -0.124863535 0.17268077 -0.028584665 0.08147368 -0.14927986 -0.058435466
0.009921884 -0.080697164 0.05156561 -0.08415032 0.21290302 -0.16731782 -0.0123547735 -0.100275435
0.03734981 -0.13124476 -0.08690012 -0.031276274 -0.06752775 0.11308965 -0.03483488 0.05285894
-0.123185515 0.036915187 0.14703102 -0.118463494 -0.24884515 0.17130354 -0.056021143 -0.04123011
0.06323991 -0.23836033 -0.21199638 -0.22171193 0.048567187 -0.33014593 -0.05137252 -0.005831095
0.09415693 0.076696016 -0.06279848 -0.066118516 -0.13978893 0.067038834 0.11481619 -0.14709209
0.039798167 0.07646777 -0.08215474 0.081703015 0.06258463 0.15359995 0.07220848 -0.12255035
-0.033744007 -0.06015093 -0.18865252 -0.024446199 0.11170927 -0.1123136 -0.12575212 0.03387344
0.012766671 0.080062486 0.038134445 -0.123380594 -0.048178405 -0.09657953 -0.13870393 0.06670555
00000000: 219e 7abc 853d 88bc 3c2d 133e 2c2c 99bd
00000010: e0fe 3ebd 3051 f3bc 4bdd ad3d d16e 09be
00000020: bf86 dbbc 81b3 e33d 2f01 1e3d 90a9 dd3d
00000030: 0769 54bd 88a5 c5bd f472 e6bd 3307 b0bd
00000040: d473 01be 1d7c 893d 128c 283d 6e9b c8bd
00000050: e9b2 a9bb d910 303d da27 4f3d db1b 84bd
00000060: 17e7 dd3d d027 77be 3865 fcbb 3bae 21be
00000070: 632b 853d 871f cfbd 9fb1 cb3d 1c7b f2bd
00000080: 410d acbc a9a0 dabc 3e41 75be f07b 99bd
00000090: 2ade d2bd 9c5f afbc 7e8c de3d d616 cebc
000000a0: d8a9 193e b488 7cbd 8e69 a1bd 7aa0 253a
000000b0: 77e0 d9bd 1149 273d 10d7 f93d 5fec 343d
000000c0: f599 f7bd 6d3d 69bd 7a16 e8bd 31a5 12be
000000d0: ebe1 413d bbb3 0c3e e895 84bd cc7b b33b
000000e0: 63f5 3ebc 392d ddbd de29 60bc 68d5 b23d
000000f0: 362e 9dbd 81cb df3c 120c e6bd be7a 2bbd
00000100: b1b9 09be ea4a 0bbe c55f 2a3d a0af 06be
00000110: 879d 81bd 248e 923d dd27 153e 851b 44bc
00000120: 3c00 c9bd abb7 00be 0be2 0abd d0ff 9fbd
00000130: 733b f93d 5782 dfbd 90d7 ab3d a62f e93c
00000140: 425f 5fbd c522 ee3d 8b7a ae3d c174 afbb
00000150: b102 7fbe 8026 48bd 5a2d 2d3d 8fd5 073e
00000160: 5d12 5abd 6d4f 4abe ebe5 87be a1d5 993c
00000170: 4e02 193e a036 963d 84b4 aebd 99c2 ed3d
00000180: 1038 2abd 9d99 a73d 7997 c0bd 3a05 03be
00000190: 3cf8 45bd 4d32 7cbb aa7c bcbd 6af0 103e
000001a0: d2c4 f43d 1bb3 0b3e ac04 b5ba c03f 9dbd
000001b0: d07e 28be 6a82 303d fd51 4abd 63e9 ed3d
000001c0: 4f5e 073e b151 a53b c904 52be 09db 643d
000001d0: 534a 0c3e 1f19 19bd edb6 63be 245f 03bd
000001e0: 48ae b33c 3148 19be 163b a83d 6728 9e3c
000001f0: 6219 6fbd fe65 70bd 01c5 94bd c316 f53d
00000200: 8ac5 4b3e 4a2e 203d 9aff e0bb a3cb f83b
00000210: f9b3 f63d 6285 733d 3dfa dabd c391 723d
00000220: aa41 e9bd 2722 b2bb cd59 0bbe 7dc5 92bb
00000230: b0da 023c d826 bebd ca78 ae3d 49e4 123e
00000240: 3b1b 05be bad6 593d 4997 d8bd 0a45 f9bc
00000250: 7582 613e 712f 17bd b2e5 cf3c 832b 4bbd
00000260: 0eae f83d ef94 7d3d b5a4 033e 1c42 c23d
00000270: 9d92 d53d 7062 6c3d 3e09 bd3d 7c5f c73b
00000280: 8cfd 863d b40b 94bc 46dd 0d3e 3188 063e
00000290: 3230 ddbb 674d 16bd 0a99 e33d 6fca 6f3d
000002a0: 5bf9 13be 3dad 843c 10c0 19be 539b efbd
000002b0: d0e0 0a3e 4a36 9e3d 6f98 7ebc 6e7f ed3d
000002c0: 5a35 f33d d7a5 d53d 85aa 97bd 87c7 a2bd
000002d0: 119b 183c eb7d bb3d 099c e63d 1a27 4abb
000002e0: c606 a53d df88 91bd 74b8 ffbd 3ad3 303e
000002f0: 632a eabc acdb a63d d2dc 18be 075a 6fbd
00000300: 668f 223c 8e44 a5bd 7636 533d 0157 acbd
00000310: 4003 5a3e 5d55 2bbe ad6b 4abc 355d cdbd
00000320: 1dfc 183d 0765 06be b1f8 b1bd 8d1b 00bd
00000330: fd4b 8abd 8c9b e73d 05af 0ebd 9e82 583d
00000340: b048 fcbd 6134 173d 4d8f 163e fd9c f2bd
00000350: 43d1 7ebe 326a 2f3e 6d76 65bd e7e0 28bd
00000360: ed83 813d bb14 74be 9415 59be 7408 63be
00000370: 63ee 463d e308 a9be fe6b 52bd c512 bfbb
00000380: 59d5 c03d cd12 9d3d 7d9c 80bd 2569 87bd
00000390: d424 0fbe a84b 893d c024 eb3d 4f9f 16be
000003a0: 6703 233d 229b 9c3d bf40 a8bd e953 a73d
000003b0: 5f2c 803d 4e49 1d3e 0ae2 933d aefb fabd
000003c0: 2837 0abd d260 76bd 202e 41be 6543 c8bc
000003d0: d4c7 e43d ac04 e6bd 2ac5 00be e0be 0a3d
000003e0: 4d2b 513c cdf7 a33d dd32 1c3d f7ae fcbd
000003f0: b856 45bd 7dcb c5bd 6708 0ebe eb9c 883d

attention.in_proj_bias f4 [192]
-0.045174856 -0.046076164 0.029330777 -0.079196796 0.023553086 -0.09621761 0.03691267 0.06176601
0.012588247 0.025377845 -0.045710027 0.03956635 -0.0026811813 0.022694446 -0.0012226771 0.05749565
0.017822027 0.040382907 0.00868326 -0.054709822 -0.062485017 0.052282684 -0.047024302 0.11104642
-0.053264413 -0.038510315 -0.07586409 -0.019459976 -0.04655725 0.053798843 0.074957736 -0.027561542
-0.09347081 0.05358647 0.04285163 0.05921176 0.02363251 0.02198442 -0.03761532 0.052939255
0.07409603 -0.055744138 -0.10771347 -0.036994718 0.045405325 0.019546228 0.027615195 -0.060248118
0.07343619 0.21081166 -0.286198 -0.24390395 0.049100734 -0.16004108 0.28407484 0.2264316
-0.20859227 -0.09507114 0.25517112 0.17708091 -0.2157895 0.24200934 0.1073574 -0.23095936
-0.000109180895 -0.00023815142 0.00027992736 0.0009423464 -0.00011981217 0.0006463204 -0.00017222657 -0.0006769905
-0.00021467838 0.00034416612 0.00015765907 0.00018281829 -0.000249552 6.686733e-05 5.703508e-05 -0.00011079913
-0.0003108383 0.00027205312 0.00048577407 -0.00020780732 -8.788596e-05 0.0002973639 -2.5662172e-05 -2.3125358e-05
-0.00034704022 0.00018235511 7.695216e-05 -0.00024350746 -0.00025169208 0.00028902417 9.2304865e-05 -0.00014806015
0.0007722223 -0.0015373352 -0.0007407217 0.0020568627 -0.0003781812 -0.000776489 0.0012836724 -0.0008778294
0.00080033904 0.0018499292 -0.0020016297 0.0014604423 -0.0010972962 0.00012806423 -0.001168548 0.0010114403
0.00045326867 0.00078624004 0.00010364722 -0.00048167165 -0.000100242876 7.706559e-05 0.000274074 0.00013023065
-0.00056949834 -0.0003400866 -0.00030614572 0.0008087395 -0.0007140558 0.00058974815 0.0010522748 -0.00063607935
-0.009565678 0.006271609 -0.004598032 -0.013926896 -0.009628016 0.006387553 0.0029248302 0.004292321
0.0061606416 0.016437706 -0.006407322 0.029150601 0.0005490073 -0.01644092 0.0005633212 -0.0018050947
0.022494106 0.0166869 -0.078380994 0.008949329 0.011726793 0.006759776 0.0009421183 0.00501595
0.0031537048 0.002171591 0.003512111 0.012529476 -0.0029211175 0.0006069607 0.0012675972 -0.0170991
0.0028680223 0.0021939997 -0.015234842 -0.008217933 -0.012963658 -0.003900221 -0.007331436 0.016445495
0.0034229232 0.005692008 -0.007072843 0.008350038 -0.014472794 0.0062703104 -0.007108018 -0.0006786748
-0.0042666267 -0.07920045 -0.0035539155 -0.018978946 -0.005873483 -0.00870953 -0.008034733 -0.005141937
-0.016796194 0.028028745 -0.0023628855 0.0017965983 -0.01223741 -0.044872813 -0.013993916 -0.008445378
00000000: 4509 39bd 5cba 3cbd 1947 f03c ee31 a2bd
00000010: 67f2 c03c bd0d c5bd bd31 173d 5bfe 7c3d
00000020: ef3e 4e3c 33e5 cf3c 703a 3bbd 5310 223d
00000030: c2b6 2fbb b4e9 b93c 3c42 a0ba 8f80 6b3d
00000040: 80ff 913c 8c68 253d 3b44 0e3c 6817 60bd
00000050: 4af0 7fbd 5e26 563d 8e9c 40bd 4e6c e33d
00000060: c92b 5abd febc 1dbd a25e 9bbd 876a 9fbc
00000070: d1b2 3ebd 2d5c 5c3d 7183 993d bec8 e1bc
00000080: a06d bfbd 7d7d 5b3d 3185 2f3d 0888 723d
00000090: f798 c13c ac18 b43c 8612 1abd d5d6 583d
000000a0: a9bf 973d f753 64bd e198 dcbd c687 17bd
000000b0: effa 393d 691f a03c 4339 e23c bbc6 76bd
000000c0: b765 963d 03df 573e 8b88 92be f5c1 79be
000000d0: da1d 493d cfe1 23be 4272 913e afdd 673e
000000e0: 3699 55be a8b4 c2bd caa5 823e b354 353e
000000f0: ecf7 5cbe 4cd1 773e 32de db3d 9c80 6cbe
00000100: 0cf8 e4b8 49b8 79b9 37c3 9239 cc07 773a
00000110: ab43 fbb8 d46d 293a b897 34b9 1078 31ba
00000120: 4a1b 61b9 3271 b439 4951 2539 e9b2 3f39
00000130: 4dd6 82b9 203b 8c38 f338 6f38 d45c e8b8
00000140: 03f8 a2b9 5aa2 8e39 7eaf fe39 dae6 59b9
00000150: 6a4f b8b8 82e7 9b39 1845 d7b7 54fd c1b7
00000160: f3f2 b5b9 9436 3f39 6061 a138 0956 7fb9
00000170: 8af5 83b9 2b88 9739 cc93 c138 9840 1bb9
00000180: f66e 4a3a 6980 c9ba fe2c 42ba 6ecc 063b
00000190: 9f46 c6b9 4b8d 4bba e640 a83a 221e 66ba
000001a0: d8cd 513a 5379 f23a c62d 03bb 506c bf3a
000001b0: 27d3 8fba fb48 0639 f729 99ba 4e92 843a
000001c0: b1a4 ed39 ad1b 4e3a 2d5d d938 e088 fcb9
000001d0: 7c39 d2b8 469e a138 97b1 8f39 868e 0839
000001e0: 634a 15ba a74d b2b9 2f82 a0b9 9701 543a
000001f0: 792f 3bba 5499 1a3a 7cec 893a 90be 26ba
00000200: 5db9 1cbc 1282 cd3b 17ab 96bb a32d 64bc
00000210: d3be 1dbc ae4e d13b 82ae 3f3b 99a6 8c3b
00000220: 35df c93b 5ea8 863c 83f4 d1bb 3ecd ee3c
00000230: 42eb 0f3a 1caf 86bc d9ab 133a ed98 ecba
00000240: 8f45 b83c f7b2 883c 3786 a0bd 35a0 123c
00000250: bc21 403c 1c81 dd3b 7df8 763a d75c a43b
00000260: 63ae 4e3b 4051 0e3b 722b 663b 6e48 4d3c
00000270: 3870 3fbb 711c 1f3a 8125 a63a 6913 8cbc
00000280: 6ef5 3b3b 35c9 0f3b 8f9b 79bc 82a4 06bc
00000290: 8665 54bc da9a 7fbb 8b3c f0bb b4b8 863c
000002a0: 1f53 603b 0684 ba3b 4fc3 e7bb 99ce 083c
000002b0: 4c1f 6dbc 2d77 cd3b 60ea e8bb 18e9 31ba
000002c0: 0fcf 8bbb d833 a2bd cfe8 68bb bc79 9bbc
000002d0: 5976 c0bb 6bb2 0ebc 1da4 03bc b27d a8bb
000002e0: 2c98 89bc 8a9c e53c a4da 1abb d67b eb3a
000002f0: 6b7f 48bc 8ecc 37bd bd46 65bc 7c5e 0abc

attention.out_proj.weight f4 [64, 64]
0.053884923 0.24538395 -0.08262604 0.081846185 -0.13818666 0.24806209 -0.13040923 -0.20524581
0.21617356 0.3735161 0.08118236 0.35488853 0.13913396 0.33625305 0.28613985 0.035127338
0.0054663867 0.2368454 -0.62456 0.090891324 0.15736052 0.023975402 -0.07867183 -0.14419389
-0.025742402 0.25199527 -0.50574505 0.07414798 0.06588823 -0.16592114 0.60412 -0.1526639
0.25623566 -0.03857228 -0.054531198 -0.2558859 -0.13680792 -0.23403396 0.16003917 0.06677548
-0.37469003 0.22945265 0.053230416 0.26031157 -0.29865664 0.16262388 0.10340687 0.156116
0.25608167 -0.4111909 0.18603444 0.1564495 -0.03195766 -0.10158547 -0.13728505 0.10923335
0.1280127 0.4196033 0.10466816 0.24512899 -0.099732295 -0.09197427 0.028815225 0.01770129
0.23195434 0.06335922 -0.212503 -0.26473993 -0.24627519 -0.052086987 0.07704108 -0.14072858
0.20479636 0.21299939 -0.22942728 0.6436691 0.1941781 -0.1936547 0.107075684 -0.09611599
-0.45657036 -0.050837487 -0.2103008 0.10750275 0.4479241 -0.47730365 -0.08326462 -0.2577596
-0.22695655 0.030504333 0.084160514 0.011386811 -0.026130471 -0.11461912 0.006592827 -0.10777699
-0.06603891 0.16229007 0.04559706 -0.2160234 -0.150556 -0.077680826 -0.08764965 0.17265975
-0.17774525 0.14603393 0.10514736 0.092721 0.023643212 0.08677282 -0.017481806 0.2142367
0.056984443 -0.4152232 -0.3509985 0.3317028 0.042486347 0.060481586 -0.38079447 -0.10529379
-0.38671657 0.40825313 0.045473233 -0.20121127 -0.012784431 -0.17878774 0.04157173 0.2376738
0.061303418 0.25054517 0.04386704 0.20740674 0.16051659 -0.37982157 -0.06422108 0.18406874
-0.5088885 -0.17718199 -0.42695594 -0.29434538 -0.113275565 -0.2807917 0.09714719 0.068453796
0.43384826 -0.12975647 0.45365143 -0.040529784 -0.16938098 0.12394577 0.2325476 0.23000377
-0.1141595 -0.21362385 0.08027202 -0.19333997 0.28431785 -0.20668744 -0.17838241 0.24832653
0.124164216 0.23706998 -0.021227727 -0.12235128 0.13501258 -0.062465727 0.01913547 -0.13299781
0.08541875 -0.30267122 -0.22736561 -0.060159672 -0.13737522 0.19457147 0.0842504 0.013550649
0.46588403 0.42213938 -0.22308716 0.064190336 0.053197935 -0.28305566 0.16381821 -0.5184578
0.21425201 -0.28332344 -0.1629862 0.12067502 0.20605668 0.26751465 0.09680646 -0.08082989
0.083596595 -0.066470474 -0.01385371 0.011071899 0.3572795 -0.24109384 0.2939217 0.18904446
0.036416404 0.2527453 0.068889804 -0.3450019 0.19778189 -0.12664905 -0.14550343 0.29280353
0.3193546 0.31996262 0.55417067 -0.29071704 0.058411807 0.08114423 0.15728 0.014624226
0.13157427 0.034771856 0.172745 -0.07987485 -0.12573591 -0.17397614 0.061091248 -0.18291873
-0.41583037 0.0011201362 -0.12399966 -0.004137465 0.33663335 0.54875666 -0.0040041995 0.0069547077
0.3365257 -0.1684685 0.11117031 -0.16267265 -0.020113103 0.003010276 0.22360143 -0.10998294
0.35058305 0.43084323 -0.21255705 -0.16348809 0.16763474 -0.039537955 0.3671181 -0.26593205
0.31655157 -0.50678265 0.3739401 -0.09038209 0.31053126 0.2838348 0.14208238 -0.19877274
00000000: 70b6 5c3d ee45 7b3e d737 a9bd f99e a73d
00000010: ce80 0dbe fd03 7e3e ff89 05be f52b 52be
00000020: 9a5c 5d3e 813d bf3e f042 a63d f3b3 b53e
00000030: 2279 0e3e 5c29 ac3e ec80 923e afe1 0f3d
00000040: 601f b33b 9a87 723e 2ae3 1fbf 3b25 ba3d
00000050: 1e23 213e 1068 c43c b21e a1bd 90a7 13be
00000060: bbe1 d2bc 8605 813e 8278 01bf e5da 973d
00000070: 69f0 863d 3be7 29be 9ca7 1a3f ed53 1cbe
00000080: 5231 833e f8fd 1dbd 1b5c 5fbd 7a03 83be
00000090: 6017 0cbe 99a6 6fbe 4fe1 233e 95c1 883d
000000a0: 5fd7 bfbe a3f5 6a3e 2308 5a3d 8f47 853e
000000b0: 86e9 98be e086 263e fbc6 d33d dfdc 1f3e
000000c0: 231d 833e 9d87 d2be d07f 3e3e 4c34 203e
000000d0: 09e6 02bd 0b0c d0bd 7494 0cbe bcb5 df3d
000000e0: c315 033e 3ed6 d63e 435c d63d 1803 7b3e
000000f0: 7240 ccbd 025d bcbd e80d ec3c 4c02 913c
00000100: 7085 6d3e 7bc2 813d 639a 59be fe8b 87be
00000110: 902f 7cbe 2a59 55bd b7c7 9d3d 271b 10be
00000120: 23b6 513e 831c 5a3e fcee 6abe 80c7 243f
00000130: a0d6 463e 6b4d 46be 7f4a db3d 76d8 c4bd
00000140: 97c3 e9be f83a 50bd 1859 57be 672a dc3d
00000150: 4f56 e53e 2561 f4be a486 aabd 11f9 83be
00000160: 4c67 68be 39e4 f93c 595c ac3d bf8f 3a3c
00000170: 920f d6bc 6ebd eabd a408 d83b 2fba dcbd
00000180: 683f 87bd 5e2f 263e fcc3 3a3d 3d35 5dbe
00000190: 5a2b 1abe 2017 9fbd a981 b3bd b8cd 303e
000001a0: da02 36be eb89 153e 8057 d73d 82e4 bd3d
000001b0: 69af c13c f3b5 b13d 0136 8fbc de60 5b3e
000001c0: 8568 693d 2398 d4be 13b6 b3be f3d4 a93e
000001d0: 2a06 2e3d 8abb 773d 7ef7 c2be 45a4 d7bd
000001e0: b7ff c5be 8e06 d13e 2442 3a3d 540a 4ebe
000001f0: ca75 51bc 2214 37be 1e47 2a3d c360 733e
00000200: 4b19 7b3d 7547 803e edad 333d 6f62 543e
00000210: 765e 243e f977 c2be 5786 83bd 847c 3c3e
00000220: 8446 02bf 326f 35be f899 dabe 70b4 96be
00000230: 05fd e7bd eec3 8fbe 1bf5 c63d 8131 8c3d
00000240: 5c21 de3e e1de 04be 0045 e83e 8f02 26bd
00000250: 3572 2dbe 48d7 fd3d f520 6e3e 1c86 6b3e
00000260: 75cc e9bd 36c0 5abe a865 a43d eafa 45be
00000270: 1c92 913e dfa5 53be e1a9 36be 4f49 7e3e
00000280: cf49 fe3d 79c2 723e c5e5 adbc 4f93 fabd
00000290: bd40 0a3e 10dc 7fbd fdc1 9c3c 9430 08be
000002a0: 07f0 ae3d b9f7 9abe 88d2 68be fd69 76bd
000002b0: 17ac 0cbe be3d 473e 798b ac3d 8b03 5e3c
000002c0: 5a88 ee3e a722 d83e f670 64be 3976 833d
000002d0: 14e6 593d acec 90be f6bf 273e a6b9 04bf
000002e0: e164 5b3e c50f 91be dbe5 26be 7724 f73d
000002f0: 8600 533e aef7 883e 7742 c63d 248a a5bd
00000300: b134 ab3d ac21 88bd acfa 62bc e966 353c
00000310: 57ed b63e 4ee1 76be e87c 963e df94 413e
00000320: 5e29 153d d567 813e 1916 8d3d 17a4 b0be
00000330: 5687 4a3e 4ab0 01be dafe 14be 58ea 953e
00000340: 7282 a33e 24d2 a33e 21de 0d3f ddd8 94be
00000350: 3841 6f3d f22e a63d 020e 213e 739a 6f3c
00000360: 68bb 063e ef6c 0e3d 11e4 303e 6d95 a3bd
00000370: eac0 00be cd26 32be d13a 7a3d 0c4f 3bbe
00000380: b8e7 d4be 89d1 923a 89f3 fdbd 9293 87bb
00000390: 355b ac3e 517b 0c3f a935 83bb 51e4 e33b
000003a0: 194d ac3e 0283 2cbe 42ad e33d a993 26be
000003b0: 3cc4 a4bc 0d48 453b c6f7 643e bc3e e1bd
000003c0: 9f7f b33e 7c97 dc3e 8ea8 59be 6c69 27be
000003d0: 71a8 2b3e 8df2 21bd e7f6 bb3e 3f28 88be
000003e0: 0c13 a23e 82bc 01bf 1475 bf3e 3f1a b9bd
000003f0: f4fd 9e3e cb52 913e 0b7e 113e 158b 4bbe

attention.out_proj.bias f4 [64]
0.016247502 0.017506307 -0.017555552 -0.017499141 -0.0075021097 0.0137546295 -0.004169045 0.0128290355
-0.017986244 0.017327257 0.00841832 0.017255103 -0.017099783 -0.017779062 0.018553182 -0.01664234
0.016531086 -0.016753847 0.015329702 0.0147302495 0.01756172 0.007989246 0.012961103 0.01783699
-0.022293277 0.018115936 -0.0114207035 -0.016428318 -0.017302247 0.012227082 0.014199947 -0.01577038
0.0041095465 0.077535376 -0.01691069 -0.01671709 0.017634379 -0.0155801205 0.014120762 -0.024595048
0.017697513 0.016095905 -0.014482138 -0.016063537 0.012801698 0.012155596 0.016943812 0.016878547
-0.024886483 -0.017336814 -0.017247373 0.019615103 -0.016898107 -0.016058287 -0.011330785 0.009994266
-0.0023726542 -0.01626311 0.01775251 0.011875051 -0.011962422 -0.015033882 0.017976338 -0.016474945
00000000: 7b19 853c 6369 8f3c a9d0 8fbc 5c5a 8fbc
00000010: 42d4 f5bb 195b 613c 7c9c 88bb e030 523c
00000020: e357 93bc e4f1 8d3c feec 093c 935a 8d3c
00000030: d814 8cbc 65a5 91bc d8fc 973c 8455 88bc
00000040: 336c 873c 5d3f 89bc 6e29 7b3c 2557 713c
00000050: 99dd 8f3c 54e5 023c ce5a 543c e11e 923c
00000060: 64a0 b6bc df67 943c e71d 3bbc ae94 86bc
00000070: 71bd 8dbc 1954 483c e5a6 683c e230 81bc
00000080: 60a9 863b deca 9e3d 4a88 8abc 47f2 88bc
00000090: f975 903c c343 7fbc c55a 673c 8e7b c9bc
000000a0: 60fa 903c 8fdb 833c 7d46 6dbc ae97 83bc
000000b0: 37be 513c 4428 473c c0cd 8a3c e144 8a3c
000000c0: bdde cbbc ef05 8ebc 5d4a 8dbc daaf a03c
000000d0: e66d 8abc ab8c 83bc c2a4 39bc fdbe 233c
000000e0: 887e 1bbb 373a 85bc b66d 913c 938f 423c
000000f0: 09fe 43bc ac50 76bc 1d43 933c 77f6 86bc

priority_head.weight f4 [1, 64]
-0.5877063 0.14114258 0.039754014 0.018892575 0.61941487 -0.6331771 0.023472263 0.49256253
0.049120992 -0.05332741 -0.11188383 0.048728783 -0.7570314 0.08651746 -0.7171627 2.05791
-0.7628655 0.56914014 -0.6502023 -0.72261363 1.4928224 -0.19694208 -0.15730755 0.68995446
0.1532921 0.29811284 -0.85287505 -0.11732726 0.08475904 1.4229971 0.11915765 -0.848876
0.029901661 -0.47484037 0.09920181 -0.7427129 1.2061315 1.1431388 0.012163329 1.6148393
1.5182519 0.037734993 1.4113041 0.60796326 0.045029346 0.08439107 -0.5563224 -0.75042254
0.0010274837 -0.0029142797 -0.500528 0.64770806 0.019591682 0.018639773 -0.8507547 0.24582957
0.15165095 0.37036204 -0.15058172 -0.65183496 0.14704522 -0.27353454 0.04537944 -0.010781552
00000000: ec73 16bf ae87 103e 1bd5 223d 9ac4 9a3c
00000010: f991 1e3f e517 22bf e748 c03c 2831 fc3e
00000020: 1833 493d d86d 5abd 5923 e5bd d597 473d
00000030: cfcc 41bf 1130 b13d fa97 37bf ccb4 0340
00000040: 274b 43bf 2bb3 113f a873 26bf 35fd 38bf
00000050: ce14 bf3f 2fab 49be 3b15 21be dba0 303f
00000060: 9bf8 1c3e 3fa2 983e 0556 5abf 4649 f0bd
00000070: 2696 ad3d c524 b63f ed08 f43d f04f 59bf
00000080: 54f4 f43c 471e f3be 522a cb3d 6f22 3ebf
00000090: 8462 9a3f 5f52 923f b348 473c 0eb3 ce3f
000000a0: 1456 c23f 0290 1a3d 9da5 b43f 7ba3 1b3f
000000b0: b170 383d 3ad5 ac3d 256b 0ebf b11b 40bf
000000c0: a2ac 863a 80fd 3ebb 9a22 00bf 32d0 253f
000000d0: bc7e a03c 70b2 983c 0fcb 59bf bfba 7b3e
000000e0: 634a 1b3e 18a0 bd3e 1832 1abe a8de 26bf
000000f0: 0693 163e b80c 8cbe cbdf 393d 1ba5 30bc

value_head.weight f4 [1, 64]
-0.23466028 -0.36594868 0.35995468 0.39163262 0.13142145 -0.19759072 0.1384937 -0.1856969
0.16024072 -0.4322314 -0.12436038 -0.30556566 0.2884419 0.41703406 -0.2769621 0.3032803
-0.2356609 -0.09551163 -0.21056141 -0.19939053 -0.40279502 -0.13994943 -0.1932731 -0.3439068
0.1603969 -0.32284227 0.17028548 -0.09482523 0.31190065 -0.15571865 -0.2049542 0.21121004
-0.10922087 -0.14011362 0.21976247 0.29633975 -0.36623752 0.2556791 -0.19191277 0.11957384
-0.4194713 -0.20468795 0.18775412 0.2094845 -0.12697345 -0.17358217 -0.2856097 -0.123399064
0.1645219 0.3949519 0.37987602 -0.12625208 0.33147246 0.24891716 0.17617257 0.11254621
0.10447359 0.29774317 -0.45786142 -0.17706189 0.16478609 0.20828053 -0.6577592 0.2491653
00000000: c94a 70be a05d bbbe fb4b b83e 1284 c83e
00000010: 5893 063e 3955 4abe 4bd1 0d3e 5427 3ebe
00000020: 2516 243e 6f4d ddbe a8b0 febd 1a73 9cbe
00000030: a8ae 933e 7d85 d53e facd 8dbe 8e47 9b3e
00000040: 1751 71be 9a9b c3bd 699d 57be 082d 4cbe
00000050: 263b cebe e74e 0fbe 62e9 45be 8d14 b0be
00000060: 163f 243e 954b a5be 515f 2e3e bb33 c2bd
00000070: 71b1 9f3e b674 1fbe 84df 51be 7247 583e
00000080: 31af dfbd f279 0fbe 6a09 613e d8b9 973e
00000090: 7c83 bbbe 5fe8 823e c884 44be 21e3 f43d
000000a0: f1c4 d6be b899 51be 9e42 403e 1b83 563e
000000b0: 5405 02be 86bf 31be 6f3b 92be a6b8 fcbd
000000c0: 6e78 283e 2337 ca3e 1c7f c23e 3a48 01be
000000d0: c2b6 a93e 24e4 7e3e 9566 343e a17e e63d
000000e0: 40f6 d53d cb71 983e d06c eabe b64f 35be
000000f0: afbd 283e 7e47 553e e862 28bf 3025 7f3e

exp_avg f4 [30]
-0.011397106 -0.01347857 -0.010382023 -0.011396913 -0.015872523 -0.016980508 -0.008220451 -0.00992524
-0.013238685 -0.017624887 -0.016999798 -0.014611651 -0.008479655 -0.012730809 -0.015143714 -0.016239898
-0.014870456 -0.0075171487 -0.014332053 -0.012555493 -0.0102858925 -0.007672845 -0.0032948256 -0.006083082
-0.0035069974 -0.007495327 -0.011786472 -0.008120917 -0.007880462 -0.003693471
00000000: edba 3abc 38d5 5cbc 5c19 2abc 1eba 3abc
00000010: 1807 82bc b51a 8bbc 12af 06bc 799d 22bc
00000020: 12e7 58bc 1162 90bc 2943 8bbc b565 6fbc
00000030: 40ee 0abc e294 50bc 571d 78bc 8909 85bc
00000040: 37a3 73bc 6a52 f6bb fdd0 6abc 8eb5 4dbc
00000050: 2986 28bc 7d6c fbbb 00ee 57bb 9754 c7bb
00000060: a7d5 65bb 5c9b f5bb 0c1c 41bc 980d 05bc
00000070: 0e1d 01bc 290e 72bb

exp_avg_sq f4 [30]
0.0003942625 0.0003521357 0.0003655228 0.00035063332 0.00036637328 0.00039903473 0.00033495016 0.00044693082
0.00037233366 0.00033830432 0.0003681635 0.00038767766 0.00042611916 0.00036270983 0.0004202854 0.00040007077
0.00038587843 0.0003162892 0.0003544938 0.0003521913 0.00036267098 0.00030742108 0.0003666586 0.00031723996
0.0003210146 0.00032933152 0.00038527057 0.0003799502 0.0003571777 0.0003294119
00000000: 04b5 ce39 db9e b839 a4a3 bf39 35d5 b739
00000010: ca15 c039 8935 d139 409c af39 0a52 ea39
00000020: c735 c339 705e b139 1206 c139 3741 cb39
00000030: bf68 df39 172a be39 c059 dc39 97c0 d139
00000040: ba4f ca39 9ed3 a539 5adb b939 51a6 b839
00000050: e024 be39 5c2d a139 163c c039 3a53 a639
00000060: da4d a839 21aa ac39 24fe c939 0d34 c739
00000070: 9443 bb39 ebb4 ac39

exp_avg f4 [64, 2]
0.0041491184 -0.0005379915 0.0 0.0 0.0 0.0 6e-45 6e-45
-0.0050597196 0.00010160438 0.0050517363 -0.00044371124 0.0 0.0 -0.004626364 -0.00011907797
0.027684873 0.0046316013 0.0 0.0 0.0 0.0 0.0 0.0
0.0055822367 -0.000639114 0.0 0.0 0.0053246995 -0.00059314765 -0.036494475 -0.0017151305
0.005310353 -0.000715279 -0.0046532303 0.00024999955 0.004869311 -0.00045100471 0.004920251 -0.0007421814
-0.011834477 0.0009133356 0.0031383398 0.00019115367 0.0010623017 4.8458725e-05 -0.0056106793 0.0005066701
0.0 0.0 0.0 0.0 0.0063739237 -0.0005854336 0.0 0.0
6e-45 6e-45 -0.0112230005 0.00065164384 0.0 0.0 0.006250456 -0.000708557
0.0 0.0 0.0031710565 -0.00037549227 0.0 0.0 0.005984827 -0.00042393527
-0.009422486 0.0007492634 -0.0094571 0.00073226006 0.0 0.0 -0.02396944 -0.00017995
-0.011883086 0.00096453895 0.0 0.0 -0.010628561 0.00097384263 -0.0049701445 0.00013776192
0.0 0.0 0.0 0.0 0.0038878273 -0.0005139317 0.0055205883 -0.00055596104
0.0 0.0 -6e-45 -6e-45 0.0039161197 -0.00026485513 -0.005357682 0.00014726567
0.0 0.0 0.0 0.0 0.0060639796 -0.00077466917 0.0 0.0
0.0 0.0 -0.0033313187 6.2232e-05 0.0 0.0 0.004905257 -0.00040484092
0.0 0.0 0.0 0.0 6e-45 6e-45 0.0 0.0
00000000: 54f5 873b 0008 0dba 0000 0000 0000 0000
00000010: 0000 0000 0000 0000 0400 0000 0400 0000
00000020: 01cc a5bb 7014 d538 0989 a53b eaa1 e8b9
00000030: 0000 0000 0000 0000 c198 97bb 80b9 f9b8
00000040: 63cb e23c b0c4 973b 0000 0000 0000 0000
00000050: 0000 0000 0000 0000 0000 0000 0000 0000
00000060: 32eb b63b 378a 27ba 0000 0000 0000 0000
00000070: d17a ae3b 777d 1bba 3b7b 15bd 3bce e0ba
00000080: 7802 ae3b 9081 3bba 207a 98bb 5f12 8339
00000090: be8e 9f3b d474 ecb9 0f3a a13b f38e 42ba
000000a0: 65e5 41bc ea6c 6f3a 9bac 4d3b 6c70 4839
000000b0: ee3c 8b3a 2940 4b38 cad9 b7bb 0ed2 043a
000000c0: 0000 0000 0000 0000 0000 0000 0000 0000
000000d0: 59dc d03b c977 19ba 0000 0000 0000 0000
000000e0: 0400 0000 0400 0000 ade0 37bc 14d3 2a3a
000000f0: 0000 0000 0000 0000 a0d0 cc3b 75be 39ba
00000100: 0000 0000 0000 0000 80d1 4f3b b8dd c4b9
00000110: 0000 0000 0000 0000 5e1c c43b a143 deb9
00000120: c560 1abc 376a 443a f4f1 1abc 24f5 3f3a
00000130: 0000 0000 0000 0000 8f5b c4bc f6b0 3cb9
00000140: 46b1 42bc 1dd9 7c3a 0000 0000 0000 0000
00000150: 6a23 2ebc 7949 7f3a 98dc a2bb 2f74 1039
00000160: 0000 0000 0000 0000 0000 0000 0000 0000
00000170: ebca 7e3b 5fb9 06ba 0de6 b43b eabd 11ba
00000180: 0000 0000 0000 0000 0400 0080 0400 0080
00000190: cb52 803b 41dc 8ab9 7e8f afbb 546b 1a39
000001a0: 0000 0000 0000 0000 0000 0000 0000 0000
000001b0: 59b4 c63b 2b13 4bba 0000 0000 0000 0000
000001c0: 0000 0000 0000 0000 4152 5abb 8d82 8238
000001d0: 0000 0000 0000 0000 47bc a03b d440 d4b9
000001e0: 0000 0000 0000 0000 0000 0000 0000 0000
000001f0: 0400 0000 0400 0000 0000 0000 0000 0000

exp_avg_sq f4 [64, 2]
0.00062625564 4.0967676e-05 0.0 0.0 0.0 0.0 7e-43 7e-43
0.0007180963 5.272315e-05 0.0011861946 8.281458e-05 0.0 0.0 0.00041141256 2.9754065e-05
0.00854074 0.00091647636 0.0 0.0 0.0 0.0 0.0 0.0
0.00093565346 6.088828e-05 0.0 0.0 0.0008058126 5.2553598e-05 0.009156659 0.0006563122
0.0010802498 7.083724e-05 0.00050943607 3.3812565e-05 0.0006667321 4.339909e-05 0.001136139 7.587165e-05
0.003899399 0.00025340603 0.0069253244 0.00050338684 0.0062289443 0.00043889237 0.00095626217 6.434883e-05
0.0 0.0 0.0 0.0 0.0011398061 7.436932e-05 0.0 0.0
7e-43 7e-43 0.0038882263 0.00027388916 0.0 0.0 0.0011764631 7.657304e-05
0.0 0.0 0.00035964893 2.3859362e-05 0.0 0.0 0.000913982 5.9101698e-05
0.002292726 0.00015151041 0.0021617562 0.00014321474 0.0 0.0 0.007933366 0.0005693761
0.003598521 0.00023547046 0.0 0.0 0.0032929056 0.00021327524 0.00063664233 4.528295e-05
0.0 0.0 0.0 0.0 0.0013709049 9.418234e-05 0.0011720909 7.6009266e-05
0.0 0.0 4.156506e-29 1.5106855e-28 0.00045498103 2.9026934e-05 0.0006943656 4.8463215e-05
0.0 0.0 0.0 0.0 0.0029430438 0.00020284025 0.0 0.0
0.0 0.0 0.00041781444 3.072024e-05 0.0 0.0 0.0006707169 4.3603664e-05
0.0 0.0 0.0 0.0 7e-43 7e-43 0.0 0.0
00000000: 4e2b 243a b5d4 2b38 0000 0000 0000 0000
00000010: 0000 0000 0000 0000 f401 0000 f401 0000
00000020: a03e 3c3a 0d23 5d38 167a 9b3a bdac ad38
00000030: 0000 0000 0000 0000 dcb2 d739 5e98 f937
00000040: 76ee 0b3c b03f 703a 0000 0000 0000 0000
00000050: 0000 0000 0000 0000 0000 0000 0000 0000
00000060: a446 753a 4b62 7f38 0000 0000 0000 0000
00000070: 2b3d 533a ff6c 5c38 d005 163c 5e0c 2c3a
00000080: 2b97 8d3a 748e 9438 ad8b 053a f7d1 0d38
00000090: a2c7 2e3a 6b07 3638 80ea 943a 481d 9f38
000000a0: 0f8d 7f3b 95db 8439 d5ed e23b b8f5 033a
000000b0: 2c1c cc3b 231b e639 abad 7a3a 04f3 8638
000000c0: 0000 0000 0000 0000 0000 0000 0000 0000
000000d0: 8c65 953a baf6 9b38 0000 0000 0000 0000
000000e0: f401 0000 f401 0000 9dd1 7e3b c898 8f39
000000f0: 0000 0000 0000 0000 8d33 9a3a d695 a038
00000100: 0000 0000 0000 0000 438f bc39 9725 c837
00000110: 0000 0000 0000 0000 4b98 6f3a f7e3 7738
00000120: 8f41 163b c4de 1e39 40ac 0d3b ea2b 1639
00000130: 0000 0000 0000 0000 f3fa 013c 2f42 153a
00000140: 2ad5 6b3b 9fe8 7639 0000 0000 0000 0000
00000150: cacd 573b a3a2 5f39 58e4 263a 33ee 3d38
00000160: 0000 0000 0000 0000 0000 0000 0000 0000
00000170: efaf b33a c283 c538 d8a0 993a 2a67 9f38
00000180: 0000 0000 0000 0000 88c2 5210 8c80 3f11
00000190: 858a ee39 de7e f337 1606 363a fb44 4b38
000001a0: 0000 0000 0000 0000 0000 0000 0000 0000
000001b0: 15e0 403b 84b1 5439 0000 0000 0000 0000
000001c0: 0000 0000 0000 0000 1b0e db39 9bd9 0038
000001d0: 0000 0000 0000 0000 0dd3 2f3a 14e3 3638
000001e0: 0000 0000 0000 0000 0000 0000 0000 0000
000001f0: f401 0000 f401 0000 0000 0000 0000 0000

exp_avg f4 [64]
0.012377975 0.0 0.0 6e-45 -0.008338865 0.014959855 0.0 -0.0073216413
0.009865801 0.0 0.0 0.0 0.014618184 0.0 0.011110015 -0.042450037
0.016297111 -0.009386227 0.009905499 0.016718527 -0.03146488 0.02601136 0.02240459 -0.0155761
0.0 0.0 0.013163547 0.0 6e-45 -0.018749928 0.0 0.016467253
0.0 0.0076713 0.0 0.014845833 -0.020042306 -0.017479246 0.0 -0.0238831
-0.02598115 0.0 -0.028162653 -0.008873196 0.0 0.0 0.016581967 0.017094672
0.0 6e-45 0.010654841 -0.009877913 0.0 0.0 0.024725037 0.0
0.0 -0.0032503263 0.0 0.009874229 0.0 0.0 6e-45 0.0
00000000: fdcc 4a3c 0000 0000 0000 0000 0400 0000
00000010: bc9f 08bc 2e1a 753c 0000 0000 61ea efbb
00000020: 2ba4 213c 0000 0000 0000 0000 0000 0000
00000030: 1c81 6f3c 0000 0000 c806 363c 17e0 2dbd
00000040: 8581 853c b0c8 19bc ad4a 223c 4bf5 883c
00000050: 51e1 00bd c715 d53c d589 b73c e632 7fbc
00000060: 0000 0000 0000 0000 ebab 573c 0000 0000
00000070: 0400 0000 7399 99bc 0000 0000 55e6 863c
00000080: 0000 0000 875f fb3b 0000 0000 f03b 733c
00000090: c32f a4bc a330 8fbc 0000 0000 7ea6 c3bc
000000a0: 6cd6 d4bc 0000 0000 5db5 e6bc e260 11bc
000000b0: 0000 0000 0000 0000 e8d6 873c 200a 8c3c
000000c0: 0000 0000 0400 0000 a491 2e3c f8d6 21bc
000000d0: 0000 0000 0000 0000 298c ca3c 0000 0000
000000e0: 0000 0000 6d03 55bb 0000 0000 85c7 213c
000000f0: 0000 0000 0000 0000 0400 0000 0000 0000

exp_avg_sq f4 [64]
0.0010510007 0.0 0.0 7e-43 0.0011198983 0.0016470845 0.0 0.0006516229
0.011323793 0.0 0.0 0.0 0.0015536908 0.0 0.0013199804 0.015171151
0.0018155038 0.00082907546 0.0010920251 0.0019181193 0.0066447034 0.011098869 0.0098627405 0.0016575117
0.0 0.0 0.0018669467 0.0 7e-43 0.0060355277 0.0 0.0019628152
0.0 0.00058240525 0.0 0.0015546376 0.0037181466 0.0034455466 0.0 0.012564228
0.005879897 0.0 0.0055340095 0.0010057741 0.0 0.0 0.0022981283 0.0019976005
0.0 8.409645e-23 0.0007761125 0.0011080811 0.0 0.0 0.004978416 0.0
0.0 0.00062402297 0.0 0.0010986668 0.0 0.0 7e-43 0.0
00000000: bbc1 893a 0000 0000 0000 0000 f401 0000
00000010: 8dc9 923a fce2 d73a 0000 0000 acd1 2a3a
00000020: 6e87 393c 0000 0000 0000 0000 0000 0000
00000030: 36a5 cb3a 0000 0000 3103 ad3a 6b90 783c
00000040: 33f6 ed3a 5056 593a 4822 8f3a 6769 fb3a
00000050: d0bb d93b 08d8 353c 5597 213c dd40 d93a
00000060: 0000 0000 0000 0000 56b4 f43a 0000 0000
00000070: f401 0000 adc5 c53b 0000 0000 93a2 003b
00000080: 0000 0000 8eac 183a 0000 0000 fbc4 cb3a
00000090: 26ac 733b aece 613b 0000 0000 31da 4d3c
000000a0: 27ac c03b 0000 0000 a356 b53b 2ed4 833a
000000b0: 0000 0000 0000 0000 329c 163b 2dea 023b
000000c0: 0000 0000 2e55 cb1a 0774 4b3a 083d 913a
000000d0: 0000 0000 0000 0000 fb21 a33b 0000 0000
000000e0: 0000 0000 7995 233a 0000 0000 2401 903a
000000f0: 0000 0000 0000 0000 f401 0000 0000 0000

exp_avg f4 [64, 2]
-2.2487326e-05 -0.00011309065 0.00015259394 9.21551e-05 0.0 0.0 0.00012197863 7.524741e-05
0.00014298492 9.415159e-05 0.00015962626 0.000108023996 7.9871745e-05 4.9672697e-05 0.0 0.0
-2.1215694e-05 -3.0346757e-05 0.0 0.0 7.9573685e-05 4.9703205e-05 0.0 0.0
0.0 0.0 0.0 0.0 0.00013081075 8.557003e-05 0.00019859638 0.00020060547
0.00021795947 0.00017115971 6e-45 6e-45 0.0 0.0 0.0 0.0
0.00029192472 0.00023724818 8.8342065e-05 3.0015184e-05 0.0001498368 0.00011366797 0.0 0.0
9.353819e-05 5.545009e-05 0.00023262898 0.00018960568 0.00028671298 0.00018603036 0.00016700094 0.00015372668
0.0 0.0 0.00024328603 0.00014600978 0.0 0.0 4.5433364e-05 2.663293e-05
0.00016317159 0.00012969684 0.00018549213 9.851569e-05 -4.723333e-05 -0.00016230918 0.0001490581 0.00011295971
5.706131e-05 -0.0001463542 0.00018938755 4.5860263e-05 0.0 0.0 0.0 0.0
0.0 0.0 0.000102724734 7.40751e-05 0.0 0.0 4.43145e-05 1.9485142e-05
0.00017487488 0.00013523677 0.00015053457 0.00011420339 6e-45 6e-45 0.00012097734 8.3047766e-05
6.2786974e-05 3.135595e-05 0.00013840894 0.00010161797 0.00027664946 0.00019537308 0.00013665258 9.8765e-05
0.0 0.0 0.000102660066 6.350731e-05 0.0002443557 0.00017701159 3.917299e-05 7.526929e-06
0.0 0.0 0.00019875086 0.00012689765 0.00013675782 9.613599e-05 0.00019560616 0.00012801905
9.3630835e-05 7.018163e-05 0.00013940381 8.871294e-05 0.0 0.0 0.0 0.0
00000000: 2aa3 bcb7 152b edb8 a001 2039 6543 c138
00000010: 0000 0000 0000 0000 c7ce ff38 25ce 9d38
00000020: 39ee 1539 4073 c538 5961 2739 f18a e238
00000030: d180 a738 a757 5038 0000 0000 0000 0000
00000040: 5bf8 b1b7 2a91 feb7 0000 0000 0000 0000
00000050: cce0 a638 6978 5038 0000 0000 0000 0000
00000060: 0000 0000 0000 0000 0000 0000 0000 0000
00000070: 3e2a 0939 0f74 b338 4f3e 5039 9f59 5239
00000080: 0d8c 6439 5679 3339 0400 0000 0400 0000
00000090: 0000 0000 0000 0000 0000 0000 0000 0000
000000a0: 790d 9939 d3c5 7839 4944 b938 1ec9 fb37
000000b0: 821d 1d39 0761 ee38 0000 0000 0000 0000
000000c0: ef29 c438 1593 6838 deed 7339 e3d0 4639
000000d0: f751 9639 2511 4339 f91c 2f39 b131 2139
000000e0: 0000 0000 0000 0000 991a 7f39 341a 1939
000000f0: 0000 0000 0000 0000 b48f 3e38 c869 df37
00000100: 0a19 2b39 3bff 0739 aa80 4239 359a ce38
00000110: 671c 46b8 8a31 2ab9 7b4c 1c39 c8e4 ec38
00000120: 1d55 6f38 a876 19b9 5596 4639 155a 4038
00000130: 0000 0000 0000 0000 0000 0000 0000 0000
00000140: 0000 0000 0000 0000 ec6d d738 c458 9b38
00000150: 0000 0000 0000 0000 55de 3938 0674 a337
00000160: 9e5e 3739 58ce 0d39 d1d8 1d39 7a80 ef38
00000170: 0400 0000 0400 0000 37b5 fd38 ee29 ae38
00000180: 80ac 8338 3284 0338 de21 1139 bb1b d538
00000190: 430b 9139 10dd 4c39 664a 0f39 0e20 cf38
000001a0: 0000 0000 0000 0000 344b d738 3a2f 8538
000001b0: de1c 8039 309c 3939 ad4d 2438 d48f fc36
000001c0: 0000 0000 0000 0000 c767 5039 d40f 0539
000001d0: a666 0f39 9e9c c938 a11b 4d39 da3c 0639
000001e0: ac5b c438 7a2e 9338 ed2c 1239 660b ba38
000001f0: 0000 0000 0000 0000 0000 0000 0000 0000

exp_avg_sq f4 [64, 2]
2.3213701e-07 5.031123e-07 6.16024e-08 6.225025e-08 0.0 0.0 4.1028468e-08 4.0188212e-08
4.492864e-08 4.4005784e-08 6.468543e-08 5.861701e-08 1.717555e-08 1.6699941e-08 0.0 0.0
1.1879931e-08 1.1445785e-08 0.0 0.0 1.5489153e-08 1.5446423e-08 0.0 0.0
0.0 0.0 0.0 0.0 4.4322192e-08 4.149135e-08 1.3712668e-07 9.065943e-08
1.2041468e-07 8.8803624e-08 7e-43 7e-43 0.0 0.0 0.0 0.0
1.605004e-07 2.1849642e-07 5.3677468e-08 5.2579523e-08 7.278212e-08 5.600106e-08 0.0 0.0
2.370716e-08 2.397107e-08 1.2960746e-07 1.769129e-07 1.9019399e-07 1.8852683e-07 7.1117846e-08 6.185819e-08
0.0 0.0 1.703601e-07 8.748457e-08 0.0 0.0 2.511351e-08 2.3254396e-08
8.580695e-08 6.19118e-08 2.4649165e-07 2.4237e-07 2.3291012e-07 4.6197343e-07 4.3578968e-08 3.8565652e-08
2.9619378e-07 5.3015106e-07 3.3051535e-07 5.4440306e-07 0.0 0.0 0.0 0.0
0.0 0.0 2.8652416e-08 2.3604835e-08 0.0 0.0 9.376522e-09 9.568729e-09
7.622105e-08 9.97346e-08 4.2847557e-08 3.6619564e-08 7e-43 7e-43 5.8985233e-08 4.7767646e-08
1.6176442e-08 1.6790958e-08 5.346988e-08 4.330711e-08 1.5943797e-07 1.4351734e-07 3.7282582e-08 3.3811396e-08
0.0 0.0 3.430113e-08 3.2819585e-08 1.6440568e-07 2.191667e-07 2.1755948e-08 1.9220552e-08
0.0 0.0 9.602634e-08 9.332022e-08 5.4172027e-08 4.6381302e-08 9.843066e-08 9.2428586e-08
2.211768e-08 1.722161e-08 6.605656e-08 6.1459716e-08 0.0 0.0 0.0 0.0
00000000: 5641 7934 9d0d 0735 474a 8433 70ae 8533
00000010: 0000 0000 0000 0000 4737 3033 689b 2c33
00000020: 90f7 4033 df00 3d33 31e9 8a33 16c2 7b33
00000030: 6f89 9332 8f73 8f32 0000 0000 0000 0000
00000040: 7d18 4c32 18a3 4432 0000 0000 0000 0000
00000050: 020d 8532 0baf 8432 0000 0000 0000 0000
00000060: 0000 0000 0000 0000 0000 0000 0000 0000
00000070: c45c 3e33 3934 3233 183d 1334 8cb0 c233
00000080: 564b 0134 4fb4 be33 f401 0000 f401 0000
00000090: 0000 0000 0000 0000 0000 0000 0000 0000
000000a0: 0456 2c34 d79b 6a34 008b 6633 ccd3 6133
000000b0: 654c 9c33 d185 7033 0000 0000 0000 0000
000000c0: 99a4 cb32 f1e8 cd32 3a2a 0b34 73f5 3d34
000000d0: 2038 4c34 dc6d 4a34 73b9 9833 e6d6 8433
000000e0: 0000 0000 0000 0000 3aec 3634 27df bb33
000000f0: 0000 0000 0000 0000 31b9 d732 f5c0 c732
00000100: df44 b833 5ff4 8433 8e55 8434 141f 8234
00000110: d915 7a34 2505 f834 952b 3b33 62a3 2533
00000120: 9004 9f34 b44f 0e35 af71 b134 1823 1235
00000130: 0000 0000 0000 0000 0000 0000 0000 0000
00000140: 0000 0000 0000 0000 541f f632 95c3 ca32
00000150: 0000 0000 0000 0000 6116 2132 b763 2432
00000160: f7ae a333 ad2d d633 6307 3833 a347 1d33
00000170: f401 0000 f401 0000 f356 7d33 1529 4d33
00000180: 5ff4 8a32 b53b 9032 c1a6 6533 ac00 3a33
00000190: fa31 2b34 bf19 1a34 a220 2033 0638 1133
000001a0: 0000 0000 0000 0000 7e52 1333 84f5 0c33
000001b0: 7d87 3034 1554 6b34 d6e1 ba32 711a a532
000001c0: 0000 0000 0000 0000 0a37 ce33 5567 c833
000001d0: c6aa 6833 c834 4733 d460 d333 277d c633
000001e0: 4bfd bd32 b9ee 9332 fada 8d33 d6fb 8333
000001f0: 0000 0000 0000 0000 0000 0000 0000 0000

exp_avg f4 [64]
-0.00018493926 0.0001786468 0.0 0.00014595337 0.00018038639 0.0002062868 9.5809e-05 0.0
-5.204109e-05 0.0 9.549172e-05 0.0 0.0 0.0 0.00016443271 0.00035111094
0.00032067508 6e-45 0.0 0.0 0.00041470118 6.575681e-05 0.00021423616 0.0
0.00010781852 0.00033066465 0.00035651168 0.0002690082 0.0 0.00032840023 0.0 5.292124e-05
0.00024286877 0.00020001995 -0.0003030963 0.00021050622 -8.186024e-05 0.00015214454 0.0 0.0
0.0 0.00013985524 0.0 4.0408995e-05 0.00023901646 0.00021426361 6e-45 0.00016235274
6.418076e-05 0.00019242942 0.00037050492 0.00018563561 0.0 0.00012311635 0.00031644697 1.942206e-05
0.0 0.00024401168 0.00018314247 0.00024595938 0.00013139796 0.0001716805 0.0 0.0
00000000: 41ec 41b9 2353 3b39 0000 0000 0f0b 1939
00000010: 1a26 3d39 b14e 5839 11ed c838 0000 0000
00000020: b246 5ab8 0000 0000 ba42 c838 0000 0000
00000030: 0000 0000 0000 0000 926b 2c39 5015 b839
00000040: 4820 a839 0400 0000 0000 0000 0000 0000
00000050: 406c d939 ebe6 8938 95a4 6039 0000 0000
00000060: a11c e238 0f5d ad39 30ea ba39 ab09 8d39
00000070: 0000 0000 222d ac39 0000 0000 c0f7 5d38
00000080: 97aa 7e39 72bc 5139 e6e8 9eb9 55bb 5c39
00000090: 62ac abb8 fd88 1f39 0000 0000 0000 0000
000000a0: 0000 0000 1ba6 1239 0000 0000 d47c 2938
000000b0: 7ea0 7a39 f3ab 6039 0400 0000 3b3d 2a39
000000c0: c898 8638 e1c6 4939 5440 c239 2ea7 4239
000000d0: 0000 0000 cb18 0139 cbe8 a539 8eec a237
000000e0: 0000 0000 63dd 7f39 ef09 4039 1cf4 8039
000000f0: dfc7 0939 2205 3439 0000 0000 0000 0000
