src/model_deploy/best_model.pt (torch, 327869 bytes, 75 tensors)

policy_log_std f4 [30]
2.0093362 2.0046322 2.0025403 2.0059047 2.0110648 2.0079768 2.0108907 2.0033443
2.0141716 2.0118403 2.0039804 2.0078793 2.0041533 2.003247 2.003753 2.0041032
2.0052722 2.0081038 2.0160782 2.017823 2.0082812 2.0011919 2.0047317 2.0064163
2.022711 2.0020237 2.0011208 2.0039518 2.0161195 2.0028923
00000000: f798 0040 e54b 0040 9f29 0040 be60 0040
00000010: 49b5 0040 b182 0040 6fb2 0040 cb36 0040
00000020: 30e8 0040 fec1 0040 3741 0040 1881 0040
00000030: 0c44 0040 3335 0040 7d3d 0040 3a43 0040
00000040: 6156 0040 c684 0040 6d07 0140 0324 0140
00000050: ae87 0040 8713 0040 864d 0040 2069 0040
00000060: 1974 0140 2821 0040 5d12 0040 bf40 0040
00000070: 1a08 0140 632f 0040

job_encoder.0.weight f4 [32, 4]
0.24160528 -0.03318528 0.0049857125 0.037976854 0.047886733 0.25229174 -0.13242838 -0.093208805
-0.28853813 -0.15787274 0.2650899 -0.14205359 -0.14922385 -0.19851305 -0.005817165 0.091971956
0.17474794 -0.06838742 0.36942247 -0.10654494 -0.42955837 0.5218766 -0.0396516 0.30117947
0.32394713 -0.16529076 0.17720027 0.08619876 0.21932435 0.02924214 0.3671427 -0.15980563
-0.47210538 0.15991616 -0.4174529 -0.70770663 0.1553259 0.08357333 0.1533764 -0.3135019
-0.2167289 -0.12483558 0.15678139 -0.39922264 0.13581918 -0.02423724 0.3503953 0.21937521
-0.15438566 0.32207525 0.111093864 -0.045065697 0.014472576 0.060145687 0.092173316 -0.26245463
0.083992116 -0.27852327 -0.29545027 -0.10761215 0.2185783 -0.22759898 -0.22749054 0.050729714
0.3271687 0.22857396 -0.08419348 0.086726636 0.2775285 -0.42640036 -0.4841275 0.087536536
-0.09899556 -0.23235208 -0.32141215 -0.15571657 -0.39167753 -0.4654968 0.041450895 0.32118693
0.22708774 -0.29621732 -0.030939642 -0.035292555 0.2543117 0.36878446 -0.28026515 0.23441678
0.15410343 0.02147574 0.121780746 0.014768386 0.16532 0.13809676 0.010828405 -0.40906018
-0.03890831 0.01874929 0.3130154 -0.16474803 -0.072388425 -0.63550085 0.38071838 -0.11105871
-0.045569964 -0.08381034 0.08222432 -0.61377555 -0.26196125 -0.058716048 -0.028832762 0.05110906
0.1417125 -0.13861072 0.10549283 -0.04077394 -0.29195422 0.07225378 0.48785773 0.27984324
-0.035661638 -0.23655398 -0.38590962 0.09547976 -0.61299735 -0.19276893 -0.11549975 0.24548227
00000000: 6067 773e 4aed 07bd 305f a33b 9e8d 1b3d
00000010: e124 443d 622c 813e 4e9b 07be 42e4 bebd
00000020: 45bb 93be 64a9 21be ddb9 873e 7f76 11be
00000030: 23ce 18be 0147 4bbe eb9d bebb cb5b bc3d
00000040: 20f1 323e b40e 8cbd f124 bd3e 3c34 dabd
00000050: 13ef dbbe b499 053f b769 22bd 3234 9a3e
00000060: 66dc a53e fb41 29be fd73 353e fa88 b03d
00000070: 9096 603e 368d ef3c 21fa bb3e 16a4 23be
00000080: ccb7 f1be 10c1 233e 63bc d5be 432c 35bf
00000090: c10d 1f3e 7e28 ab3d b40e 1d3e 5283 a0be
000000a0: 2eee 5dbe cca9 ffbd 4d8b 203e e966 ccbe
000000b0: 2f14 0b3e 2d8d c6bc 0367 b33e e5a3 603e
000000c0: 4617 1ebe 0ce7 a43e 2e85 e33d cf96 38bd
000000d0: 621e 6d3c 535b 763d 5dc5 bc3d 7460 86be
000000e0: 0f04 ac3d 9a9a 8ebe 4245 97be c263 dcbd
000000f0: fdd2 5f3e b50f 69be 48f3 68be f6c9 4f3d
00000100: a882 a73e 4b0f 6a3e a26d acbd bc9d b13d
00000110: 3718 8e3e 2651 dabe 8fdf f7be 5b46 b33d
00000120: 2fbe cabd b4ed 6dbe 2290 a4be 2a74 1fbe
00000130: f589 c8be 9955 eebe 6ac8 293d 9d72 a43e
00000140: b089 683e cca9 97be 2275 fdbc ed8e 10bd
00000150: 2535 823e 51d1 bc3e ea7e 8fbe f40a 703e
00000160: 4acd 1d3e e4ed af3c 2f68 f93d 1af7 713c
00000170: a549 293e 3d69 0d3e 9f69 313c 5670 d1be
00000180: 525e 1fbd 1c98 993c 8e43 a03e b5b3 28be
00000190: 6240 94bd 2fb0 22bf 85ed c23e c072 e3bd
000001a0: 92a7 3abd c1a4 abbd 3965 a83d 6520 1dbf
000001b0: c91f 86be 3d80 70bd af32 ecbc bc57 513d
000001c0: 151d 113e f8ef 0dbe a00c d83d 9302 27bd
000001d0: 067b 95be caf9 933d 7dc8 f93e 9d47 8f3e
000001e0: f011 12bd 353b 72be f295 c5be e48a c33d
000001f0: 65ed 1cbf 3865 45be 228b ecbd b45f 7b3e

job_encoder.0.bias f4 [32]
0.0 0.0 0.0 0.0 0.0 0.0 0.0 0.0
0.0 0.0 0.0 0.0 0.0 0.0 0.0 0.0
0.0 0.0 0.0 0.0 0.0 0.0 0.0 0.0
0.0 0.0 0.0 0.0 0.0 0.0 0.0 0.0
00000000: 0000 0000 0000 0000 0000 0000 0000 0000
00000010: 0000 0000 0000 0000 0000 0000 0000 0000
00000020: 0000 0000 0000 0000 0000 0000 0000 0000
00000030: 0000 0000 0000 0000 0000 0000 0000 0000
00000040: 0000 0000 0000 0000 0000 0000 0000 0000
00000050: 0000 0000 0000 0000 0000 0000 0000 0000
00000060: 0000 0000 0000 0000 0000 0000 0000 0000
00000070: 0000 0000 0000 0000 0000 0000 0000 0000

job_encoder.2.weight f4 [32, 32]
-0.1947852 -0.04499821 -0.13237602 -0.32692033 0.011576074 0.250316 -0.4503561 0.67386764
-0.17115387 0.033228915 0.016476307 0.26540458 -0.0784733 -0.11830024 0.112650335 0.13673855
-0.20857921 0.49655074 -0.29405338 0.08896062 0.010720222 0.06694282 0.5005633 -0.13637954
-0.020404277 -0.07366954 0.05550511 0.15393487 0.1326681 -0.4767701 0.0982568 0.13371648
0.070915945 -0.36289734 -0.037964523 -0.46200225 0.7387475 0.108315684 -0.048676558 -0.10234476
0.24779725 0.04272413 0.2963198 0.02286763 -0.15151593 -0.2997833 0.008802438 -0.15940934
0.24290346 -0.005143444 -0.23537101 -0.39297518 0.19156612 -0.18997128 -0.102481954 -0.22096911
0.3619449 -0.22437751 -0.30474627 -0.27387556 -0.12850271 0.081174746 0.12187206 0.0059029493
0.17940275 -0.4816393 0.18625388 0.25708175 0.18183891 -0.05862607 0.065608986 -0.19267425
-0.30017945 0.14413495 0.20021549 -0.34675312 0.05805018 -0.19434226 -0.04413284 0.52561575
-0.21937928 0.28364706 -0.4293565 -0.18349916 -0.5484055 0.067371875 -0.038904916 -0.026430164
-0.10374667 0.12520798 0.25070727 0.05909455 -0.29426005 -0.083326735 -0.30145207 -0.18779601
-0.30659604 -0.21762209 -0.2141556 0.5006163 0.11007815 -0.45103562 -0.13714719 0.31983313
0.2121333 -0.041561484 -0.053444006 -0.2415664 0.04413848 0.3129284 -0.024498302 0.2674284
0.27009368 -0.061898388 -0.4106269 -0.103009276 0.46182907 -0.2998621 -0.11336409 -0.012325715
-0.18357964 -0.11854713 -0.3061459 0.26487643 0.252516 -0.01317154 -0.30518562 0.068176255
-0.1987971 0.44935697 -0.4068728 0.18237385 0.120346576 -0.12684892 -0.02401952 -0.28175297
-0.01933926 -0.35202432 0.06473488 0.06552429 0.38078985 -0.28082713 0.04441382 -0.14374883
0.29054263 -0.12877837 -0.33779216 -0.0975548 -0.16624144 -0.2230552 0.56410027 -0.34606937
-0.19207357 0.4431355 0.0894623 -0.061293714 -0.23226397 0.044374805 0.15050432 -0.079780325
0.19359598 0.26424858 0.047951043 0.017285898 -0.0070274523 0.35073668 -0.19869752 0.3423267
-0.0938438 0.3906117 0.039478224 -0.5180748 -0.31009918 0.44831538 0.08437376 -0.09673995
-0.0145150935 -0.29899523 -0.22741672 -0.2650414 0.08518102 0.20696788 -0.021663865 -0.1788693
-0.12729429 0.478469 -0.109122254 -0.054869104 -0.39807218 0.18707465 0.20724653 0.2734921
0.22114807 0.14628257 0.5043163 -0.44361356 -0.24846093 -0.11088569 0.26261482 0.05866015
0.035687402 -0.3262079 0.17255178 0.09988532 0.4478507 -0.015780548 0.11142547 0.3119784
-0.14778417 -0.17089418 -0.2756814 -0.33167467 0.23990919 0.17116287 -0.24076591 -0.48525465
-0.16279677 0.11903668 0.059769716 0.08855906 0.40944833 0.009205664 0.022913089 0.19088407
0.4062921 -0.08612176 0.09742436 0.332184 -0.035355106 0.2811201 -0.12380366 0.2119682
0.42832544 0.09861057 -0.14880268 -0.011796559 0.22542115 -0.2757549 -0.44282097 -0.11910143
0.060442466 0.0975243 0.21389884 -0.36403733 0.22256441 -0.29709625 0.109260984 -0.0008637832
0.32432905 0.17810313 0.5869784 0.41804287 0.028484078 0.040902052 -0.004432692 0.120991334
00000000: c575 47be 0b50 38bd 948d 07be 1a62 a7be
00000010: 93a9 3d3c 6b29 803e 1395 e6be 9782 2c3f
00000020: f642 2fbe 0b1b 083d 52f9 863c 1ce3 873e
00000030: 9cb6 a0bd 6547 f2bd 38b5 e63d 3105 0c3e
00000040: ca95 55be e63b fe3e 2a8e 96be fc30 b63d
00000050: dfa3 2f3c 5119 893d eb24 003f 14a7 0bbe
00000060: df26 a7bc 0ee0 96bd 5459 633d 1aa1 1d3e
00000070: 25da 073e 361b f4be dc3a c93d f9ec 083e
00000080: 613c 913d aecd b9be b080 1bbd 8f8b ecbe
00000090: 8e1e 3d3f 9dd4 dd3d 1261 47bd 219a d1bd
000000a0: 90be 7d3e 7fff 2e3d 3bb7 973e e554 bb3c
000000b0: fe26 1bbe 327d 99be 1a38 103c 343c 23be
000000c0: afbb 783e 568a a8bb 1905 71be 0b34 c9be
000000d0: e929 443e d587 42be 0fe2 d1bd ba45 62be
000000e0: d850 b93e 38c3 65be b407 9cbe 6b39 8cbe
000000f0: 3796 03be f23e a63d 0f98 f93d 876d c13b
00000100: 5bb5 373e 6d99 f6be 56b9 3e3e 38a0 833e
00000110: fb33 3a3e e421 70bd 015e 863d 664c 45be
00000120: 1fb1 99be 1d98 133e 4a05 4d3e a089 b1be
00000130: 07c6 6d3d a801 47be a3c4 34bd c18e 063f
00000140: f6a4 60be 303a 913e 9dd4 dbbe 34e7 3bbe
00000150: 4e64 0cbf 44fa 893d c35a 1fbd 1284 d8bc
00000160: 2279 d4bd 8536 003e b45c 803e 200d 723d
00000170: 41a9 96be 35a7 aabd ed57 9abe 994d 40be
00000180: 28fa 9cbe 53d8 5ebe 9b4b 5bbe 6428 003f
00000190: a770 e13d 24ee e6be 5070 0cbe 2bc1 a33e
000001a0: 7939 593e 603c 2abd 1ae8 5abd 2f5d 77be
000001b0: 8dca 343d 2738 a03e aab0 c8bc 60ec 883e
000001c0: b849 8a3e 2a89 7dbd b03d d2be 87f6 d2bd
000001d0: dc74 ec3e 8687 99be 6f2b e8bd ccf1 49bc
000001e0: 4dfc 3bbe d6c8 f2bd 28bf 9cbe e29d 873e
000001f0: c749 813e 71cd 57bc 4a41 9cbe fe9f 8b3d
00000200: 7891 4bbe 1e12 e63e a251 d0be 36c0 3a3e
00000210: 4478 f63d afe4 01be 96c4 c4bc ed41 90be
00000220: 5e6d 9ebc 883c b4be b993 843d 9931 863d
00000230: e3f6 c23e 93c8 8fbe 44eb 353d e532 13be
00000240: 01c2 943e 7ade 03be 18f3 acbe d0ca c7bd
00000250: 323b 2abe 9568 64be e068 103f 0130 b1be
00000260: efae 44be a8e2 e23e 0338 b73d 1e0f 7bbd
00000270: 9bd6 6dbe 5bc2 353d ce1d 1a3e de63 a3bd
00000280: 063e 463e 974b 873e 5068 443d 289b 8d3c
00000290: 8b46 e6bb c293 b33e 5d77 4bbe 7245 af3e
000002a0: 2e31 c0bd 42fe c73e ebb3 213d 8da0 04bf
000002b0: 52c5 9ebe 9889 e53e 26cc ac3d 981f c6bd
000002c0: b7d0 6dbc e715 99be eedf 68be 82b3 87be
000002d0: 6373 ae3d 63ef 533e 6b78 b1bc 8429 37be
000002e0: 6f59 02be e4f9 f43e 7d7b dfbd 6dbe 60bd
000002f0: 1ed0 cbbe 7f90 3f3e 6f38 543e 2807 8c3e
00000300: a474 623e 19cb 153e df1a 013f 5121 e3be
00000310: 8b6c 7ebe 0918 e3bd 7375 863e a045 703d
00000320: f42c 123d b904 a7be 6ab1 303e ad90 cc3d
00000330: b04c e53e 3546 81bc 0933 e43d a2bb 9f3e
00000340: bc54 17be e2fe 2ebe 1d26 8dbe 43d1 a9be
00000350: c1aa 753e 5245 2f3e 578b 76be 4c73 f8be
00000360: 32b4 26be 81c9 f33d 17d1 743d 745e b53d
00000370: 36a3 d13e 5ad3 163c 3bb4 bb3c 1d77 433e
00000380: 8505 d03e 9b60 b0bd 6c86 c73d 0514 aa3e
00000390: 84d0 10bd f9ee 8f3e c68c fdbd 310e 593e
000003a0: 794d db3e 57f4 c93d bb5f 18be 5b46 41bc
000003b0: cdd4 663e bf2f 8dbe 6eb9 e2be 73eb f3bd
000003c0: 8592 773d d2ba c73d 4c08 5b3e 1a63 babe
000003d0: ede7 633e 001d 98be 39c4 df3d 826f 62ba
000003e0: 750e a63e ab60 363e 3744 163f b709 d63e
000003f0: 7157 e93c e988 273d 1e40 91bb 4eca f73d

job_encoder.2.bias f4 [32]
0.0 0.0 0.0 0.0 0.0 0.0 0.0 0.0
0.0 0.0 0.0 0.0 0.0 0.0 0.0 0.0
0.0 0.0 0.0 0.0 0.0 0.0 0.0 0.0
0.0 0.0 0.0 0.0 0.0 0.0 0.0 0.0
00000000: 0000 0000 0000 0000 0000 0000 0000 0000
00000010: 0000 0000 0000 0000 0000 0000 0000 0000
00000020: 0000 0000 0000 0000 0000 0000 0000 0000
00000030: 0000 0000 0000 0000 0000 0000 0000 0000
00000040: 0000 0000 0000 0000 0000 0000 0000 0000
00000050: 0000 0000 0000 0000 0000 0000 0000 0000
00000060: 0000 0000 0000 0000 0000 0000 0000 0000
00000070: 0000 0000 0000 0000 0000 0000 0000 0000

queue_encoder.0.weight f4 [64, 4]
-0.00492193 -0.0014083347 -0.080546275 0.114281625 -0.12718083 0.73219204 1.2926493 1.1920902
-0.1362259 -0.0031118286 0.21064237 0.6838534 0.07535499 -0.13333528 -0.70180213 -0.79753
-0.2061546 -0.31700137 -1.2376523 -1.1767576 -0.76397765 -1.1514801 -1.4687991 -1.2082683
-0.83666074 -1.0989467 -1.8785576 -1.6138281 -0.00908111 -1.3877383 -1.4099745 -1.211853
-0.3086829 -0.7086387 -0.96677554 -1.080762 0.022656396 -0.065524995 -0.24685092 -0.5419312
-0.2312885 0.6112005 1.4633036 1.2957262 -0.3031785 0.54589105 1.3483273 1.6931314
-0.20424385 0.33405426 1.4242259 1.2089562 0.056886733 -0.06655414 -0.11978756 0.30012748
-1.3307867 -1.001578 -0.77145547 -0.8625805 -0.23019366 -0.036618855 0.6610986 0.7357795
-0.32688245 0.22197114 0.90138286 0.93506366 -0.12716945 0.6117881 1.612953 1.4865301
-0.33659482 0.31161347 -0.2986499 0.045298804 -0.23273805 -0.74022216 -1.0483098 -1.2229666
-0.11354701 0.42642057 1.4223505 1.0384856 -0.04400959 0.109127946 0.6179522 0.8346695
-0.21780992 -0.70353657 -0.7467557 -0.9701927 -0.03351369 0.5626304 -0.09617211 0.17886825
-0.24941817 0.46360686 1.3053719 1.8278337 -0.079587385 -0.0989281 0.58743495 0.59856707
0.011869064 -0.013469699 0.11032423 -0.082661554 -0.08582912 -0.64952695 -1.2456545 -1.087963
-0.20051219 -0.7679003 -1.1295114 -0.70087266 0.16995586 -1.1063869 -1.7083174 -1.2873067
-0.03145158 0.17075655 -0.6531035 -0.3194521 -0.20919144 0.06805251 0.8125657 0.9000216
-0.22130613 0.29468384 1.0897703 1.137302 -0.2565594 0.47828054 1.3837001 1.2849565
-0.024144592 -0.28082702 -0.73467976 -1.2598635 0.037694775 -0.32981306 -0.4148227 -0.919726
-0.044283044 -0.11523826 -0.09341253 -0.07540261 0.062147435 0.052804586 0.5270656 0.4012669
-0.02514732 -0.67508346 -1.5733722 -1.8164438 -0.31693447 -0.74156827 -1.3906331 -1.042513
-0.040223803 -0.045643736 0.26194328 0.22436075 -0.2000266 0.4057866 1.134062 1.1129696
0.13150598 0.057461504 -0.19317691 -0.013834472 -0.008419614 -0.34736884 -0.3298065 -0.37436503
0.24962732 -0.15929355 -0.03760696 -0.21144396 -0.20544502 0.52815634 1.4539771 1.3601377
-0.40958557 -0.53950655 -1.1823661 -1.2399803 -0.24573997 0.27309042 -0.15322591 -0.7781213
0.036235966 0.031273 -0.3344436 -0.0879833 -0.15744543 -0.89594173 -1.212951 -1.3289912
-0.013646239 -0.085458584 0.20320669 0.38495886 -0.1838762 0.11488171 0.6433045 0.2067157
0.021210253 -0.05174492 0.15120384 0.07255749 -0.24643067 -0.32625175 -0.9245934 -0.6459947
0.71039504 -0.13877267 -0.44278866 -0.33946344 0.68897736 -0.18588448 -0.04918394 -0.21962997
0.056393687 -0.11222748 0.4192471 0.01034793 0.012158832 0.100915335 -0.34787107 -0.3405654
0.5639962 -0.2829441 -0.36282057 -0.3769036 0.28282526 -0.10619643 -0.46587753 -0.2638367
0.27906972 -0.08992327 -0.66260767 -0.4850836 -0.25633895 0.33060184 0.062032353 0.41467702
0.18591626 -0.6105237 -1.2778441 -1.1576772 -0.32119712 0.040190663 0.73638517 0.7836973
00000000: 2448 a1bb df97 b8ba 72f5 a4bd 7c0c ea3d
00000010: b13b 02be f070 3b3f 8875 a53f 6996 983f
00000020: cd7e 0bbe d2ef 4bbb a2b2 573e 0411 2f3f
00000030: b853 9a3d 0b89 08be 4ea9 33bf ed2a 4cbf
00000040: 311a 53be 014e a2be 646b 9ebf fe9f 96bf
00000050: 0a94 43bf b363 93bf 9c01 bcbf 89a8 9abf
00000060: 662f 56bf 49aa 8cbf 9374 f0bf eb91 cebf
00000070: f0c8 14bc 69a1 b1bf 0b7a b4bf 001e 9bbf
00000080: af0b 9ebe 5969 35bf 9a7e 77bf 6956 8abf
00000090: e899 b93c f831 86bd 7dc6 7cbe 01bc 0abf
000000a0: e4d6 6cbe a377 1c3f 884d bb3f 5bda a53f
000000b0: 363a 9bbe 84bf 0b3f fd95 ac3f 88b8 d83f
000000c0: 4d25 51be 2909 ab3e 094d b63f 14bf 9a3f
000000d0: 1002 693d 894d 88bd 2e53 f5bd 4faa 993e
000000e0: 3857 aabf b533 80bf 1b7e 45bf 13d2 5cbf
000000f0: e3b7 6bbe a7fd 15bd c23d 293f 0c5c 3c3f
00000100: 235d a7be 674c 633e 07c1 663f 5560 6f3f
00000110: b538 02be 259e 1c3f 3e75 ce3f 9e46 be3f
00000120: 2856 acbe cd8b 9f3e a4e8 98be 3d8b 393d
00000130: e252 6ebe 337f 3dbf 042f 86bf 2b8a 9cbf
00000140: 568b e8bd cc53 da3e 950f b63f 19ed 843f
00000150: 6643 34bd 797e df3d 1e32 1e3f e6ac 553f
00000160: 9009 5fbe f91a 34bf 622b 3fbf 8c5e 78bf
00000170: a745 09bd 8c08 103f e2f5 c4bd 3d29 373e
00000180: 7a67 7fbe e15d ed3e 6d16 a73f 74f6 e93f
00000190: b6fe a2bd d19a cabd 2362 163f b13b 193f
000001a0: 7676 423c 03b0 5cbc abf1 e13d 764a a9bd
000001b0: 2dc7 afbd 6647 26bf 9b71 9fbf 5f42 8bbf
000001c0: 1153 4dbe 1d95 44bf d493 90bf 646c 33bf
000001d0: e908 2e3e 169e 8dbf 25aa dabf 77c6 a4bf
000001e0: 5fd3 00bd ceda 2e3e ca31 27bf 3a8f a3be
000001f0: 4836 56be 1d5f 8b3d 4e04 503f d167 663f
00000200: 139e 62be cde0 963e 987d 8b3f 1d93 913f
00000210: c15b 83be 30e1 f43e 161d b13f 7479 a43f
00000220: e1ca c5bc 8fc8 8fbe f913 3cbf 3543 a1bf
00000230: d665 1a3d 42dd a8be a463 d4be 2a73 6bbf
00000240: 2362 35bd 0902 ecbd 124f bfbd af6c 9abd
00000250: 4f8e 7e3d 9f49 583d c5ed 063f db72 cd3e
00000260: c101 cebc 45d2 2cbf 4364 c9bf 3b81 e8bf
00000270: 3c45 a2be 6bd7 3dbf 4400 b2bf 1171 85bf
00000280: b7c1 24bd edf4 3abd 6e1d 863e d3be 653e
00000290: c6d3 4cbe 43c3 cf3e f228 913f ca75 8e3f
000002a0: 81a9 063e c15c 6b3d 2bd0 45be fba9 62bc
000002b0: 6cf2 09bc 54da b1be 66dc a8be c6ac bfbe
000002c0: 4e9e 7f3e d91d 23be c109 1abd c484 58be
000002d0: 2e60 52be 4135 073f ec1b ba3f fe18 ae3f
000002e0: 33b5 d1be 1a1d 0abf c657 97bf adb7 9ebf
000002f0: 42a3 7bbe 82d2 8b3e 41e7 1cbe f532 47bf
00000300: 2a6c 143d 1e18 003d 313c abbe 9730 b4bd
00000310: 6039 21be 705c 65bf fa41 9bbf 621c aabf
00000320: 7a94 5fbc e904 afbd 6a15 503e 5419 c53e
00000330: 0b4a 3cbe 1a47 eb3d 9baf 243f 48ad 533e
00000340: 20c1 ad3c 7bf2 53bd 2ed5 1a3e 0599 943d
00000350: 5258 7cbe 780a a7be 27b2 6cbf e95f 25bf
00000360: 73dc 353f 6c1a 0ebe 32b5 e2be 27ce adbe
00000370: d260 303f 8058 3ebe 1975 49bd aee6 60be
00000380: 11fd 663d 85d7 e5bd 8ea7 d63e 5d8a 293c
00000390: d635 473c b3ac ce3d 281c b2be 975e aebe
000003a0: 0e62 103f 0dde 90be 9ec3 b9be 82f9 c0be
000003b0: 79ce 903e 847d d9bd 8087 eebe 9b15 87be
000003c0: 3ae2 8e3e b129 b8bd a8a0 29bf e15c f8be
000003d0: dc3e 83be a544 a93e a315 7e3d 8c50 d43e
000003e0: d560 3e3e 484b 1cbf 6590 a3bf c42e 94bf
000003f0: f373 a4be f79e 243d bd83 3c3f 63a0 483f

queue_encoder.0.bias f4 [64]
0.008575102 -0.10983247 0.00012317215 0.038554452 0.08709961 -0.034814324 0.028484996 0.17905848
0.12126846 0.035699237 -0.078988425 -0.067939125 -0.07294593 0.0061856527 -0.58360696 0.00067817856
-0.065345876 -0.08253282 -0.040067066 0.111475766 -0.08233844 -0.06839283 0.10585887 -0.3965026
-0.099660166 0.0027290774 -0.0008779475 0.15310808 -0.12436165 0.08025559 -0.007456752 -0.04451762
-0.09367954 -0.07518815 0.059703145 0.04654716 0.035943184 -0.07614566 0.18190524 0.12221158
-0.0016756181 -0.08865809 -0.034336064 0.077066645 0.015197362 -0.07370147 0.0824478 -0.010632826
-0.0017928226 0.067970894 0.00788486 -0.021124648 0.0031368812 0.046254493 -0.048996024 -0.05415662
0.01362262 -0.009906351 0.010583779 0.0053924946 0.021578107 -0.082855344 0.13128397 -0.017801574
00000000: 967e 0c3c d9ef e0bd c627 0139 46eb 1d3d
00000010: 4861 b23d 7799 0ebd 5e59 e93c 1b5b 373e
00000020: 995b f83d 5d39 123d afc4 a1bd ab23 8bbd
00000030: ad64 95bd 04b1 ca3b 4467 15bf cbc7 313a
00000040: 0fd4 85bd f806 a9bd 5d1d 24bd 684d e43d
00000050: 0ea1 a8bd 8a11 8cbd 89cc d83d 6402 cbbe
00000060: a11a ccbd 52da 323b 0f26 66ba 5dc8 1c3e
00000070: 52b1 febd 0b5d a43d c557 f4bb 1c58 36bd
00000080: 0fdb bfbd 3ffc 99bd 498b 743d 3ca8 3e3d
00000090: 2939 133d 41f2 9bbd 5e45 3a3e 114a fa3d
000000a0: 6aa0 dbba 5f92 b5bd f9a3 0cbd 1ed5 9d3d
000000b0: 5bfe 783c ccf0 96bd 64da a83d 4e35 2ebc
000000c0: 25fd eaba 5334 8b3d 802f 013c 990d adbc
000000d0: 2294 4d3b 5a75 3d3d 0eb0 48bd 55d3 5dbd
000000e0: 6931 5f3c 3f4e 22bc 9667 2d3c 86b3 b03b
000000f0: 92c4 b03c 10b0 a9bd 4e6f 063e 9bd4 91bc

queue_encoder.2.weight f4 [32, 64]
-0.044090915 0.23826973 -0.14480905 0.05627801 -0.05476482 -0.3244252 -0.46568444 -0.8956823
-0.0036025778 0.03445441 0.51374084 0.42816347 0.3432586 -0.16702652 -0.14316517 0.41667885
-0.42716002 0.42901608 0.40493235 -0.23579502 -0.09149775 0.039544817 0.03828527 -0.20225896
0.00026382878 -0.101383254 0.2871762 -0.16268224 -0.15522645 -0.84276485 0.028072614 -0.14462034
0.030050106 0.37832752 0.08696238 0.0805477 0.020690698 -0.08252699 -0.5278395 -0.40014154
-0.06895775 -0.039640583 -0.04764598 -0.23339134 -0.42857116 0.36640388 -0.44882864 0.3607816
-0.15344389 -0.53949934 -0.18649845 -0.34653524 -0.13274184 -0.05888458 0.1881815 0.047063798
-0.02355718 -0.09447739 0.1915667 0.103999816 -0.03731328 -0.06882082 0.019657029 -0.14334796
0.24678038 0.23740809 0.2183911 -0.04025897 -0.450899 0.22207895 0.12560284 0.20071276
-0.5590611 -0.26197165 0.86437786 0.7760121 0.7704288 -0.1144946 1.147676 0.045964472
-0.23013724 0.29264712 -0.1848818 -0.3240472 0.65436065 0.18642908 0.007192141 0.8955871
0.93079627 -0.12651782 0.08140659 -0.5443136 0.41708314 -0.07481886 0.19834025 0.23436932
0.44932163 0.3570398 -0.3287996 0.19799972 -0.30562702 0.11865091 -0.4633459 -0.053483557
0.33121058 0.16183433 0.19314119 0.14065123 0.118650645 0.9011593 -0.5285522 0.06422309
0.022918137 -0.07875058 -0.07538671 0.29724413 -0.10729626 -0.03305698 0.20412874 0.09207308
-0.101715036 -0.13560265 -0.3751835 0.19758628 0.12847239 0.22025792 -0.04974044 0.035328846
0.31047493 0.1895357 0.06868932 -0.1256118 -0.044026945 -0.4078982 -0.6491889 -0.4701927
-0.18661556 -0.35836822 0.45878676 0.8990166 -0.12586163 0.1383819 -0.34056607 -0.20177421
-0.057550024 -0.21647246 0.2898782 -0.45553878 0.17562321 0.37709332 -0.14035158 0.37317607
0.23648572 -0.19597892 -0.036312982 -0.5329785 0.046188936 -0.8352734 -0.10366606 0.05909557
-0.31974745 0.08366922 0.03702895 -0.17468667 0.063907504 0.07208909 -0.9610818 -0.40081573
-0.023267556 -0.20665585 0.12395812 0.00634602 -0.14501826 0.25440395 -0.27898666 0.15991248
-0.004460312 0.0146180885 0.23487711 -0.059088733 -0.021095132 -0.05494059 0.3006651 -0.13966508
-0.05935051 -0.17501786 0.47020617 0.29308027 0.20037222 0.14972752 -0.47354877 -0.21642418
0.037932783 0.112292536 -0.19015221 -0.23329398 -0.071550325 0.412415 0.44128355 0.24473393
-0.2547834 0.1242139 0.45304933 0.48485333 0.3760581 0.24797615 0.6906484 0.07665609
0.23694427 0.36850718 0.32350746 -0.42795137 0.26606593 0.065626316 -0.064701445 0.51255834
0.6365592 -0.22888684 -0.1531184 0.12783366 0.05116439 0.40641457 0.008219023 0.21166031
0.27671564 0.17472306 -0.07310726 -0.21556902 0.10020274 0.075611256 0.19848815 -0.22906463
-0.34691304 0.35051715 -0.1422291 0.35968748 -0.13955395 0.395795 0.07092283 0.14546457
-0.25032282 0.18937747 -0.11582086 0.45852387 0.13028648 -0.008092983 0.095443666 0.1034392
0.19675341 -0.122411646 -0.3136913 0.31185415 -0.3946044 0.23641512 0.15935852 0.062170155
00000000: ad98 34bd fbfc 733e d348 14be c583 663d
00000010: 1351 60bd 0f1b a6be 316e eebe 6f4b 65bf
00000020: 3a19 6cbb 1120 0d3d 8584 033f 3e38 db3e
00000030: 97bf af3e 0009 2bbe e499 12be ee56 d53e
00000040: b8b4 dabe ffa7 db3e 4b53 cf3e 4074 71be
00000050: 2c63 bbbd bff9 213d 04d1 1c3d f91c 4fbe
00000060: 8052 8a39 06a2 cfbd c208 933e 2c96 26be
00000070: aff3 1ebe 70bf 57bf 8af8 e53c 5b17 14be
00000080: a42b f63c 25b4 c13e 5519 b23d 31f6 a43d
00000090: 8a7f a93c e903 a9bd 7d20 07bf 5adf ccbe
000000a0: b939 8dbd 2a5e 22bd 6e28 43bd 24fe 6ebe
000000b0: ae6d dbbe 4a99 bb3e decc e5be 5eb8 b83e
000000c0: 6520 1dbe a11c 0abf 73f9 3ebe 116d b1be
000000d0: 7aed 07be f530 71bd a7b2 403e f8c5 403d
000000e0: fdfa c0bc 5d7d c1bd 102a 443e dbfd d43d
000000f0: cfd5 18bd eef1 8cbd c707 a13c cfc9 12be
00000100: ffb3 7c3e 1b1b 733e eba1 5f3e 97e6 24bd
00000110: 3cdc e6be aa68 633e 089e 003e a587 4d3e
00000120: a11e 0fbf 2621 86be de47 5d3f bba8 463f
00000130: d23a 453f 257c eabd 0ce7 923f 3e45 3c3d
00000140: 19a9 6bbe d8d5 953e a851 3dbe 84e9 a5be
00000150: 2e84 273f 44e7 3e3e 0dac eb3b 3245 653f
00000160: aa48 6e3f e38d 01be 80b8 a63d 2358 0bbf
00000170: ec8b d53e a13a 99bd b519 4b3e 83fe 6f3e
00000180: 7c0d e63e eccd b63e 6c58 a8be 70c0 4a3e
00000190: 257b 9cbe 40ff f23d ac3b edbe 9311 5bbd
000001a0: 6f94 a93e e6b7 253e cec6 453e e006 103e
000001b0: 1cff f23d 60b2 663f 324f 07bf 6587 833d
000001c0: d1be bb3c fc47 a1bd 5964 9abd 6230 983e
000001d0: 24be dbbd c266 07bd 2007 513e d090 bc3d
000001e0: f94f d0bd 6cdb 0abe 0d18 c0be 0f54 4a3e
000001f0: 448e 033e 4b8b 613e a2bc 4bbd fbb4 103d
00000200: 92f6 9e3e a615 423e fcac 8c3d 61a0 00be
00000210: 9955 34bd 08d8 d0be 3e31 26bf 19bd f0be
00000220: 2618 3fbe 0a7c b7be 19e6 ea3e f425 663f
00000230: dfe1 00be fcb3 0d3e ad5e aebe e69d 4ebe
00000240: 93b9 6bbd f5aa 5dbe ea6a 943e 613c e9be
00000250: 92d6 333e 6012 c13e 53b8 0fbe ef10 bf3e
00000260: 5029 723e b3ae 48be ecbc 14bd 4771 08bf
00000270: 9c30 3d3d 7ad4 55bf df4e d4bd 320e 723d
00000280: f0b5 a3be c55a ab3d abab 173d 10e1 32be
00000290: f0e1 823d 72a3 933d 7509 76bf b837 cdbe
000002a0: 9a9b bebc 979d 53be c1dd fd3d 46f2 cf3b
000002b0: ab7f 14be 3c41 823e 57d7 8ebe 19c0 233e
000002c0: cf27 92bb b580 6f3c a083 703e 0707 72bd
000002d0: b3cf acbc 6209 61bd c7f0 993e 5d04 0fbe
000002e0: 8519 73bd e237 33be ddbe f03e 9e0e 963e
000002f0: 602e 4d3e 2c52 193e fc74 f2be 4d9e 5dbe
00000300: 685f 1b3d a1f9 e53d 43b7 42be 9ee4 6ebe
00000310: fa88 92bd 0f28 d33e ebef e13e 889b 7a3e
00000320: f872 82be db63 fe3d 15f6 e73e b23e f83e
00000330: b08a c03e 76ed 7d3e 55ce 303f defd 9c3d
00000340: 85a1 723e f9ac bc3e c5a2 a53e 711c dbbe
00000350: cb39 883e 1767 863d 3182 84bd 0637 033f
00000360: 8bf5 223f 5061 6abe 12cb 1cbe d4e6 023e
00000370: c091 513d 9215 d03e 15a9 063c 7bbd 583e
00000380: acad 8d3e 9aea 323e 42b9 95bd 20be 5cbe
00000390: 1837 cd3d 13da 9a3d 7a40 4b3e eb8f 6abe
000003a0: 969e b1be fc76 b33e 81a4 11be f528 b83e
000003b0: 3be7 0ebe a4a5 ca3e fd3f 913d aaf4 143e
000003c0: 502a 80be 2bec 413e 7d33 edbd a4c3 ea3e
000003d0: d269 053e 6e98 04bc f877 c33d eed7 d33d
000003e0: ba79 493e f5b2 fabd 259c a0be 59ab 9f3e
000003f0: 9709 cabe ce16 723e e12e 233e 22a6 7e3d

queue_encoder.2.bias f4 [32]
0.010280109 -0.3850843 -0.06356195 -0.3820119 -0.08372224 -0.091238074 0.057552736 -0.13986133
-0.36023957 -0.13912232 0.124300934 0.023832886 0.13117689 -0.02774217 0.037171513 -0.21991752
-0.14789928 -0.14239803 0.17813982 0.61181206 0.15664287 0.098105274 -0.034530178 0.1269847
-0.12481193 0.12549233 -0.27247494 0.05424071 0.26163608 -0.076380715 0.2965154 0.02284308
00000000: e76d 283c c529 c5be c52c 82bd 1097 c3be
00000010: 9176 abbd 07db babd 6bbc 6b3d cf37 0fbe
00000020: 5271 b8be 1576 0ebe 7d91 fe3d 2f3d c33c
00000030: 3c53 063e 8c43 e3bc 2841 183d 0f32 61be
00000040: e972 17be cad0 11be 496a 363e b79f 1c3f
00000050: fd66 203e 6beb c83d 846f 0dbd 4708 023e
00000060: 669d ffbd 1081 003e d681 8bbe 822b 5e3d
00000070: 2af5 853e 7e6d 9cbd ded0 973e 6921 bb3c

host_encoder.0.weight f4 [32, 2]
-0.005808324 -0.008870358 0.00053428917 0.0046696663 0.010199786 0.0027968977 -1.1007321 -0.9691498
0.057631217 0.3127897 -1.7446996 -0.023563156 -0.89126694 -1.1440061 -0.10546578 0.074872226
0.00806553 -0.000903169 -0.005985238 0.0034114183 0.2569812 0.145155 0.08519594 0.528443
-1.1460409 0.001668288 0.28544182 -0.045358296 -0.8958126 0.63870454 0.027410239 0.4949995
-0.03160478 -1.5562795 -0.11275138 0.12967327 0.20900486 -0.0758018 -1.6742016 -1.1058117
0.039058764 0.3282112 0.17118758 -0.08530853 0.40311766 -1.0061691 -1.0692056 0.33512965
-0.8819543 0.33723155 -0.025494656 -0.0018688184 0.6946521 -2.4856572 0.40251368 -0.031085806
-0.32829788 0.39218062 0.09888174 0.58067507 -0.004174405 0.0027505725 -0.008237633 -0.005659948
00000000: c153 bebb fa54 11bc 8a0f 0c3a 0004 993b
00000010: 011d 273c 284c 373b cae4 8cbf 341a 78bf
00000020: b60e 6c3d f925 a03e 5152 dfbf 8507 c1bc
00000030: 122a 64bf cb6e 92bf 71fe d7bd 9c56 993d
00000040: 4925 043c a5c2 6cba d11f c4bb 1a92 5f3b
00000050: 0a93 833e 83a3 143e 367b ae3d 0a48 073f
00000060: 78b1 92bf 75aa da3a 6e25 923e 9fc9 39bd
00000070: f953 65bf 2482 233f 708b e03c 9370 fd3e
00000080: 0474 01bd 2b34 c7bf 32ea e6bd 12c9 043e
00000090: 5f05 563e f93d 9bbd 3d4c d6bf 3d8b 8dbf
000000a0: 15fc 1f3d 4c0b a83e cc4b 2f3e 3db6 aebd
000000b0: 7065 ce3e 26ca 80bf bbdb 88bf 1d96 ab3e
000000c0: c2c7 61bf 9da9 ac3e 2bda d0bc 24f3 f4ba
000000d0: b8d4 313f 0215 1fc0 4616 ce3e a9a7 febc
000000e0: a916 a8be e6cb c83e 8282 ca3d 1fa7 143f
000000f0: 72c9 88bb f342 343b 23f7 06bc 1677 b9bb

host_encoder.0.bias f4 [32]
0.008368368 -0.0053583523 -0.0014631406 0.08277078 -0.027647356 0.05559813 -0.77351224 0.008146094
-0.00032126653 0.0021960807 -0.005432948 -0.119228825 0.16652529 -0.013571573 0.004809237 -0.09528282
0.22515687 -0.0063269553 0.00096596224 0.20159808 -0.1338271 -0.013354261 -0.21943924 0.08707322
0.031431332 0.0016684283 0.21890475 -0.013022752 -0.062119998 -0.19955085 0.00031965532 0.0081705665
00000000: 7b1b 093c 1e95 afbb dac6 bfba ba83 a93d
00000010: b57c e2bc ddba 633d e604 46bf 3277 053c
00000020: aa6f a8b9 1fec 0f3b df06 b2bb 3e2e f4bd
00000030: 9b85 2a3e 4e5b 5ebc ce96 9d3b a423 c3bd
00000040: 868f 663e 5952 cfbb a138 7d3a ba6f 4e3e
00000050: f909 09be d5cb 5abc aeb4 60be 7253 b23d
00000060: 24be 003d 2aaf da3a 9128 603e 615d 55bc
00000070: 8a71 7ebd 0f57 4cbe 6997 a739 d7dd 053c

host_encoder.2.weight f4 [32, 32]
0.39051104 -0.2958467 0.2630534 0.4388579 -0.13765107 -0.25760388 -0.118876345 0.043127384
-0.008850206 -0.2930991 -0.41625828 0.0052295513 0.17781702 0.06284597 -0.3925378 -0.09354744
-0.54115427 -0.22452076 0.2789972 -0.16438049 -0.6954251 0.037327968 -0.17605214 -0.385879
-0.51593244 0.53978324 -0.5503815 0.11646047 -0.36969185 -0.48792338 -0.08959389 -0.08315094
0.10821524 0.35830823 0.25442627 -0.013100417 -0.02451914 -0.4528385 0.6424408 0.2284346
-0.028403386 0.19333565 -0.023610584 -0.013929398 -0.20005105 -0.055303037 0.40765673 0.3229097
0.37582058 -0.025689151 -0.545174 0.241074 0.052912 0.30978552 0.13171652 -0.22156991
0.25859404 0.105760254 0.64494014 -0.20118135 0.40860632 -0.14924935 -0.18638569 -0.22417751
0.13302095 0.028542966 0.032036867 -0.40585634 0.39863595 0.078663394 -0.08903796 -0.106766336
0.2992383 0.33809587 -0.5949763 -0.16154194 0.3530489 0.3823496 0.055602506 0.105659954
-0.4054196 0.0061239824 0.24749236 -0.21830592 -0.042044412 0.41044587 -0.21096782 0.34839168
0.18985805 -0.17048194 0.23744263 -0.23496659 0.011656113 0.09144303 -0.061043933 0.33385056
0.19736104 -0.03562874 -0.21576251 0.0830988 -0.056653965 -0.043559577 -0.046712607 -0.15801728
-0.077972874 0.13622828 0.28540084 -0.3505129 -0.27818772 0.3893918 -0.27024746 0.1788097
0.024700481 0.2463717 0.24571122 0.6460037 0.45207244 0.1664155 -0.07610596 -0.39549124
-0.26655793 0.72135156 0.05194152 -0.10126988 -0.21636255 0.02256424 0.31267712 0.03793164
-0.13692015 0.19804989 -0.06788266 0.24685696 -0.43349102 -0.5766182 -0.19675225 -0.2763951
0.104764156 -0.06190644 -0.45810112 -0.3730771 0.09457856 -0.57403946 -0.3641332 -0.45433772
-0.1898897 0.23249578 0.46782556 -0.006390528 -0.25357994 -0.12469971 -0.40429825 -0.3842623
0.4988681 -0.1272188 -0.050190594 -0.09409105 -0.20140298 -0.33285493 -0.33460474 -0.117212325
0.041034058 -0.21725385 -0.07368862 0.09920388 -0.017658394 0.13781056 -0.2398943 -0.05956264
0.14687158 -0.15172434 0.25489017 0.634378 -0.8232171 0.3261183 -0.34405336 0.115223415
-0.03746839 0.1271612 -0.05222009 1.0119897 -0.08269194 0.02437677 -0.3275281 -0.832111
-0.25503618 -0.09834715 -0.7837679 -0.1985083 -0.5151346 0.27874672 0.1696729 0.16237606
-0.29405403 0.35062566 0.18268193 -0.47399867 0.20125961 -0.03254547 -0.122231685 0.0928176
0.41602948 0.04247299 0.19447853 -0.1462272 0.19114593 0.09947932 0.09895194 -0.42088607
-0.21142636 -0.1941591 -0.20121233 -1.047639 -0.28054804 -0.42643782 0.1314251 0.47332358
0.19401616 0.15936993 -0.10925434 -0.2736844 -0.036018662 -0.6573174 -0.0025988796 -0.08096921
-0.023355696 0.16274028 -0.21393159 -0.43544212 0.21850668 -0.783876 0.73451674 0.07401233
-0.141987 0.4257119 -0.30748582 0.10492335 -0.51160675 0.16781597 -0.41611227 -0.3038904
-0.83786535 -0.24270627 0.2840273 0.45968273 0.1635448 -0.12351026 -0.24000257 -0.56870025
-0.32515353 0.1801163 -0.59348845 0.37097016 -0.29400235 0.011139021 0.2667484 0.058931228
00000000: 10f1 c73e 3879 97be efae 863e fcb1 e03e
00000010: 67f4 0cbe a8e4 83be 7175 f3bd 57a6 303d
00000020: 7400 11bc 1611 96be ce1f d5be a85c ab3b
00000030: aa15 363e 63b5 803d b7fa c8be cd95 bfbd
00000040: 1689 0abf c5e8 65be b9d8 8e3e 5c53 28be
00000050: 6107 32bf 36e5 183d 0347 34be ef91 c5be
00000060: 2614 04bf 3c2f 0a3f cde5 0cbf d482 ee3d
00000070: 4048 bdbe 18d1 f9be 007d b7bd 0a4b aabd
00000080: f49f dd3d 2d74 b73e 2944 823e 22a3 56bc
00000090: 5ddc c8bc 73da e7be 0077 243f c3ea 693e
000000a0: 38ae e8bc c8f9 453e fc6a c1bc 2138 64bc
000000b0: 2fda 4cbe 7085 62bd 62b8 d03e 6c54 a53e
000000c0: 8e6b c03e 0e72 d2bc 8690 0bbf 1adc 763e
000000d0: 41ba 583d 359c 9e3e b2e0 063e 39e3 62be
000000e0: 7066 843e d598 d83d cc1a 253f 7c02 4ebe
000000f0: d934 d13e d2d4 18be e4db 3ebe ca8e 65be
00000100: a536 083e f0d2 e93c 1739 033d 67cc cfbe
00000110: 031a cc3e 461a a13d 8959 b6bd 4fa8 dabd
00000120: c335 993e e71a ad3e 5e50 18bf 406b 25be
00000130: d3c2 b43e 54c3 c33e 74bf 633d 3f64 d83d
00000140: 2893 cfbe b0ab c83b a36e 7d3e 968b 5fbe
00000150: c336 2cbd f625 d23e f307 58be 6560 b23e
00000160: 266a 423e d192 2ebe 2924 733e 159b 70be
00000170: 48f9 3e3c 7c46 bb3d 3409 7abd 76ee aa3e
00000180: 0319 4a3e 71ef 11bd d9f0 5cbe b42f aa3d
00000190: fd0d 68bd 876b 32bd b855 3fbd 48cf 21be
000001a0: 3eb0 9fbd 6d7f 0b3e 0f20 923e 6d76 b3be
000001b0: 9f6e 8ebe 5d5e c73e e05d 8abe e419 373e
000001c0: aa58 ca3c dd48 7c3e b99b 7b3e 8060 253f
000001d0: 0a76 e73e d368 2a3e 71dd 9bbd d47d cabe
000001e0: 487a 88be 7faa 383f a2c0 543d 9566 cfbd
000001f0: 258e 5dbe a4d8 b83c 3717 a03e 355e 1b3d
00000200: cc34 0cbe 97cd 4a3e 1006 8bbd 12c8 7c3e
00000210: 89f2 ddbe 409d 13bf 6c79 49be a983 8dbe
00000220: 978e d63d 9b91 7dbd 3b8c eabe f603 bfbe
00000230: 67b2 c13d 40f4 12bf ab6f babe f49e e8be
00000240: 7272 42be 6013 6e3e d586 ef3e a267 d1bb
00000250: 3bd5 81be 9062 ffbd 2e00 cfbe 07be c4be
00000260: a46b ff3e a545 02be a794 4dbd cfb2 c0bd
00000270: 953c 4ebe f66b aabe 5051 abbe 040d f0bd
00000280: 5413 283d cb77 5ebe 0fea 96bd 672b cb3d
00000290: 56a8 90bc 361e 0d3e daa6 75be f4f7 73bd
000002a0: 8165 163e a05d 1bbe f780 823e 9966 223f
000002b0: 5bbe 52bf faf8 a63e c327 b0be 41fa eb3d
000002c0: 7478 19bd 8c36 023e bce4 55bd e188 813f
000002d0: 645a a9bd cbb1 c73c c3b1 a7be 3a05 55bf
000002e0: 1a94 82be 3b6a c9bd 03a5 48bf c345 4bbe
000002f0: dcdf 03bf e4b7 8e3e bcbe 2d3e e945 263e
00000300: 408e 96be 3585 b33e f910 3b3e f4af f2be
00000310: 0017 4e3e 664e 05bd 9b54 fabd 2717 be3d
00000320: d101 d53e 28f8 2d3d 6125 473e 95bc 15be
00000330: c2bb 433e d0bb cb3d 51a7 ca3d 617e d7be
00000340: 2780 58be a5d1 46be 9b0a 4ebe 0919 86bf
00000350: fea3 8fbe 0f56 dabe 4d94 063e 7857 f23e
00000360: 2cac 463e df31 233e bdc0 dfbd 5d20 8cbe
00000370: 4e88 13bd f445 28bf f751 2abb 2fd3 a5bd
00000380: 7254 bfbc 63a5 263e e210 5bbe 45f2 debe
00000390: 37c0 5f3e 19ac 48bf 4a09 3c3f c793 973d
000003a0: 0a65 11be e9f6 d93e c86e 9dbe 0ee2 d63d
000003b0: a9f8 02bf f3d7 2b3e ab0c d5be 8697 9bbe
000003c0: 587e 56bf fe87 78be 076c 913e 895b eb3e
000003d0: 4a78 273e f2f2 fcbd 3cc3 75be 5796 11bf
000003e0: 867a a6be 6870 383e dcee 17bf cdef bd3e
000003f0: 7a87 96be 7180 363c 3f93 883e df61 713d

host_encoder.2.bias f4 [32]
0.001485359 0.16924372 -0.06897111 -0.03670636 -0.13628598 0.0507415 -0.07811383 0.02688163
-0.02661327 -0.0056315204 0.10930101 -0.13941738 0.03380975 0.00422395 0.03400027 0.064710334
-0.18114288 -0.0561119 -0.041287802 0.087650605 0.09400929 -0.00353539 0.0176381 -0.09583752
0.25898686 -0.045974284 -0.0051122587 0.0086128125 0.12090558 0.023395339 -0.028180314 0.17520736
00000000: 61b0 c23a 3a4e 2d3e ba40 8dbd 6859 16bd
00000010: 8d8e 0bbe 52d6 4f3d 25fa 9fbd dd36 dc3c
00000020: 1304 dabc 9e88 b8bb 35d9 df3d 6ec3 0ebe
00000030: 187c 0a3d 1069 8a3b de43 0b3d da86 843d
00000040: 857d 39be 97d5 65bd 661d 29bd 2982 b33d
00000050: f187 c03d 00b2 67bb c77d 903c 7646 c4bd
00000060: ed99 843e 884f 3cbd bc84 a7bb c11c 0d3c
00000070: 589d f73d 95a7 bf3c 67da e6bc 8f69 333e

job_queue_attention.in_proj_weight f4 [96, 32]
0.09191463 0.1846314 0.0053905607 -0.0512505 -0.035017468 -0.07727875 0.10395841 -0.21533266
0.18422946 -0.007950792 -0.13124795 -0.077228524 -0.1329026 -0.18812674 0.021785365 -0.0491704
-0.09718776 -0.036872476 -0.029850934 0.09538512 -0.17513439 -0.0050763804 -0.0029547568 -0.17699024
0.19957519 -0.10263745 0.17177181 0.16594887 0.00586365 0.16120952 -0.16292058 -0.023798926
-0.17859419 -0.13180088 0.06840371 0.16133058 -0.12848075 -0.087481454 -0.12139541 -0.018810451
-0.17983462 -0.17136587 -0.047102306 0.20802039 0.037296504 -0.09012208 0.1447366 0.15979387
0.14796929 0.0020151336 -0.023455529 0.14062746 0.11638365 0.16416286 0.15593132 -0.061455134
0.18337739 0.04235949 0.21555002 0.21538433 0.18157844 0.14412016 0.16999523 -0.101761706
-0.08428486 -0.050456982 -0.11081418 0.15906912 0.020239657 -0.054835267 -0.09700206 -0.1927586
0.015534546 0.19031727 0.14235918 0.17160012 0.14792535 0.09110574 -0.006234585 -0.16016597
0.1591843 -0.15235227 -0.1301927 0.0868772 0.11890406 -0.11266728 0.1370184 -0.2026214
0.051593687 0.09558037 0.040214945 -0.12182963 -0.14621636 0.1730414 0.047697578 -0.09301252
0.20853707 -0.045191728 -0.040036317 0.05572732 0.18025249 -0.096377805 0.0010915124 -0.09719955
-0.09806474 -0.029512519 -0.00022304629 0.11609061 -0.1617171 0.1256397 0.16915007 -0.024681896
-0.019394187 0.053391505 -0.19821583 0.15930945 -0.037874352 0.008707348 0.10264398 0.09015187
-0.100178316 -0.15902743 -0.20886509 -0.18078913 -0.0455136 -0.16807893 -0.021861272 -0.114383616
0.12267977 0.14809246 0.18316552 -0.14197458 -0.15279117 0.07510543 -0.04944171 0.1641943
-0.19862227 0.20077422 -0.15017278 -0.17361975 -0.022958694 -0.09591341 -0.13648383 0.123605244
0.16721275 0.12054183 0.026426932 -0.031155478 -0.118128896 0.2063573 -0.11792123 -0.18982783
0.1836888 -0.017460922 0.14547524 -0.07186109 0.16863053 -0.15267415 0.13028997 0.16850956
-0.0030268945 0.1435793 0.007682863 -0.19822866 0.09485021 -0.16831198 0.006804047 -0.194753
-0.10308251 -0.064510755 -0.08413829 -0.21327099 -0.10753572 -0.20060928 -0.18100253 -0.21600366
-0.1247221 -0.048515588 0.19504528 -0.15231508 -0.16463928 -0.1762497 0.20254995 -0.027687937
-0.0576036 0.11870876 -0.12792256 -0.057219036 0.19844425 0.11531431 -0.16795088 -0.059505224
0.021260863 0.07822506 -0.09960771 0.1515959 0.0033858023 -0.1871963 0.058014877 -0.21017526
0.015073046 -0.21413094 -0.06175729 -0.050317224 -0.19448067 -0.06123916 0.007270452 -0.12198293
0.030725155 0.114329234 0.02555222 -0.21251382 -0.0006841342 -0.10146446 0.061713208 -0.17371698
-0.14976494 -0.007187423 0.12484684 -0.05784048 -0.011416863 -0.021441635 -0.16940482 -0.01712945
-0.00609351 0.035836816 0.09690311 0.06447782 0.1207393 -0.04127466 -0.093528606 0.18386868
0.17262566 0.11804197 0.15771705 0.10603866 0.19138592 0.18833856 -0.17603318 -0.20402858
-0.11232848 0.16553709 0.19548845 0.014123486 -0.16007972 -0.10175765 0.102923214 0.20167467
0.041934792 -0.14239015 0.20542082 0.19011387 -0.09498022 -0.11698639 0.12447139 -0.15645447
00000000: bd3d bc3d 0410 3d3e 4da3 b03b 0bec 51bd
00000010: 7a6e 0fbd 5244 9ebd 26e8 d43d 2a80 5cbe
00000020: a6a6 3c3e 0a44 02bc dd65 06be fd29 9ebd
00000030: 9f17 08be 4ca4 40be 3977 b23c e766 49bd
00000040: 600a c7bd 9807 17bd f289 f4bc 4659 c33d
00000050: 6e56 33be c457 a6bb 98a4 41bb ee3c 35be
00000060: 705d 4c3e 9533 d2bd f3e4 2f3e 80ee 293e
00000070: dc23 c03b 1c14 253e a7d4 26be f7f5 c2bc
00000080: 65e1 36be cff6 06be 3f17 8c3d d833 253e
00000090: 7590 03be 7a29 b3bd 289e f8bd 6018 9abc
000000a0: 9126 38be 897a 2fbe 59ee 40bd 4c03 553e
000000b0: 38c4 183d ed91 b8bd d535 143e 01a1 233e
000000c0: 4385 173e 5510 043b cf25 c0bc a500 103e
000000d0: 8d5a ee3d 4f1a 283e 76ac 1f3e 61b8 7bbd
000000e0: 48c7 3b3e 2581 2d3d 25b9 5c3e b68d 5c3e
000000f0: b3ef 393e 3c94 133e 3b13 2e3e 7168 d0bd
00000100: 8a9d acbd fbab 4ebd 8bf2 e2bd 04e3 223e
00000110: a3cd a53c f29a 60bd 04a9 c6bd 8362 45be
00000120: 9c84 7e3c 88e2 423e 9bc6 113e f1b7 2f3e
00000130: be79 173e a595 ba3d 7d4b ccbb 8c02 24be
00000140: 3601 233e 3c02 1cbe 3c51 05be acec b13d
00000150: f983 f33d 1abe e6bd 8d4e 0c3e fc7b 4fbe
00000160: e753 533d a4bf c33d 6db8 243d d081 f9bd
00000170: beb9 15be c431 313e 895e 433d 597d bebd
00000180: be8a 553e f61a 39bd 1ffd 23bd 5542 643d
00000190: 1c94 383e ba61 c5bd 1411 8f3a 8f10 c7bd
000001a0: 2bd6 c8bd 3dc4 f1bc 88e1 69b9 eac0 ed3d
000001b0: 2b99 25be b2a7 003e ad35 2d3e b031 cabc
000001c0: 8fe0 9ebc 0db1 5a3d 17f9 4abe 0422 233e
000001d0: 2322 1bbd 44a9 0e3c 0237 d23d 8ba1 b83d
000001e0: 4a2a cdbd 16d8 22be bbe0 55be c920 39be
000001f0: 786c 3abd e21c 2cbe 6916 b3bc f541 eabd
00000200: 883f fb3d 8da5 173e be8f 3b3e c961 11be
00000210: 4a75 1cbe e0d0 993d 6483 4abd 8d22 283e
00000220: a363 4bbe c297 4d3e e5c6 19be 60c9 31be
00000230: df13 bcbc 406e c4bd 6bc2 0bbe bf24 fd3d
00000240: d239 2b3e a3de f63d 4b7d d83c c639 ffbc
00000250: 90ed f1bd 544f 533e b080 f1bd 3a62 42be
00000260: eb18 3c3e 350a 8fbc 76f7 143e e82b 93bd
00000270: 7bad 2c3e 9d56 1cbe bc6a 053e c58d 2c3e
00000280: dd5e 46bb 7406 133e 87c0 fb3b 74fc 4abe
00000290: d440 c23d fa59 2cbe 7cf4 de3b 556d 47be
000002a0: ec1c d3bd 371e 84bd b250 acbd b663 5abe
000002b0: b03b dcbd 856c 4dbe ba58 39be 1030 5dbe
000002c0: 4d6e ffbd 48b8 46bd f3b9 473e 7cf8 1bbe
000002d0: 3397 28be cd7a 34be 4169 4f3e d0d1 e2bc
000002e0: c1f1 6bbd 941d f33d 22fe 02be 825e 6abd
000002f0: f834 4b3e e929 ec3d 51fb 2bbe c0bb 73bd
00000300: 432b ae3c 7634 a03d 21ff cbbd f53b 1b3e
00000310: 56e4 5d3b 63b0 3fbe 02a1 6d3d 2f38 57be
00000320: f0f4 763c 2445 5bbe 36f5 7cbd 6f19 4ebd
00000330: f125 47be ead5 7abd f93c ee3b 30d2 f9bd
00000340: 52b3 fb3c 7225 ea3d e452 d13c 399d 59be
00000350: 7857 33ba 99cc cfbd fdc6 7c3d dde2 31be
00000360: fb5b 19be 7984 ebbb b3af ff3d 24ea 6cbd
00000370: cb0d 3bbc 5ea6 afbc 7578 2dbe 0f53 8cbc
00000380: 11ac c7bb a0c9 123d 2375 c63d f30c 843d
00000390: 2b46 f73d 9e0f 29bd ed8b bfbd 1248 3c3e
000003a0: c8c4 303e fdbf f13d 9480 213e cc2a d93d
000003b0: acfa 433e d3db 403e 0b42 34be deec 50be
000003c0: 790c e6bd 8e82 293e 202e 483e 3266 673c
000003d0: f0eb 23be 5166 d0bd 68c9 d23d ce83 4e3e
000003e0: d1c3 2b3d b9ce 11be d659 523e 36ad 423e
000003f0: fd84 c2bd 8f96 efbd dbea fe3d 9a35 20be

job_queue_attention.in_proj_bias f4 [96]
0.0 0.0 0.0 0.0 0.0 0.0 0.0 0.0
0.0 0.0 0.0 0.0 0.0 0.0 0.0 0.0
0.0 0.0 0.0 0.0 0.0 0.0 0.0 0.0
0.0 0.0 0.0 0.0 0.0 0.0 0.0 0.0
0.0 0.0 0.0 0.0 0.0 0.0 0.0 0.0
0.0 0.0 0.0 0.0 0.0 0.0 0.0 0.0
0.0 0.0 0.0 0.0 0.0 0.0 0.0 0.0
0.0 0.0 0.0 0.0 0.0 0.0 0.0 0.0
0.23345384 0.041789822 -0.3096265 -0.009329703 0.055615734 -0.0072211246 0.22508627 -0.381209
-0.2943973 0.25507575 -0.04986429 0.12296541 0.04372882 -0.01000409 -0.35428485 0.3409743
-0.3721074 0.046454977 -0.11605517 -0.3341006 -0.33737144 1.0923363 -0.21383762 0.10609152
-0.4098006 -0.64841115 0.06851064 0.07599904 -0.10533577 -0.31799522 -0.5528441 -0.12427986
00000000: 0000 0000 0000 0000 0000 0000 0000 0000
00000010: 0000 0000 0000 0000 0000 0000 0000 0000
00000020: 0000 0000 0000 0000 0000 0000 0000 0000
00000030: 0000 0000 0000 0000 0000 0000 0000 0000
00000040: 0000 0000 0000 0000 0000 0000 0000 0000
00000050: 0000 0000 0000 0000 0000 0000 0000 0000
00000060: 0000 0000 0000 0000 0000 0000 0000 0000
00000070: 0000 0000 0000 0000 0000 0000 0000 0000
00000080: 0000 0000 0000 0000 0000 0000 0000 0000
00000090: 0000 0000 0000 0000 0000 0000 0000 0000
000000a0: 0000 0000 0000 0000 0000 0000 0000 0000
000000b0: 0000 0000 0000 0000 0000 0000 0000 0000
000000c0: 0000 0000 0000 0000 0000 0000 0000 0000
000000d0: 0000 0000 0000 0000 0000 0000 0000 0000
000000e0: 0000 0000 0000 0000 0000 0000 0000 0000
000000f0: 0000 0000 0000 0000 0000 0000 0000 0000
00000100: 860e 6f3e ce2b 2b3d 5d87 9ebe 9cdb 18bc
00000110: 53cd 633d 2f9f ecbb 047d 663e d32d c3be
00000120: 3ebb 96be 4a99 823e 7f3e 4cbd 4ad5 fb3d
00000130: fe1c 333d 32e8 23bc d364 b5be 2f94 ae3e
00000140: dc84 bebe 9347 3e3d 55ae edbd 3c0f abbe
00000150: f3bb acbe add1 8b3f 40f8 5abe 8346 d93d
00000160: 62d1 d1be 46fe 25bf 4e4f 8c3d 62a5 9b3d
00000170: 48ba d7bd 45d0 a2be 3187 0dbf 7086 febd

job_queue_attention.out_proj.weight f4 [32, 32]
0.42624792 -0.16568947 0.14811395 0.12406979 -0.35923925 0.36946726 0.008419309 -0.19837008
0.05649142 -0.6220211 -0.86329734 0.0076499954 -0.33299354 0.554258 -0.2859075 -0.8248377
-0.33440527 -0.29892188 0.3509579 0.3613315 0.4751246 0.19916543 -0.1504604 -0.042247586
-0.9142337 0.41087958 0.15575893 -0.2082016 -0.13122061 0.026862454 0.10881043 0.39679307
-0.113960065 0.21854807 -0.21328503 -0.41566986 -1.1166807 1.3375405 -0.14042403 -0.5968839
0.3165515 -0.8239535 -1.279629 2.0773175 0.49773467 -0.7384203 0.007700461 -1.3731598
0.01845695 -0.29612494 -0.60548973 0.5377139 0.39833608 0.6443723 0.41568717 -0.31005645
-0.9466215 0.00065775716 -0.91406405 -1.2410237 0.54205436 0.2176729 -0.37212494 0.24611418
-0.009233175 -0.1002506 0.6915337 -0.44857055 0.83186215 0.39824507 0.30673787 -0.30387318
-0.43129724 0.27483094 -0.37395534 0.5589966 -0.3210544 -1.0316694 -0.67962563 -0.25595394
-0.5448152 0.51565397 -0.22748902 -0.30818602 -0.06538568 0.48902193 -0.21703105 0.03922527
-0.38884625 -0.42516825 -0.3405248 0.4913157 -0.3894413 0.23359461 -0.10251633 -0.13581601
0.35112903 -0.08756238 0.6280825 -0.14395712 0.2861084 0.019236518 0.4821812 -0.5949673
-0.31890857 -0.049201567 -0.05341412 1.0222784 0.06372844 0.02756578 -0.0106201535 0.3372864
-0.8857379 0.4879262 0.16974016 -0.045515165 0.21861228 -0.3141821 -0.18907472 0.23080146
-0.72737277 -0.4253055 -0.16458511 0.054391216 -0.09744018 -0.077200204 0.037152845 0.20787355
-0.067620866 -0.6196899 -0.013767033 -0.15189499 0.66516703 -0.89720696 -0.4523908 0.08257654
-0.4267923 0.5771992 0.7321808 -1.1813935 0.11575877 0.27917838 -0.25982308 1.405404
0.01505054 0.20052257 0.5211714 -0.7721056 -0.2500369 -0.5729001 0.047325402 0.37978828
0.758063 -0.62174183 0.6482035 0.9413563 0.26566964 -0.81164557 0.53089094 -0.41807136
-0.593194 -0.19274428 -0.2476039 -0.004458005 -0.6527173 0.0047848243 -0.27474037 -0.0073924754
0.18590759 -0.042984046 -0.082066685 -0.29294363 -0.19808447 0.2487357 0.7782299 -0.26100966
-0.10645055 -0.3943081 -0.12070912 0.02098969 0.09160453 -0.06831127 0.06971603 0.1789515
0.76688796 0.2782179 -0.40989196 0.26789513 -0.10080023 0.069571845 -0.30697033 0.09459454
0.44800603 -0.10486322 0.15947431 -0.161586 0.31977007 -0.6157505 0.0035957242 0.119908266
-0.2836611 -0.2823614 -0.12127723 0.68543065 0.10668236 -0.48184112 -0.38228443 0.21883954
-0.40838486 -0.20291315 0.027642561 0.26375628 0.10098712 0.08751007 -0.25368977 -0.2106983
0.42479876 -0.23933613 0.046981886 0.112578295 0.5176322 0.3430065 -0.35335818 0.18679059
0.33113894 0.038295135 0.4048035 -0.20166878 0.5272107 -0.44909766 0.4426765 0.584025
-0.4727157 -0.24022733 0.40100452 -0.16834185 -0.55563056 0.63280976 -0.5785626 -0.49376506
-0.48817518 0.2568239 0.60749024 0.19143759 -0.54264677 -0.21842767 -0.021762744 0.46689397
-1.7040277 -0.0043172175 0.29729998 0.053913698 -0.067924775 -0.25293854 0.5575356 0.06719733
00000000: 2b3d da3e 80aa 29be 2fab 173e 4d18 fe3d
00000010: 35ee b7be d02a bd3e 24f1 093c 8721 4bbe
00000020: 8c63 673d c63c 1fbf 0e01 5dbf d0ac fa3b
00000030: 217e aabe dae3 0d3f 7862 92be 9028 53bf
00000040: 2b37 abbe 4a0c 99be c1b0 b33e 7100 b93e
00000050: 8843 f33e 06f2 4b3e 4b12 1abe ce0b 2dbd
00000060: 380b 6abf cf5e d23e 457f 1f3e cd32 55be
00000070: b25e 06be a60e dc3c 01d8 de3d 7628 cb3e
00000080: e563 e9bd 11cb 5f3e 6467 5abe aed2 d4be
00000090: 65ef 8ebf 8734 ab3f 51cb 0fbe 62cd 18bf
000000a0: 0a13 a23e 9eee 52bf e2ca a3bf c5f2 0440
000000b0: 14d7 fe3e 1d09 3dbf 2654 fc3b b3c3 afbf
000000c0: 0833 973c b09d 97be 6001 1bbf 9ea7 093f
000000d0: b5f2 cb3e 95f5 243f f3d4 d43e b8bf 9ebe
000000e0: c955 72bf 566d 2c3a 1a00 6abf ddd9 9ebf
000000f0: 13c4 0a3f a5e5 5e3e 2987 bebe 5b05 7c3e
00000100: be46 17bc 3050 cdbd 5a08 313f 0aab e5be
00000110: ebf4 543f c7e6 cb3e bf0c 9d3e 4495 9bbe
00000120: fed2 dcbe a4b6 8c3e 1377 bfbe 671a 0f3f
00000130: 3e61 a4be be0d 84bf f2fb 2dbf 650c 83be
00000140: 0279 0bbf e601 043f e2f2 68be 8fca 9dbe
00000150: ede8 85bd 1561 fa3e 633d 5ebe adaa 203d
00000160: db16 c7be a7af d9be 4459 aebe bb8d fb3e
00000170: da64 c7be 6d33 6f3e 15f4 d1bd 5a13 0bbe
00000180: 2fc7 b33e e853 b3bd 04ca 203f 7f69 13be
00000190: cd7c 923e e795 9d3c 74e0 f63e c74f 18bf
000001a0: fc47 a3be 9587 49bd c4c8 5abd 05da 823f
000001b0: 0e84 823d a1d1 e13c 2700 2ebc ceb0 ac3e
000001c0: b8bf 62bf 76d1 f93e 5dd0 2d3e 1c6e 3abd
000001d0: e6db 5f3e 7adc a0be ce9c 41be 3857 6c3e
000001e0: 1a35 3abf a4c1 d9be 0089 28be 53c9 5e3d
000001f0: b88e c7bd 241b 9ebd 952d 183d cedc 543e
00000200: cf7c 8abd ffa3 1ebf 1f8f 61bc 5c8a 1bbe
00000210: 6348 2a3f 5baf 65bf c49f e7be e41d a93d
00000220: 8584 dabe 54c3 133f 3370 3b3f e737 97bf
00000230: ef12 ed3d 78f0 8e3e 8807 85be 47e4 b33f
00000240: 8a96 763c ca55 4d3e 7d6b 053f b6a8 45bf
00000250: d604 80be 95a9 12bf 48d8 413d 9c73 c23e
00000260: 6b10 423f 792a 1fbf aaf0 253f bafc 703f
00000270: da05 883e 01c8 4fbf 78e8 073f 730d d6be
00000280: 90db 17bf c25e 45be e08b 7dbe 7514 92bb
00000290: 7b18 27bf 04ca 9c3b c5aa 8cbe 943c f2bb
000002a0: 8f5e 3e3e 0a10 30bd 9412 a8bd b5fc 95be
000002b0: a8d6 4abe 92b4 7e3e 133a 473f 0fa3 85be
000002c0: bf02 dabd c0e2 c9be 5836 f7bd 92f2 ab3c
000002d0: 289b bb3d c7e6 8bbd 47c7 8e3d 103f 373e
000002e0: c552 443f 9472 8e3e 5cdd d1be 8d29 893e
000002f0: 5a70 cebd af7b 8e3d 372b 9dbe c8ba c13d
00000300: 0c61 e53e 87c2 d6bd 3c4d 233e cd76 25be
00000310: e7b8 a33e d3a1 1dbf 3ea6 6b3b 7792 f53d
00000320: 073c 91be ac91 90be 3260 f8bd 6278 2f3f
00000330: 487c da3d e1b3 f6be c9ba c3be 7917 603e
00000340: d217 d1be 77c8 4fbe a772 e23c 100b 873e
00000350: 56d2 ce3d 7b38 b33d a0e3 81be 4cc1 57be
00000360: 397f d93e 8814 75be 1470 403d 738f e63d
00000370: 8b83 043f 8c9e af3e 5deb b4be 0846 3f3e
00000380: 0b8b a93e 5cdb 1c3d 6842 cf3e 4382 4ebe
00000390: 48f7 063f 21f0 e5be 7fa6 e23e aa82 153f
000003a0: cb07 f2be 27fe 75be 7750 cd3e ce61 2cbe
000003b0: ce3d 0ebf d2ff 213f ae1c 14bf c6ce fcbe
000003c0: 19f2 f9be 6c7e 833e 7b84 1b3f 3708 443e
000003d0: e6ea 0abf 81ab 5fbe c847 b2bc ba0c ef3e
000003e0: 941d dabf 7277 8dbb b437 983e 9cd4 5c3d
000003f0: 251c 8bbd 2981 81be a7ba 0e3f c19e 893d

job_queue_attention.out_proj.bias f4 [32]
-0.020456566 -0.16837692 0.40359172 0.59108853 0.5991498 -0.6534891 0.6319291 -0.11230562
-0.7258156 -0.54621524 0.5168558 0.56344205 -0.18771681 0.047544777 -0.30397105 0.054863162
-0.009562674 0.56530166 -0.3270476 -0.38959873 -0.39676553 -0.57733214 0.5157346 0.37997884
0.6767903 -0.67891777 0.37188274 0.31903863 0.28075957 -0.03534594 0.39894187 -0.32652903
00000000: 8794 a7bc 006b 2cbe 93a3 ce3e 9451 173f
00000010: e261 193f 104b 27bf 1bc6 213f 7d00 e6bd
00000020: 0dcf 39bf c3d4 0bbf a950 043f bd3d 103f
00000030: d638 40be 50be 423d 18a2 9bbe 32b8 603d
00000040: c3ac 1cbc 9cb7 103f c872 a7be 7c79 c7be
00000050: da24 cbbe 0acc 13bf 2f07 043f 968c c23e
00000060: 2142 2d3f 8ecd 2dbf 6a67 be3e 0859 a33e
00000070: b8bf 8f3e e8c6 10bd 1c42 cc3e d02e a7be
