src/training/best_model.pt (torch, 418453 bytes, 93 tensors)

policy_log_std f4 [30]
000000 fe 1a 66 bf 80 24 66 bf 60 33 66 bf 60 26 66 bf
       -0.89884937 -0.89899445 -0.8992214 -0.89902306
000010 5b 64 66 bf 7e 63 66 bf 7d ce 65 bf 07 26 66 bf
       -0.8999688 -0.89995563 -0.897682 -0.89901775
000020 7b 16 66 bf 6d 56 66 bf 91 d1 65 bf 2c 47 66 bf
       -0.8987805 -0.89975625 -0.897729 -0.8995235
000030 ee 54 66 bf d2 41 66 bf 73 bd 65 bf d2 20 66 bf
       -0.8997334 -0.89944184 -0.897422 -0.8989383
000040 87 06 66 bf 05 09 66 bf d9 20 66 bf 02 6b 66 bf
       -0.8985371 -0.8985751 -0.8989387 -0.9000703
000050 1e 5e 66 bf 3e 4b 66 bf 13 26 66 bf 5b 12 66 bf
       -0.8998736 -0.8995856 -0.89901847 -0.8987176
000060 94 23 66 bf 10 69 66 bf 88 7b 65 bf 63 29 66 bf
       -0.8989804 -0.9000406 -0.8964162 -0.899069
000070 c8 20 66 bf df f4 65 bf
       -0.8989377 -0.8982677

job_encoder.0.weight f4 [32, 3]
000000 42 71 6e 3e 2f 5f cb be dc 7f e1 3b bd 5b 0f bf
       0.23285392 -0.39721057 0.006881697 -0.55999357
000010 aa fe 90 bd 54 97 03 be e5 d4 a8 3d 4d d4 3c 3e
       -0.07079823 -0.12850696 0.082437314 0.18440361
000020 e9 42 85 3d 9d ee c0 bd 47 5d ad 3d ad 7f d8 3e
       0.06506903 -0.09420512 0.08465057 0.4228491
000030 90 2b 16 be a1 74 b8 3e 4a 44 6f be 77 98 97 3d
       -0.14665055 0.3602648 -0.23365894 0.07402127
000040 55 27 a6 3d ff c1 c7 bd bf 3e ea bd c7 95 9e 3e
       0.08112971 -0.09753799 -0.11437749 0.30973646
000050 93 9d 90 3e 9d fb eb bd d4 ec 14 bf e4 42 93 3d
       0.2824522 -0.11522601 -0.5817387 0.07190493
000060 06 bd 9b 3d 33 e6 c7 3e e9 f1 a4 bd c8 0a 03 bf
       0.07604413 0.39042816 -0.08053953 -0.51188326
000070 23 2d eb bc 92 f2 88 3e 48 30 ad be 7b 42 11 be
       -0.028708046 0.26747566 -0.33825898 -0.14185517
000080 40 ba 4e 3e 2e 6c 94 be 3c 63 08 bd 71 49 a2 3e
       0.20188236 -0.28988785 -0.033297762 0.31696656
000090 e8 43 10 3e de 6c f8 be 58 b4 19 3d 77 de 89 3e
       0.14088404 -0.4852056 0.037525505 0.2692754
0000a0 f9 a1 ac bd 5c bd ec 3d 34 38 44 be 66 ac 08 3e
       -0.08429331 0.11559555 -0.19162065 0.13347015
0000b0 0f 6c 26 bf 1b b2 b1 3e b4 62 c8 bd f7 2d be be
       -0.65008634 0.34706196 -0.09784451 -0.37144443
0000c0 9f f3 e5 3d fd e3 03 be 35 6d d1 bd e5 aa 89 3d
       0.11228108 -0.1287994 -0.10225908 0.06722049
0000d0 fd 40 3c 3d 76 cc a3 3e 3b 4d 2f be 8b c6 fa 3c
       0.045960415 0.3199193 -0.17119305 0.03061225
0000e0 a8 af e6 bd 35 d0 3e 3e bf 03 01 be f2 f7 96 bd
       -0.112639725 0.18634112 -0.12599085 -0.073715106
0000f0 96 de 61 bd 3c 98 7f 3e 70 50 c0 be fb d7 33 3e
       -0.055143915 0.24960417 -0.3756137 0.17562859
000100 56 82 66 3d 73 1b d6 3d 75 f8 52 3c 69 ef a4 3e
       0.05627664 0.10454454 0.01287662 0.32213905
000110 f6 25 10 3e e4 c8 cf be 54 42 ac be 0e e0 66 bd
       0.14076981 -0.40582955 -0.33644354 -0.05636602
000120 ee 47 27 3d 84 9d 7e 3e 21 06 47 be 0b a6 b7 bd
       0.040840082 0.24864775 -0.19435932 -0.08967217
000130 e9 26 a2 3e fc 15 2b be f9 59 a6 bd 3a 29 74 bd
       0.3167031 -0.16707605 -0.0812263 -0.05960963
000140 d4 06 5e 3e 16 ba 3d 3e ad 8c ef be ad d1 57 be
       0.21682292 0.18528017 -0.46787015 -0.21076079
000150 17 8e da be e0 46 18 3c ab 15 05 bd 23 e3 e8 be
       -0.4268653 0.009294242 -0.032491367 -0.45485792
000160 4b de 64 be ad dc 8a be 72 33 35 be f9 5d 26 be
       -0.22350423 -0.27121487 -0.17695406 -0.16246785
000170 01 9a 0f bf 9a fb 9e 3e 90 35 34 bd 64 f7 87 bd
       -0.56094366 0.31051332 -0.043996394 -0.06638983

job_encoder.0.bias f4 [32]
000000 00 00 00 00 00 00 00 00 00 00 00 00 00 00 00 00
       0.0 0.0 0.0 0.0
000010 00 00 00 00 00 00 00 00 00 00 00 00 00 00 00 00
       0.0 0.0 0.0 0.0
000020 00 00 00 00 00 00 00 00 00 00 00 00 00 00 00 00
       0.0 0.0 0.0 0.0
000030 00 00 00 00 00 00 00 00 00 00 00 00 00 00 00 00
       0.0 0.0 0.0 0.0
000040 00 00 00 00 00 00 00 00 00 00 00 00 00 00 00 00
       0.0 0.0 0.0 0.0
000050 00 00 00 00 00 00 00 00 00 00 00 00 00 00 00 00
       0.0 0.0 0.0 0.0
000060 00 00 00 00 00 00 00 00 00 00 00 00 00 00 00 00
       0.0 0.0 0.0 0.0
000070 00 00 00 00 00 00 00 00 00 00 00 00 00 00 00 00
       0.0 0.0 0.0 0.0

job_encoder.1.weight f4 [32]
000000 00 00 80 3f 00 00 80 3f 00 00 80 3f 00 00 80 3f
       1.0 1.0 1.0 1.0
000010 00 00 80 3f 00 00 80 3f 00 00 80 3f 00 00 80 3f
       1.0 1.0 1.0 1.0
000020 00 00 80 3f 00 00 80 3f 00 00 80 3f 00 00 80 3f
       1.0 1.0 1.0 1.0
000030 00 00 80 3f 00 00 80 3f 00 00 80 3f 00 00 80 3f
       1.0 1.0 1.0 1.0
000040 00 00 80 3f 00 00 80 3f 00 00 80 3f 00 00 80 3f
       1.0 1.0 1.0 1.0
000050 00 00 80 3f 00 00 80 3f 00 00 80 3f 00 00 80 3f
       1.0 1.0 1.0 1.0
000060 00 00 80 3f 00 00 80 3f 00 00 80 3f 00 00 80 3f
       1.0 1.0 1.0 1.0
000070 00 00 80 3f 00 00 80 3f 00 00 80 3f 00 00 80 3f
       1.0 1.0 1.0 1.0

job_encoder.1.bias f4 [32]
000000 00 00 00 00 00 00 00 00 00 00 00 00 00 00 00 00
       0.0 0.0 0.0 0.0
000010 00 00 00 00 00 00 00 00 00 00 00 00 00 00 00 00
       0.0 0.0 0.0 0.0
000020 00 00 00 00 00 00 00 00 00 00 00 00 00 00 00 00
       0.0 0.0 0.0 0.0
000030 00 00 00 00 00 00 00 00 00 00 00 00 00 00 00 00
       0.0 0.0 0.0 0.0
000040 00 00 00 00 00 00 00 00 00 00 00 00 00 00 00 00
       0.0 0.0 0.0 0.0
000050 00 00 00 00 00 00 00 00 00 00 00 00 00 00 00 00
       0.0 0.0 0.0 0.0
000060 00 00 00 00 00 00 00 00 00 00 00 00 00 00 00 00
       0.0 0.0 0.0 0.0
000070 00 00 00 00 00 00 00 00 00 00 00 00 00 00 00 00
       0.0 0.0 0.0 0.0

job_encoder.3.weight f4 [32, 32]
000000 13 ae 9d 3d 70 20 c9 bd 1a e1 95 bd 22 cf a7 3d
       0.07699218 -0.0982064 -0.07318325 0.08193804
000010 cd 0f 0f be 62 a5 51 3b 56 8c 65 be 84 7a 84 3c
       -0.13970871 0.0031989445 -0.22416815 0.016171701
000020 fa c8 55 3e 38 01 20 be bf 48 f7 3d 02 d5 34 be
       0.20877448 -0.15625465 0.12074422 -0.17659381
000030 7d 8f be 3d 2f d1 e1 3e 69 f4 36 bd 7c 8e 8c 3e
       0.09304712 0.44104907 -0.04466668 0.27452457
000040 3b 95 9c 3d 27 7f cc be 94 70 47 be c5 61 9b be
       0.07645651 -0.3994076 -0.19476539 -0.3034803
000050 9d 7b 65 be ae cf 71 3d a8 fe c8 3c 97 1d 14 3f
       -0.22410436 0.05903595 0.024535492 0.5785765
000060 e5 31 b2 3d 98 3a 15 be 4d 33 e9 3d 92 9e c2 bd
       0.08700923 -0.14573133 0.11386738 -0.09502901
000070 fd 74 38 bf 5a 1a c7 be 6a d5 df bd bf f0 99 3e
       -0.7205351 -0.38887292 -0.109293774 0.30066487
000080 94 02 1a 3d 73 42 59 3e b0 a2 12 bf 29 7f a8 3e
       0.037600115 0.21216755 -0.5727949 0.32909516
000090 49 cb af 3e 5f 31 8d be 29 2f 59 3e e5 6d 92 3e
       0.34334782 -0.2757673 0.21209396 0.28599468
0000a0 b7 4b 19 3e ef 71 e1 bd 6f 2e af be 7f 78 8e 3e
       0.14970289 -0.11008059 -0.34215114 0.27826306
0000b0 eb a3 07 3e b4 ef 06 3f 1c ad 40 3d 1b 81 a0 be
       0.13246123 0.5270951 0.04704009 -0.313485
0000c0 85 44 38 be 56 1b d5 3d 43 cf 88 be 6b 01 55 3e
       -0.17994888 0.104056045 -0.26720628 0.20801322
0000d0 2a 18 3a bd be 4f 2f bc 83 6c af 3d 13 cb 50 3e
       -0.0454332 -0.010700164 0.08565619 0.20389967
0000e0 6d 65 62 bd 99 68 03 3f 94 d9 b2 3d 9f 38 58 3e
       -0.05527251 0.5133148 0.08732906 0.21115349
0000f0 f3 79 ea bc e0 f9 f1 3c 2f d1 22 3e b1 03 05 be
       -0.028622603 0.029538095 0.1590011 -0.1298969
000100 f6 8d 20 bf 59 1e b3 3d a8 51 1f be 67 a7 d0 bd
       -0.62716615 0.08746023 -0.15558493 -0.101881795
000110 76 99 32 bd e9 00 87 3d c8 06 49 3e 44 70 8a bd
       -0.043603383 0.065919705 0.19631493 -0.06759694
000120 f7 ba ba bd ea 60 b9 3d 68 5c 64 bd 4d 71 d5 3d
       -0.09117692 0.09051688 -0.055752188 0.10422001
000130 75 cc de bd bd fd f8 bc 43 9f 39 be c9 55 98 be
       -0.10878841 -0.03039443 -0.1812716 -0.2975295
000140 9f a9 68 3b a0 32 0b bf e8 25 dc 3a d3 38 c0 3e
       0.0035501493 -0.5437412 0.0016795965 0.37543353
000150 1e 6b 0c be 90 6e b2 3e 50 b1 b2 3e fc 1b c1 3d
       -0.13712737 0.34849977 0.34900904 0.09429166
000160 c5 d3 8f 3d 66 f9 c9 be 5a c2 a5 be 99 33 ca 3d
       0.07022814 -0.39448088 -0.3237484 0.09873123
000170 a0 ab 87 be 2c c0 05 3f 4a 00 cd 3d 79 2e f7 3d
       -0.26498127 0.52246356 0.10009821 0.12069411
000180 1c 7f 10 be dc cd 2f be 15 98 e9 bd d3 d4 65 3c
       -0.14110988 -0.17168373 -0.114059605 0.014027792
000190 bd ab cd 3e 44 aa 3c 3e 16 80 99 be 43 5b fa bc
       0.40170088 0.18424326 -0.29980534 -0.030561095
0001a0 01 53 ad 3d 55 7e 10 3f fd 45 18 bd d2 af 1b bd
       0.08463097 0.5644277 -0.03717612 -0.038009472
0001b0 8f 38 35 bd fb 22 19 3e 00 ed 8c 3e a6 98 a2 bd
       -0.04424339 0.1495475 0.27524567 -0.07939272
0001c0 be c8 f7 3e 1a 09 e4 bd 70 ca 21 bd b0 70 6c be
       0.48395342 -0.111345485 -0.0394997 -0.23089862
0001d0 03 da d5 be 6b 01 ea 3d 80 1b 11 be 49 35 44 3c
       -0.41767892 0.11426052 -0.14170647 0.011975595
0001e0 3f b3 9c be fa 52 9a be b9 3c cf 3e 12 91 1d 3e
       -0.30605504 -0.3014143 0.40476015 0.15387371
0001f0 8c 3e 8a 3e a0 24 f0 bb 5c 9a f5 3e 8f 39 37 be
       0.27000844 -0.007328585 0.4796933 -0.1789305
000200 9e 4f 3a be 1e 69 de 3e 7a d1 80 3e 0d 34 0d 3e
       -0.18194434 0.43439573 0.25159818 0.13789387
000210 ff 75 5d 3e 37 e7 c2 be c7 1e 55 3e a6 e2 eb 3d
       0.21627043 -0.38067028 0.20812522 0.11517839
000220 c4 85 82 3c 7e d1 02 bd c3 40 bc 3d ae 0d 09 bf
       0.015932925 -0.03193807 0.0919204 -0.535365
000230 7d e3 16 3e 6a 13 62 be 2a 0b 57 3e 5e ac 4e 3a
       0.14735217 -0.22077718 0.21000353 0.0007883961
000240 76 3b 01 bf ac e7 06 bf ea b8 cd 3c 86 c5 82 bd
       -0.50481355 -0.52697253 0.025112588 -0.06385331
000250 34 52 86 3e a7 34 47 3d 50 f0 2b be 55 7b 28 be
       0.2623459 0.048634198 -0.1679089 -0.16453297
000260 9a cd ab 3d cd 1c c8 bd 87 f4 ea 3e b1 61 2d 3e
       0.08388825 -0.09771118 0.45889685 0.16931798
000270 2a d6 c2 3b 74 08 34 be bf 50 96 3e 53 04 d5 bb
       0.0059459405 -0.1758135 0.2935848 -0.0065007596
000280 a5 63 52 3e 0b d1 56 3d 43 24 80 bd a1 db a0 bd
       0.20545824 0.052445453 -0.062569164 -0.07854391
000290 ed ce 46 3d 2f 19 55 3e 32 a3 59 3e 3e 3e 16 bd
       0.048537184 0.20810388 0.2125366 -0.036680453
0002a0 23 04 21 be 8a 07 2e bf c3 1c a8 3e 5b 0e 70 3e
       -0.15724234 -0.67980254 0.32834443 0.23442976
0002b0 b0 ec 87 3d 65 43 ff be 80 24 86 bd 12 5b 9f be
       0.066369414 -0.49856105 -0.065499306 -0.3112417
0002c0 19 b0 67 3e bd 4e 94 be 86 c2 8b 3e 26 03 04 be
       0.2262577 -0.28966323 0.27296847 -0.12891826
0002d0 cd 71 95 be 39 45 b1 3d 40 c6 46 bb 84 de d1 3e
       -0.29188386 0.08655781 -0.0030330569 0.40990078
0002e0 ac 63 81 be 57 cc 63 3e 5a f8 c5 3e 18 54 20 3d
       -0.25271356 0.22245918 0.3866604 0.039142698
0002f0 77 3a 17 3d d2 71 8d 3d f8 fa 91 bc c8 a5 9a be
       0.03692099 0.06906475 -0.017819867 -0.30204606
000300 95 9c bc 3d 62 2e 9c 3d d7 6a 22 be 99 c9 d1 bd
       0.09209553 0.07626034 -0.15861069 -0.1024353
000310 5d 07 d7 bd 9f 62 d1 bd 25 ba 47 3e b5 27 a3 3e
       -0.10499451 -0.102238886 0.19504602 0.31866232
000320 da d6 1f 3f 13 95 2d 3d bf fa f1 3d f7 c6 db bd
       0.6243721 0.042378496 0.11815404 -0.10731309
000330 8a 9c bf be fc b9 c6 be 27 ee 0c be a7 23 83 bd
       -0.37424117 -0.3881377 -0.13762723 -0.064032845
000340 d1 ff a4 bd f8 36 fd 3d 00 d4 9b be 3f 72 6a 3d
       -0.080566056 0.12364 -0.3043518 0.05723786
000350 31 f2 8b bb 6b 78 db be 39 f2 5a bc 5d 9d 0f 3e
       -0.004270815 -0.4286531 -0.013363414 0.14024873
000360 d8 b8 b2 be 84 11 a7 be 7d d8 88 be ec 3e ad be
       -0.3490665 -0.3263055 -0.26727667 -0.33837068
000370 2b e6 4d be f5 b8 98 bd 9b f3 ba 3e 1d ca c1 be
       -0.20107333 -0.07457153 0.3651398 -0.37849513
000380 c8 28 f5 3e 9b 63 3b 3e b4 9d b2 3d ec 69 5d 3e
       0.47882676 0.18299715 0.08721486 0.21622437
000390 04 50 9d bc d8 82 39 3e a0 71 bb 3e bb 1d 98 3e
       -0.019203193 0.18116319 0.36610126 0.29710183
0003a0 b4 69 d0 be 43 8e 5f 3e db 34 09 bd c9 5e 35 be
       -0.40705645 0.21831612 -0.033497673 -0.17711939
0003b0 77 d2 00 be 2a c8 98 3e a0 ae 85 be 21 e1 81 3e
       -0.12580286 0.29840213 -0.2610979 0.25367072
0003c0 1c f1 40 3e be 90 b7 be e6 c5 da 3c ac 7c 79 be
       0.18841976 -0.35852617 0.026705693 -0.24363965
0003d0 c6 88 22 3d 04 db 53 3e 27 e9 cf be 50 59 44 bd
       0.03968122 0.20689017 -0.4060757 -0.047936738
0003e0 66 6b be 3c 06 aa 1f 3d 15 15 e6 be 0b ab 3c 3d
       0.023244571 0.038980506 -0.4493796 0.046061557
0003f0 fb 0a 73 bd 3c 23 68 3e ac 9c 0b 3d f2 13 fe be
       -0.059336644 0.22669691 0.03408496 -0.49624592

job_encoder.3.bias f4 [32]
000000 00 00 00 00 00 00 00 00 00 00 00 00 00 00 00 00
       0.0 0.0 0.0 0.0
000010 00 00 00 00 00 00 00 00 00 00 00 00 00 00 00 00
       0.0 0.0 0.0 0.0
000020 00 00 00 00 00 00 00 00 00 00 00 00 00 00 00 00
       0.0 0.0 0.0 0.0
000030 00 00 00 00 00 00 00 00 00 00 00 00 00 00 00 00
       0.0 0.0 0.0 0.0
000040 00 00 00 00 00 00 00 00 00 00 00 00 00 00 00 00
       0.0 0.0 0.0 0.0
000050 00 00 00 00 00 00 00 00 00 00 00 00 00 00 00 00
       0.0 0.0 0.0 0.0
000060 00 00 00 00 00 00 00 00 00 00 00 00 00 00 00 00
       0.0 0.0 0.0 0.0
000070 00 00 00 00 00 00 00 00 00 00 00 00 00 00 00 00
       0.0 0.0 0.0 0.0

queue_encoder.0.weight f4 [32, 4]
000000 45 2c a9 3e 8d 1c 5c 3c 14 1f ac 3e 79 09 9d be
       0.33041587 0.013434541 0.3361746 -0.3067129
000010 e7 ef 87 3e 67 68 ca bb 57 c7 6a be e1 dd 5a bc
       0.26550218 -0.0061769965 -0.22927605 -0.013358564
000020 89 27 0b 3e cf f9 0d 3e 29 c5 fb 3e b5 77 18 3d
       0.135893 0.13864826 0.4917386 0.037223537
000030 e1 5c c7 3e fb b5 90 3e 9b be fa be d4 f2 0d bf
       0.38938048 0.2826384 -0.48973545 -0.5544865
000040 af 8e 00 3f bc 5b a2 be fc b9 84 be 88 81 d6 3e
       0.5021772 -0.31710613 -0.25923145 0.418957
000050 2a c0 b8 3c 20 6e de be db 6d 8c 3e 30 aa 41 3c
       0.022552568 -0.43443394 0.27427563 0.011820361
000060 41 87 2f be 6c 57 02 3f 9f 6a 7f 3e e3 34 13 bd
       -0.17141439 0.50914645 0.24943016 -0.03593911
000070 9c f3 9f be 22 76 1e bf 6d b9 b7 be e9 36 91 3c
       -0.31240547 -0.61899006 -0.35883656 0.017726379
000080 5b 2d fb 3e 52 4e b6 3d c0 0f f7 3d e2 77 3b be
       0.4905804 0.08901657 0.12063551 -0.1830745
000090 d6 fd a7 3d f6 a7 12 3c 09 37 82 be ed 4d 89 be
       0.08202712 0.008951178 -0.25432613 -0.26817265
0000a0 73 44 a8 bc e0 79 8f bd 9c 4b b1 3e 3c 4b f7 be
       -0.020540452 -0.07005668 0.34627998 -0.48299587
0000b0 b3 45 e0 3c 0a 13 0e 3e 73 8f 14 be b9 e6 c6 be
       0.027376985 0.1387445 -0.14507847 -0.38847902
0000c0 a1 82 b5 3d 87 79 87 3d c8 92 af bd 4f ac 8b 3d
       0.08862806 0.066149764 -0.08572918 0.06819975
0000d0 8b 62 95 3e 10 ba b5 3e 34 5f 72 3e 20 37 0e 3f
       0.29176745 0.35493517 0.2366913 0.55552864
0000e0 c6 0b 90 3c 7b 40 8a 3e c7 42 d4 3d 4a 83 9d 3d
       0.017583739 0.2700232 0.10364299 0.07691057
0000f0 4f d0 6f bd 55 e0 91 bd 78 dc 11 3d 0d 96 4e 3e
       -0.058548268 -0.07122866 0.035610646 0.20174427
000100 4e 50 2c be bb 35 71 3e 5e 82 54 3e 6a 76 07 be
       -0.16827509 0.23555653 0.20752856 -0.13228765
000110 76 97 84 3e fc ea 9e bd 0c b3 92 3e 2a bd 07 3d
       0.25896806 -0.077596635 0.28652227 0.033139385
000120 66 73 84 bd 19 20 00 bd 1d 93 fe 3d 4c be 91 bd
       -0.06467323 -0.03128061 0.124304034 -0.071163744
000130 d7 c5 a9 bd 03 3a 41 bd a3 21 a6 3e 3d 64 c9 3d
       -0.08289688 -0.047174465 0.32447538 0.09833572
000140 ca 74 02 bd 27 77 43 3e 59 ce 88 3d d8 00 ef 3e
       -0.03184966 0.19088422 0.06679983 0.4668033
000150 1f 3f f8 3d a1 cd 65 be 24 2b c1 3e 74 79 73 3e
       0.121214144 -0.22441722 0.37728226 0.237768
000160 bd 0b 97 bd 71 f5 03 3d 1a 6f f8 bd 5f 1a e8 bc
       -0.07375286 0.032216493 -0.12130566 -0.028332887
000170 bf 9c c6 be 16 da dc 3b d3 f6 7a 3e c7 6c 25 be
       -0.38791463 0.006739865 0.24508218 -0.16154777
000180 a7 1c 5d 3e 5f 8a 7f bd 1c b4 17 bd 20 9f b2 3d
       0.21592961 -0.06238782 -0.037037 0.08721757
000190 52 66 da 3c 27 5d 85 3e 78 d4 6a be a9 6f 09 be
       0.026660118 0.26047632 -0.22932613 -0.13421501
0001a0 87 de 56 be d5 e6 f9 bd 2c e4 ab 3e 72 42 73 be
       -0.20983325 -0.12202231 0.3357252 -0.23755816
0001b0 b5 8a b5 bd 28 bc 2f be b2 0b 0b 3e f7 f2 17 3e
       -0.08864347 -0.1716162 0.1357868 0.14838777
0001c0 d1 59 1b 3e 2b 89 de bd 34 6e 7e 3e e9 be 4e be
       0.15170981 -0.108660065 0.24846727 -0.20190014
0001d0 bf 20 c1 be 59 f9 20 3f d0 fd b5 bd ac 23 a6 3e
       -0.37720296 0.62880474 -0.088863015 0.3244909
0001e0 22 98 94 3e 32 21 52 be 51 54 07 3e 5d 95 13 3e
       0.29022318 -0.20520476 0.13215758 0.14412446
0001f0 ad 89 23 3e f9 67 e0 bc 58 be 21 3e 83 4d 9a be
       0.15970488 -0.027393328 0.15795267 -0.30137262

queue_encoder.0.bias f4 [32]
000000 7d 15 d9 bc a5 20 0c 3d 93 0f ed bc 38 4d d6 3b
       -0.026499504 0.03421082 -0.02893809 0.006539967
000010 ba 95 df bb 89 3e bf ba f1 57 72 bc 72 7d 13 3d
       -0.0068232687 -0.001459078 -0.014791475 0.036008306
000020 2d 5f d9 3c a6 12 1a 3c e6 14 78 bc 14 f0 25 3d
       0.026534641 0.00940386 -0.015141701 0.04051216
000030 2f f7 00 3d 2c 43 15 bd d1 b6 c0 bc 9d a6 9a bc
       0.031485733 -0.036441013 -0.023524674 -0.018878276
000040 5d 81 37 3d e4 7a e5 bc 25 a1 11 3b cc d1 84 bc
       0.044801105 -0.0280127 0.0022221294 -0.01621332
000050 85 2a c7 bc 9b 77 b6 bc f1 5c c5 bc 8e 8b b1 3c
       -0.024312267 -0.02227383 -0.02409217 0.02167299
000060 65 b2 07 bd a5 69 c0 3c 99 33 92 3b 61 ef 2c bb
       -0.033129115 0.023487875 0.0044617173 -0.0026387798
000070 62 59 a7 3c 76 c4 67 3c a4 fd f0 bc 59 96 01 bd
       0.020428363 0.014145961 -0.02941782 -0.031637523

queue_encoder.1.weight f4 [32]
000000 82 f5 7f 3f f7 be 82 3f b8 44 83 3f 51 0d 80 3f
       0.9998399 1.0214528 1.0255346 1.0004064
000010 11 ee 80 3f 57 4c 82 3f a6 f9 82 3f a8 be 78 3f
       1.0072652 1.0179547 1.0232437 0.9716592
000020 02 99 80 3f 9d 69 84 3f 44 87 7d 3f 9c 09 89 3f
       1.0046694 1.0344731 0.99034524 1.0706058
000030 d6 95 82 3f b2 b5 81 3f 1a d9 82 3f d4 a5 84 3f
       1.0201976 1.0133574 1.0222504 1.0363107
000040 e2 0b 85 3f ab 45 81 3f 2f 2d 82 3f 93 97 7d 3f
       1.0394251 1.0099386 1.0170039 0.9905941
000050 1c f9 83 3f 42 7a 77 3f a3 2e 83 3f 5b 77 7e 3f
       1.0310397 0.96670926 1.0248607 0.9940087
000060 73 37 83 3f bb 02 82 3f 3c a8 81 3f eb 37 80 3f
       1.0251297 1.0157083 1.0129466 1.0017065
000070 55 c1 84 3f e4 e4 83 3f 1d aa 78 3f 57 16 7a 3f
       1.03715 1.0304227 0.9713457 0.9769034

queue_encoder.1.bias f4 [32]
000000 5d f0 fd 3a 3b e8 de 3b 40 c8 4e 3c 65 7a a9 bb
       0.0019374002 0.0068025864 0.0126209855 -0.0051720613
000010 21 f7 96 bc dc f6 d0 bc 65 91 b2 3c 55 df 86 3c
       -0.018428387 -0.025508337 0.021797845 0.016463915
000020 82 95 5b 3b 28 4a 71 3b a0 5d 95 3c 8f 93 6d 3c
       0.0033505862 0.0036817882 0.01823312 0.014500513
000030 db bf 35 3b 8d b4 c2 3b 08 8d 8a 3c 86 41 63 bd
       0.0027732763 0.0059419335 0.016912952 -0.05548241
000040 cd 17 1f 3c 20 88 12 3c 96 4b 27 3a 60 c5 ac bc
       0.009710264 0.008943588 0.00063818076 -0.02109021
000050 d0 81 81 3c c8 9a 88 3c 07 03 4d bd 2d 74 22 3d
       0.01580897 0.016675368 -0.050051715 0.039661575
000060 14 c5 59 3c 6a 59 1a 3a d9 bb d2 3a 36 f5 8e ba
       0.013291616 0.00058879575 0.0016077711 -0.0010906819
000070 57 12 85 3b 2a e5 85 3c e3 98 3f 3c 48 17 81 bc
       0.004061024 0.016344626 0.011694166 -0.015758172

queue_encoder.3.weight f4 [32, 32]
000000 94 8a 9b be ed d3 95 3e e6 02 ab be ec 7e 4d bf
       -0.30379164 0.2926325 -0.3340065 -0.8027179
000010 1c 7d ec bd 13 80 1d 3e f7 66 4c 3e 00 43 98 be
       -0.115473 0.15380888 0.19961153 -0.29738617
000020 38 7b 80 3e 14 40 32 3e 2d ca f9 3d c6 8d 34 be
       0.25094008 0.17407256 0.12196765 -0.17632207
000030 76 df 9b bd 74 bb 18 3d ab 5e 31 3e d5 fc 8d 3e
       -0.07610981 0.037288144 0.17321269 0.27731958
000040 65 da b2 bc 68 a4 5f 3e 72 16 fb bd aa 0d c1 be
       -0.021832654 0.2184006 -0.122601405 -0.37705737
000050 f9 c4 d4 3e 82 1b 75 3d 61 a5 54 3e 90 dd ab bc
       0.41556528 0.059840687 0.20766212 -0.020979673
000060 c8 e9 6c be 27 ee 92 bd 44 51 f1 3d 90 bb 80 3e
       -0.23136055 -0.0717433 0.11783078 0.251431
000070 e0 0c ff bd 6e 12 5a 3d 8c b4 b7 bd dd 07 6d 3e
       -0.124536276 0.053240232 -0.089699835 0.23147531
000080 ba 77 50 3e 5d 91 0f 3e c2 48 31 be 6d bb 0b 3e
       0.20358172 0.14020295 -0.17312911 0.13645716
000090 6d 2c 49 3e 4d 61 cf be 8e b4 f6 be 16 cd a5 3d
       0.19645853 -0.40503922 -0.48184627 0.08095758
0000a0 2a 70 20 be a7 13 9d bd e3 8f ac bc 0e 7c a2 be
       -0.15667787 -0.07669764 -0.021064704 -0.3173527
0000b0 5f f3 86 be a7 a7 b0 be 46 e2 db 3d fa f9 e8 3e
       -0.26357552 -0.3450291 0.107365176 0.45503217
0000c0 d7 ca d1 bd 58 1f a2 be 09 df 3a 3e fd 37 00 bf
       -0.10243767 -0.31664538 0.18249144 -0.5008543
0000d0 ab cd 15 3e 65 c0 53 bd 33 a0 93 be 9b a2 72 bd
       0.14629237 -0.051697154 -0.2883316 -0.059237104
0000e0 3f 6d 32 bd bc 51 c6 3d 4e ae 61 3d da c5 05 3e
       -0.043561216 0.09683558 0.05509787 0.13063756
0000f0 08 89 a2 3e 61 6e a6 be ce 1f 90 be d9 dd 6a 3e
       0.31745172 -0.32506087 -0.28149265 0.2293619
000100 ba f8 06 bd ff e6 4e 3d bc 4e a0 3e ce 0b 27 be
       -0.032952048 0.050513264 0.3131007 -0.16313097
000110 01 0e 2c bd 3b bf e9 be d9 f4 da 3e 37 c6 b2 be
       -0.042005543 -0.4565371 0.4276493 -0.3491685
000120 76 32 04 3c 93 97 cb bd 15 ef 37 3e e2 ce 01 bf
       0.008068671 -0.0994102 0.17962296 -0.50706303
000130 83 05 4e be 12 88 2d bd 1c 62 98 bd 51 23 3f bd
       -0.2011929 -0.042366095 -0.07440588 -0.04666454
000140 a4 5f 2c 3e 3b e3 e1 bd a3 1e 25 3e a9 b1 bd 3c
       0.16833359 -0.11029669 0.16124968 0.023156004
000150 f9 fa 15 bf fd 90 0f 3e 5f 6e a0 3e e8 66 2b 3d
       -0.5858608 0.14020152 0.31334206 0.041846186
000160 5b 7b 43 3d 8b a0 a0 3e 3c fe bf 3e fc 8e 18 be
       0.047725063 0.31372485 0.37498653 -0.14898294
000170 7e 46 88 3e 97 7a 36 3e e5 ec 68 3e 67 b9 45 3e
       0.2661628 0.17820202 0.22746618 0.19309007
000180 bf a0 45 be 1a 03 9c bd 9e c6 d2 bd e2 fc 67 be
       -0.19299601 -0.07617779 -0.102917895 -0.22655061
000190 a8 24 83 3d 6c 4c 27 3e e8 a6 ec be ea f8 26 3f
       0.06403476 0.16337746 -0.4622109 0.6522356
0001a0 9f 2f 12 be 92 bc 2f ba a2 75 44 3d af 54 51 bd
       -0.14275979 -0.00067038194 0.047963746 -0.05110615
0001b0 ea 28 53 be 7b fd 7b bd e1 82 f8 3d 0a 1f 26 3e
       -0.20621076 -0.061521035 0.12134338 0.16222778
0001c0 c2 bd 23 be 89 9d f3 3e ad 3a 52 be 49 9b 5a 3e
       -0.15990356 0.47581127 -0.20530196 0.21348299
0001d0 07 e2 53 be 7e c8 20 b9 5a ff 03 3f b8 4a b2 bd
       -0.20691691 -0.00015333478 0.5156151 -0.08705658
0001e0 7a b9 56 3e c5 db 43 3d c3 e2 a4 3d 93 1a 86 3d
       0.20969191 0.04781701 0.08051064 0.065480374
0001f0 2b f0 99 3e 1e 98 8e be 0f 7a e7 3e 52 a6 23 3e
       0.30066046 -0.2785043 0.4521031 0.15981415
000200 93 d0 5e 3d de cd bc be 60 32 b5 bd ed 68 d8 be
       0.05439813 -0.36875814 -0.08847499 -0.42267552
000210 56 e2 54 3f d6 e2 d3 3d 2e ee d4 3c b3 36 7f bd
       0.8315786 0.10346 0.02599248 -0.062308025
000220 d0 24 0d 3e 01 da 90 3b fd 0c 27 3e 40 71 44 3e
       0.13783574 0.0044205193 0.16313548 0.19183826
000230 8d 32 31 be eb 60 89 be a2 bf 90 bd 79 13 9f be
       -0.1730444 -0.26831755 -0.07067801 -0.31069544
000240 21 b6 d5 3e 3c 7e fc bd 05 b7 92 be 12 56 b9 be
       0.41740516 -0.12328765 -0.28655258 -0.3619848
000250 ec 91 4f bd 6b b4 14 3e 92 d6 f0 bd 68 90 16 3d
       -0.05067627 0.14521949 -0.11759676 0.03675881
000260 7e 85 38 3e d0 9f ee 3d 4e 26 68 be 5e 07 bd be
       0.18019673 0.116515756 -0.22670862 -0.36919683
000270 c4 7f 69 3d 60 be 04 bd 12 7e 8a 3d 71 48 40 be
       0.057006612 -0.03240812 0.06762327 -0.18777634
000280 77 a9 35 3e c7 75 02 bf 7b 54 10 3e 76 4e 89 3d
       0.17740427 -0.50960964 0.14094727 0.06704418
000290 75 93 1b 3e 57 e4 50 3c d5 d4 31 3e 0c 0c 54 be
       0.15192969 0.012749753 0.17366345 -0.2070772
0002a0 2c a1 7c be e3 d0 51 3e 5f 85 42 3e c5 0f ad be
       -0.24670857 0.2048984 0.1899619 -0.33801094
0002b0 2d 83 fd 3d 1e c7 42 be f1 1f bd 3c fd 5f 05 3f
       0.123785354 -0.1902127 0.02308652 0.5209959
0002c0 72 41 63 be ac 59 c3 3e 4e 90 0f bf 4c 61 40 3e
       -0.22192934 0.38154352 -0.56079566 0.18787116
0002d0 eb 42 ad be 78 70 98 bc 94 82 e6 bd a9 50 36 be
       -0.33840117 -0.018608317 -0.112553746 -0.17804207
0002e0 e4 66 89 bc ca fa 9f be 82 eb ea bd c4 5f 12 3e
       -0.016772695 -0.31246024 -0.11470701 0.14294344
0002f0 c9 a6 ae be 7c 15 8a bd 12 87 b8 be 4d e2 30 3e
       -0.34111622 -0.06742379 -0.3604055 0.17273827
000300 45 04 90 be 5a f1 72 be fb 20 29 be 45 59 e0 3e
       -0.28128257 -0.23724881 -0.16516487 0.43818107
000310 17 f4 e1 3d 4b 9a d0 be a1 56 81 3a b1 fd 3d 3e
       0.110328846 -0.40742716 0.0009867736 0.18553807
000320 5f 9b b8 3e e3 54 d1 3c b9 f6 5b bd 78 01 a3 be
       0.3605604 0.025553172 -0.05370209 -0.31837058
000330 c6 94 fb 3d b7 d3 cb 3e e1 23 83 3d fc 1f a7 3e
       0.12284236 0.39809963 0.06403328 0.3264159
000340 8a 9e cc 3e 78 47 b9 bc 3c 78 a7 be 8e 4b d5 bd
       0.39964706 -0.022617087 -0.3270892 -0.104148015
000350 e2 56 ad 3e be 7a a7 be a4 04 68 3d de 8b e3 bd
       0.3385535 -0.32710832 0.05664505 -0.11110662
000360 ed 4b 9d bd 72 3c 10 be a2 28 0f be ef f8 34 be
       -0.07680497 -0.14085558 -0.13980344 -0.17673086
000370 25 79 55 3d 75 9d f5 3e 36 b7 d1 3e 4f 97 d2 3d
       0.052117486 0.47971693 0.4096009 0.10282766
000380 e2 99 4f be 83 60 f2 3e d7 c8 b9 be e5 2a 98 3e
       -0.20273545 0.47339258 -0.3628604 0.29720226
000390 0f f4 ea 3d 52 fe 03 be de 36 2a bc 99 8e ae be
       0.11472332 -0.12889984 -0.010389058 -0.34093168
0003a0 b6 5e 70 bd 4d bc b2 be 19 94 68 3d 0f 3c 72 3e
       -0.058684073 -0.34909287 0.056781862 0.23655723
0003b0 53 5c bf 3e 66 60 89 be fd 63 45 3c f9 9a fa bd
       0.37375125 -0.2683136 0.012047765 -0.1223659
0003c0 ae 88 8b 3e 21 5b c3 bd cb cd cc be dc e8 88 3d
       0.27252716 -0.09538866 -0.40000758 0.066850394
0003d0 3c 8c 33 be 94 72 89 be 6a 62 ec 3e a1 47 df be
       -0.17533964 -0.2684523 0.46168834 -0.43609336
0003e0 74 1c ef 3c e2 53 cf 3e 83 38 fc bc 43 47 65 3d
       0.029188372 0.40493685 -0.030788666 0.055976164
0003f0 09 d4 23 bd 6c 66 81 be 4f ab 7f be f4 b1 fb bd
       -0.039997134 -0.25273454 -0.24967693 -0.12289801

queue_encoder.3.bias f4 [32]
000000 b0 1f 27 3c fd 31 75 bc 5e f9 1f 3b 97 1d 35 3a
       0.010200426 -0.014965531 0.002441011 0.0006909011
000010 c8 13 0d bc 58 c5 b1 bb 8a 1c 9c 3c 8a 14 3c bb
       -0.008610673 -0.0054251365 0.019056577 -0.0028698766
000020 34 da 55 3b fd 79 5a 3c 7b 12 ba ba 5d 2c b7 39
       0.003263128 0.013334748 -0.0014196181 0.00034937533
000030 12 e7 bf 3b 5e c9 02 3c b5 1f f2 ba 13 b1 87 bc
       0.005856403 0.00798258 -0.0018472584 -0.016563928
000040 9f 43 c2 bb 20 0d c0 3b e6 73 9a bb 99 0f 8a 3b
       -0.005928471 0.0058609396 -0.004713523 0.004213285
000050 87 4b 9f b9 3f c9 b9 b9 bc 93 73 3c 9d 8c 83 3b
       -0.00030383116 -0.0003543589 0.014866766 0.004014565
000060 0a 25 16 3b f0 94 96 bb 13 b6 88 bb a5 15 a2 bb
       0.002291026 -0.0045953915 -0.0041720956 -0.004946428
000070 3a 74 95 ba af dd 2c 3a 70 64 4d 3b ee c0 2c bb
       -0.0011402436 0.0006594313 0.0031340383 -0.0026360112

host_encoder.0.weight f4 [32, 2]
000000 a4 72 b1 be 4b 22 c8 3d c0 49 a6 3b 77 bf 12 3e
       -0.34657776 0.09772166 0.0050747097 0.1433085
000010 5e 8d bb 3e 08 df 6a 3c 87 0b 03 be 5d 1e da bd
       0.36631292 0.014335401 -0.12797366 -0.106503226
000020 41 b1 36 be 50 9d 3e be 22 51 dd be e9 25 a0 3c
       -0.17841054 -0.18614697 -0.43225962 0.019549327
000030 c6 e5 95 be 94 3e 47 bd 25 d4 83 3d 15 cb bc 3e
       -0.29276866 -0.048643664 0.06436948 0.3687369
000040 a1 54 80 be 71 a8 36 bd 51 80 b2 3e b6 13 e5 be
       -0.25064567 -0.044594232 0.34863523 -0.447416
000050 50 2d 7d be cc 83 fb be 4e 72 53 be 30 7d 9c 3e
       -0.24724317 -0.4912399 -0.20649073 0.3056426
000060 e8 14 a6 bd d3 29 6e 3d 17 a6 f2 bc 12 2d 04 be
       -0.08109456 0.058145355 -0.029620213 -0.12907818
000070 38 14 80 bd e4 d8 2e 3e 9a b1 a3 3d 68 18 60 be
       -0.062538564 0.17074925 0.07992859 -0.2188431
000080 9c d5 8d 3e b0 7b f2 3e 6c 2b 88 be b5 df 52 bd
       0.27702034 0.4735999 -0.26595628 -0.051482875
000090 8a 77 0a be f1 f2 4a bd 67 27 f0 bd 48 a7 4b be
       -0.13522163 -0.049548093 -0.117262654 -0.19888031
0000a0 b6 31 2e bd 69 35 fc bc 11 73 76 3e 11 8c ff 3e
       -0.042527877 -0.030787187 0.24067332 0.4991155
0000b0 87 53 4e bc c6 ee ba bd 94 36 4e be 63 4f 1a be
       -0.012593157 -0.09127574 -0.20138007 -0.15069346
0000c0 98 45 db be 0c d7 4a 3d a7 73 af be 8e 3f 75 3e
       -0.42826533 0.04952149 -0.34267923 0.23950025
0000d0 4a 03 67 3d ff 08 08 bf 29 5c 7d be 5c 3f e5 bd
       0.05639962 -0.53138727 -0.24742188 -0.111937255
0000e0 b1 ff ac 3e 23 27 8c be 03 c5 e8 3e ba c9 41 be
       0.33788827 -0.2737361 0.45462808 -0.18924609
0000f0 79 69 8e be 0c 1d 8c b9 00 a3 29 3e 2c c1 86 be
       -0.27814844 -0.00026724522 0.16566086 -0.26319253

host_encoder.0.bias f4 [32]
000000 ad 47 aa 3a d8 e4 45 bb 2d 4c b1 bb ef 1f 9d bb
       0.0012991332 -0.0030196216 -0.005410692 -0.0047950665
000010 4e 8c ac 3b 2e 08 d3 bb 48 0f 14 bc 9e 86 a6 bb
       0.005265749 -0.006440184 -0.009036846 -0.0050819656
000020 c9 70 fa ba ea 63 62 3c 92 ea b3 3b a3 51 91 3a
       -0.0019107099 0.013817767 0.0054906094 0.0011086952
000030 cc 4a d4 3a 61 7f 7f 39 29 fd 6f bb ec da 95 3c
       0.0016196608 0.00024366147 -0.00366194 0.018292867
000040 33 90 ee 3a 44 3f 8f 3b 79 29 6f bb f8 70 40 bb
       0.0018200934 0.0043715555 -0.0036493225 -0.002936421
000050 36 6d a4 bb b6 0c 4a bb d8 ea 7c bb 1b ca 33 39
       -0.005017902 -0.003083033 -0.0038592126 0.0001714606
000060 0d c6 ab 39 ee 6e ea b9 68 f1 63 3c be 53 71 39
       0.0003276322 -0.00044714607 0.013912536 0.00023014747
000070 4f d4 86 3c c5 59 1e bc a3 bb 9e 3a 1c 5f 98 3a
       0.016458659 -0.009664957 0.0012110363 0.0011625024

host_encoder.1.weight f4 [32]
000000 91 b2 80 3f 48 3e 80 3f 29 1f 80 3f ae a2 80 3f
       1.0054494 1.0019007 1.0009509 1.0049646
000010 dc 69 80 3f cd da 80 3f 26 6a 83 3f e0 b7 80 3f
       1.0032306 1.0066773 1.0266769 1.0056114
000020 7f f6 7f 3f 98 77 85 3f 3f 67 82 3f 7c 2a 81 3f
       0.999855 1.0427122 1.0187758 1.009109
000030 ed eb 80 3f b1 6a 7e 3f 58 7f 81 3f ba 6a 83 3f
       1.0071999 0.9938155 1.0116987 1.0266945
000040 ba e1 80 3f 9f b9 7f 3f 87 23 80 3f aa 99 80 3f
       1.0068886 0.9989261 1.0010842 1.0046895
000050 75 0a 80 3f bb a7 81 3f 26 39 7b 3f 48 e3 7f 3f
       1.0003191 1.0129312 0.98134077 0.9995618
000060 54 3d 80 3f 50 61 80 3f 66 f7 82 3f 9a 95 72 3f
       1.0018716 1.0029697 1.023175 0.94759524
000070 b8 6d 83 3f 1a 1f 81 3f cf c0 7f 3f 0a 23 81 3f
       1.0267859 1.0087616 0.9990358 1.0088818

host_encoder.1.bias f4 [32]
000000 22 42 c0 3b 57 c6 3c ba 81 21 33 bb 29 fc 8c bb
       0.0058672586 -0.0007201186 -0.0027333202 -0.004302521
000010 fd 47 ce 3b df 13 a6 bb 32 a8 af bc 32 30 12 3b
       0.0062952028 -0.005068287 -0.021442506 0.0022306559
000020 c9 ca 1f 3b f4 01 3b 3d 7b de 75 bc ba 2b 0b 3c
       0.0024382344 0.04565616 -0.015006657 0.008494312
000030 bd a4 f0 3b fd 39 3b 3b 36 e7 88 3b 63 6e c2 3c
       0.007343857 0.00285685 0.004177953 0.023734277
000040 7f e5 df 3b d5 5c 12 3c be 30 54 bb 45 d8 8a bb
       0.006832778 0.008933266 -0.0032377685 -0.004237207
000050 a3 cf 5d bb 14 ae 1d 3c 39 bc 53 3b 50 14 57 3b
       -0.0033845685 0.009624023 0.0032308234 0.0032818504
000060 68 e2 0d 3b 4f 3f 2e 3b f5 c3 98 3c ba a2 5d 3d
       0.0021649841 0.0026588028 0.018648127 0.054110266
000070 52 e0 db 3c 06 eb 57 3b fc 7e 9d b9 f3 56 37 3c
       0.026840363 0.0032946481 -0.00030039984 0.011190164

host_encoder.3.weight f4 [32, 32]
000000 b5 75 e2 3c 10 35 6b be 35 72 29 bd 87 1d 13 bd
       0.027644018 -0.2296946 -0.041368682 -0.03591683
000010 53 23 5f 3e 60 dd 95 3d 3c 3d eb 3e 5e a9 ce bd
       0.21790819 0.073176146 0.45945156 -0.10090898
000020 20 d3 17 3e 43 b3 9d 3d 56 4b 1a be 17 43 2b 3e
       0.14826632 0.07700207 -0.15067801 0.16724811
000030 44 61 83 bd 7e 97 a2 3e 8e ad 87 be 88 4a c7 be
       -0.06415036 0.31756204 -0.264996 -0.3892405
000040 9f 42 26 bc ba d6 a0 3e 94 3a 92 be 74 f0 1f 3e
       -0.01014772 0.31413823 -0.28560317 0.1561907
000050 38 01 e6 bd eb c6 c4 3e c8 ff 24 be e3 c6 f8 3e
       -0.11230701 0.38433012 -0.16113198 0.4858924
000060 4c 67 8e be 03 8c 2a 3e dc 29 22 3e c6 20 0b bf
       -0.27813184 0.16654973 0.1583628 -0.54346883
000070 59 f4 9d 3e 1b aa bd bd b8 c2 4a bd 08 53 a5 be
       0.30850485 -0.09260961 -0.049502105 -0.3228991
000080 3d b0 87 3d 2a 17 aa bd 57 4a af 3d 36 0f a1 3e
       0.06625412 -0.083051994 0.08559101 0.31456918
000090 54 60 39 3e eb e9 1e 3f 74 ed f2 3c c5 27 f7 bd
       0.18103153 0.6207568 0.029654242 -0.12068132
0000a0 f8 89 3b be 3a b9 c8 3d 5c d1 84 be b4 03 ec 3e
       -0.1831435 0.09800954 -0.2594098 0.46096575
0000b0 4c a7 b1 3c 5c 32 16 3d 15 20 8e 3d a7 df 66 be
       0.021686219 0.03666912 0.06939713 -0.22546254
0000c0 d4 8c ec 3c fc 67 4c be 4b 58 ee be 88 57 f1 bc
       0.028875746 -0.19961542 -0.46551737 -0.029460683
0000d0 87 55 dc 3e f6 f0 eb be 03 15 36 3e c8 a7 0e 3e
       0.43034002 -0.46082276 0.17781453 0.13931191
0000e0 c7 9b db 3d ae 30 8d be c3 78 8b be 40 c6 57 3e
       0.107230715 -0.27576202 -0.2724057 0.2107172
0000f0 8a 34 c0 bd 73 46 a7 be 1e 59 ef 3c ee 8a 32 be
       -0.09385021 -0.32670936 0.0292173 -0.1743581
000100 62 89 83 3d a8 49 e1 bd 5a 74 98 3e f2 2d 6d 3e
       0.06422688 -0.11000377 0.2977627 0.23162058
000110 1d f8 1f be 22 60 1c 3d 98 af 02 3d 9d 9c a4 be
       -0.15621991 0.038177617 0.03190574 -0.32150736
000120 28 e4 c4 be fb 74 27 3e ef 54 7f 3d 6a c0 ae 3d
       -0.3845532 0.16353218 0.06233686 0.08532794
000130 1c e2 df be c4 61 c4 3e 05 83 60 3e 3c 07 5f 3e
       -0.43727195 0.3835584 0.2192498 0.21780103
000140 af e7 ca 3e c1 c5 1a bd 83 fe 1e 3f 68 f2 8a 3e
       0.39629886 -0.03778625 0.62107104 0.27138066
000150 78 c4 2e 3e 62 0b 1e be 26 47 c6 be 4e 70 2e 3d
       0.17067134 -0.1543403 -0.38726157 0.04258757
000160 f7 96 9d be bc 1a 0b be 1e 03 04 be 26 b4 a0 be
       -0.3077924 -0.13584417 -0.12891814 -0.31387442
000170 56 21 09 be fa 13 17 3a c9 bb 86 be bf 32 aa 3d
       -0.13391623 0.00057631696 -0.26315144 0.0831046
000180 be 41 16 be 97 98 ac 3e 50 92 2b bd 6a 0b 0c bb
       -0.14673516 0.33710167 -0.04188758 -0.0021369108
000190 f8 ba ce bd e2 e4 d1 3e da 97 dd 3e b9 d1 37 3c
       -0.10094255 0.40994936 0.43279916 0.011219435
0001a0 59 4a 4a bd 35 55 de 3e f5 04 0e 3e 7b 93 d1 3e
       -0.04938731 0.43424383 0.13869078 0.4093283
0001b0 8f f5 b7 bd 82 53 a2 be 38 57 8e bd b2 19 ac 3d
       -0.089823835 -0.31704336 -0.069502294 0.084033385
0001c0 b4 7c 1f 3e 73 48 8f 3e 02 d6 42 3e 2b d4 be be
       0.15574914 0.27984962 0.1902695 -0.37271246
0001d0 f7 ba 42 bd d5 c5 00 be 1e 14 05 be a0 ee ce bb
       -0.047541585 -0.12575467 -0.12995955 -0.0063150674
0001e0 0e 0c ae 3d 58 ee fc 3d 14 69 40 3f ad 29 3d 3e
       0.08498393 0.12350148 0.75160336 0.1847293
0001f0 34 6e a0 bd 7c f5 7d 3e 14 e5 6a bd 9d 0d cf 3b
       -0.078335196 0.24800676 -0.057347372 0.0063187615
000200 5d 46 52 be 8c 5a 97 3d 86 f6 08 be c4 2b 24 3f
       -0.20534654 0.07390317 -0.13375291 0.6412928
000210 78 51 15 3e 9b b8 a7 bd 4e e9 a3 bd b7 fe d3 3d
       0.14581859 -0.081895076 -0.08003484 0.103513174
000220 79 19 ad 3d f0 a5 12 3e c9 c8 34 3e 09 58 27 be
       0.08452124 0.14321113 0.17654718 -0.16342176
000230 e3 0c 61 3e 62 7e 5b bd d9 bb 50 be 89 dd 69 3e
       0.21977572 -0.053587325 -0.20384158 0.22838415
000240 c8 3d 91 bd 4b 93 1b 3e 25 4b 78 bd 72 ae d2 bc
       -0.07091862 0.15192907 -0.06061854 -0.025717948
000250 d1 08 9c 3e 51 30 50 be ae 62 2d bf dc f5 61 3e
       0.30475476 -0.20330931 -0.677287 0.22066444
000260 43 28 58 3d 5b 72 2e 3e bc 67 8c be 77 03 2c bd
       0.05277277 0.1703581 -0.27422893 -0.04199549
000270 c2 8b 3d 3e 15 e3 a6 3e 20 14 11 3f 83 5c 3f 3c
       0.18510345 0.32595125 0.56671333 0.011679771
000280 1c 5e 1f 3e 4a 69 fb 3d f3 f2 1f 3d 42 dd 1b 3e
       0.15563244 0.12275942 0.039050054 0.15221122
000290 f3 98 aa bd ab 58 a6 3e 36 30 b1 3e d6 bc c9 3d
       -0.08329954 0.32489523 0.34607095 0.09850471
0002a0 e4 41 39 be 8b 41 74 be 65 2c 7f 3e f7 1b e5 be
       -0.18091542 -0.23853128 0.24919279 -0.44747898
0002b0 56 02 9c 3e 24 9c 27 be 6b 41 19 3f 13 53 81 bd
       0.30470532 -0.16368157 0.59865445 -0.06314673
0002c0 df c9 0e 3d 6b ea 04 3e 20 c0 8f 3e 7c 57 1f be
       0.034860488 0.12980048 0.28076267 -0.15560716
0002d0 48 27 dc bd ea e1 bc bd 27 e5 af 3e 8d 6c 54 3e
       -0.1074968 -0.09222777 0.34354517 0.20744534
0002e0 2c 4d 82 3e 10 89 35 3b 25 f1 33 3b 1c 22 05 bf
       0.25449502 0.0027700104 0.0027456966 -0.5200517
0002f0 7d 44 1a 3e c3 1b 92 be b2 95 a9 3e c1 9b 3c bd
       0.15065189 -0.28536806 0.3312202 -0.046046976
000300 2f 4e 92 3e ef ca 86 3e 0e 83 d9 3d 5a 75 37 3e
       0.28575274 0.263267 0.106207 0.1791586
000310 b1 df 8a 3d e7 50 92 3e f6 7f 46 3e df 12 4f bd
       0.06780947 0.2857735 0.1938475 -0.050555106
000320 b2 bd 81 3e f0 2a a3 3e 2e f0 c6 bd fe 22 88 be
       0.2534004 0.31868696 -0.097137794 -0.26589197
000330 c3 b3 c3 bb d0 25 2f be 51 ba c3 be 96 61 dd be
       -0.005972357 -0.17104268 -0.38228086 -0.43238515
000340 18 41 f4 3d 2b ac 7d be 1f 8e 45 3e e7 90 11 3f
       0.11926478 -0.24772708 0.19292496 0.5686173
000350 fa ec 7f be a5 d9 0e bd e8 45 61 3e b7 db cc be
       -0.24992743 -0.03487553 0.21999323 -0.4001138
000360 da 14 e1 bd cf 7a ab bd d9 ad 34 be 8a 77 d2 bd
       -0.10990305 -0.08373033 -0.17644443 -0.102767065
000370 29 6b 74 be 75 69 da 3e c3 24 86 3e 6f a2 97 bd
       -0.23869003 0.42658582 0.26199922 -0.074040286
000380 7d 7e d7 be d2 af 02 be dc ee 0f be 14 7f 85 3e
       -0.4208869 -0.12762383 -0.14055961 0.26073515
000390 43 d2 7b be 4f 25 a4 be ae 27 ff 3d 36 78 33 bc
       -0.24591927 -0.32059714 0.1245874 -0.0109539535
0003a0 71 56 5c 3e 69 21 d6 3d 0a 3b 03 be 0b b6 d4 3e
       0.2151735 0.10455591 -0.1281549 0.41545138
0003b0 96 99 62 be eb 2a b6 3d a2 2c 9d 3e 04 dd fd be
       -0.22128901 0.08894905 0.30698115 -0.49582684
0003c0 91 4c 5c be 9b 90 a8 be 1a 12 b8 3d a0 68 08 3e
       -0.21513583 -0.32922825 0.089878276 0.13321161
0003d0 f5 e6 ee bd cf dd 56 3d 7a 28 e0 bd 49 30 3d be
       -0.11665145 0.052457627 -0.1094522 -0.1847545
0003e0 ac 2c bf 3e 98 43 41 3e 50 81 08 3e 4f fc 36 be
       0.3733877 0.18873441 0.13330579 -0.17869686
0003f0 9f a7 18 be 71 6f 9b be 4c ed ae 3e a1 32 e5 3e
       -0.14907692 -0.3035846 0.34165418 0.4476519

host_encoder.3.bias f4 [32]
000000 29 4d ab 3b 83 49 e3 39 68 ec f4 bb 02 5e 27 3b
       0.005227704 0.00043351584 -0.007474471 0.002553821
000010 c7 e8 d4 ba 0c f0 e7 3a bd aa 2e bc 3f 55 b0 bb
       -0.001624369 0.0017695441 -0.010660824 -0.005381256
000020 f4 2a a1 3b 0d 20 45 3b 5f 06 ef 3a c0 e2 f4 3b
       0.0049184505 0.0030078918 0.0018236152 0.00747332
000030 4a fa 1b 3b 02 bb 6b 3c 89 32 35 bb f4 1a a0 3b
       0.0023800307 0.014387848 -0.002764853 0.0048860256
000040 a3 78 6e 3b 93 8f 0d 3c f9 f7 d5 3b 3f 88 de bb
       0.0036387823 0.008640188 0.006529805 -0.006791144
000050 a7 62 8d bb 8f 25 12 3b 60 09 32 3b 65 af 97 3b
       -0.004314739 0.0022300219 0.0027166232 0.004629063
000060 90 85 7d 3b 48 3d 8e bb c0 b3 65 bb ff 52 b4 3c
       0.0038684346 -0.0043408014 -0.0035049766 0.022012232
000070 a2 f5 0a 3c 00 d7 37 3b b4 e7 69 bb ac 63 cd 3c
       0.008481415 0.0028051734 -0.0035691084 0.025071941

job_queue_attention.in_proj_weight f4 [96, 32]
000000 bd 68 4d 3c 4b 68 27 be 02 f2 70 3d 97 61 3e be
       0.012537179 -0.16348378 0.058824547 -0.18591915
000010 fa 21 b5 bd 47 48 1a 3e 0c f8 4f 3e 3f ab 8a bc
       -0.08844371 0.15066634 0.20309466 -0.01692736
000020 c6 75 1e be b1 08 36 be 77 ef 59 bd ec 45 e2 bd
       -0.15474615 -0.17776753 -0.053206887 -0.11048493
000030 da 3b 30 3e 7a 0b 1e be 3d 73 05 3e bc 9b 28 3d
       0.17210332 -0.15434065 0.13032241 0.041164145
000040 ce dc 86 bd 5e b8 34 3e 07 c0 f6 3d e1 21 f8 bb
       -0.06585084 0.17648456 0.12048345 -0.007572398
000050 dc 43 16 be 64 81 82 bd 43 f7 8e 3d 3d 19 40 3e
       -0.14674324 -0.063723356 0.06980755 0.18759628
000060 6d a1 95 bd 8a 45 b8 bd 56 9d 58 be a2 44 08 3e
       -0.0730618 -0.089976385 -0.21153769 0.13307431
000070 2c 63 58 3e 30 a3 18 3e 04 12 f7 bd a4 d2 1e 3e
       0.21131581 0.14906001 -0.12063983 0.1551004
000080 28 6d 86 bd 11 d2 e7 3d 03 a2 01 3e bd c0 34 be
       -0.06563789 0.11319364 0.12659459 -0.17651649
000090 19 75 5b 3d 75 04 b1 3d c9 47 05 be 90 f9 4c 3e
       0.05357847 0.08643428 -0.13015665 0.20017076
0000a0 e3 13 2d 3e 8b 4a 39 3e 9b ff ff ba 21 3d ed bd
       0.16902117 0.18094842 -0.0019531132 -0.11583925
0000b0 c3 4f f2 bd 6a b8 9c 3d 6a 2e 30 bd 8f 36 30 3e
       -0.118316196 0.07652362 -0.043013014 0.17208312
0000c0 47 ad 39 3e 5c de 88 3c 25 81 35 be 3b 00 b0 3d
       0.18132506 0.016707592 -0.17725046 0.08593794
0000d0 86 66 46 3e 55 bd 5e bd 72 0e e8 bd d8 72 4f bd
       0.19375047 -0.05437978 -0.1133088 -0.050646633
0000e0 64 1b fe 3c ca 7e 24 be 69 cb ec 3d 2b 88 bd 3d
       0.03101892 -0.16063991 0.11562235 0.092544876
0000f0 1e 87 a9 bd d2 41 a4 bd 53 64 d2 bd d5 4d 2d 3e
       -0.08277725 -0.08020367 -0.102730416 0.16924222
000100 87 7d 03 3e c4 0e 7c 3d 11 19 1f bc 83 89 5d 3d
       0.12840854 0.06153752 -0.009710566 0.05408622
000110 0b e6 55 3e cf 63 8c 3d b7 23 dd bd bf 85 ab 3d
       0.20888536 0.068549745 -0.10797828 0.083751194
000120 0e f6 af bd 2e eb fb bb 26 cb 0e be f0 90 cf bb
       -0.08591853 -0.0076879477 -0.13944682 -0.0063344166
000130 4c 0e 39 3c 24 75 06 be 58 88 0e 3e 0e c3 4c 3e
       0.011294913 -0.13130623 0.13919199 0.19996282
000140 a8 70 39 be a8 7b 80 3d 26 27 19 be a1 42 30 bd
       -0.18109381 0.062735856 -0.1495634 -0.043032292
000150 f2 65 d4 3d 49 13 79 bb ad 5d 86 3d b1 a9 8f bd
       0.10371007 -0.003800588 0.06560836 -0.07014788
000160 76 93 53 3e 71 2c d0 bd ea fa 25 3d ba 0e b6 3c
       0.2066172 -0.101647265 0.040522493 0.022223819
000170 ca 04 17 3e 3e 1e b5 3c 30 ab 05 3e 4e 7d 64 3d
       0.1474792 0.022109147 0.13053584 0.055783562
000180 8c 5c 0d 3e df 54 33 3b da f4 93 3d 17 b1 5a 3e
       0.13804835 0.002736382 0.07224436 0.21356617
000190 a0 75 90 bd 21 6f b4 bd 9a ef 20 3e c3 8e a9 3d
       -0.07053685 -0.08810259 0.157164 0.08279183
0001a0 53 44 51 be e2 b3 9d 3d 88 6f 59 be 12 bc f0 bd
       -0.2043622 0.077003255 -0.21233952 -0.117546216
0001b0 1c 86 ad 3d 1e 93 e9 3d b8 3c 48 bd e6 a9 3b 3e
       0.08472845 0.114050135 -0.04888603 0.1832653
0001c0 0b 53 5c 3e c4 e0 2c 3e d2 9f 4b be 7a 48 a1 bd
       0.21516053 0.16882616 -0.19885185 -0.07875152
0001d0 2c d1 57 3c 8f 31 34 3e 9a c2 14 bd 03 41 39 3d
       0.013172429 0.1759703 -0.0363184 0.045228016
0001e0 f4 61 e9 3d 3c fd e7 bd 14 43 06 be c8 3f 5b 3e
       0.11395636 -0.113275975 -0.13111526 0.2141105
0001f0 a8 4d 9e bb be df 1c 3e 29 2e 58 be 47 3f a9 bd
       -0.0048310347 0.15319726 -0.21111359 -0.08264022
000200 d0 90 1b 3e 26 b6 ab bc 96 59 95 3d 81 b9 39 be
       0.1519196 -0.020960879 0.07292478 -0.1813717
000210 f9 c9 57 3e e1 4e dd bd 35 5d 33 bc df 36 11 be
       0.2107314 -0.108060606 -0.010947515 -0.14181088
000220 20 ba c4 bd 0e 10 3e be b3 0d 42 be e9 2b 35 bd
       -0.09605813 -0.18560812 -0.18950538 -0.04423133
000230 cc 94 c3 bd 74 c5 23 3e 82 4c 89 ba 24 65 2c 3e
       -0.09549865 0.15993291 -0.0010475072 0.16835457
000240 09 88 14 bd 23 24 3c 3d 75 ec 54 3e af 8d 2b be
       -0.036262546 0.0459329 0.20793326 -0.16753267
000250 db 15 c0 bd aa 88 3d 3e f7 50 4b bd 8e d4 6e bd
       -0.093791686 0.18509164 -0.04963776 -0.058308177
000260 fe 56 8e 3c d9 09 ee bd 2a 1c 7f 3c c0 4a b8 bd
       0.017375465 -0.11622972 0.01557068 -0.089986324
000270 64 aa 8c 3d 80 3f 3c bd 6c ca 94 bd 92 08 a7 bd
       0.06868437 -0.045958996 -0.072651714 -0.081559315
000280 95 66 66 3d b0 84 de 3d 76 b0 4a be 36 9f 1a be
       0.056250174 0.10865152 -0.19793877 -0.15099797
000290 95 c5 54 be d1 fa ce 3d 87 45 26 3e 18 03 55 be
       -0.20778497 0.10106433 0.1623746 -0.20801961
0002a0 1d 89 66 3d 3d d9 33 3d 10 f2 ed bd d6 98 3f 3d
       0.056283105 0.043908346 -0.116184354 0.046776615
0002b0 1e f3 2a 3e 11 76 59 3e 55 bd bf 3d 45 d7 2f bd
       0.16694304 0.21236445 0.09362284 -0.042929906
0002c0 f4 49 fc bd e8 df a8 bd 25 c1 e8 3a 7e 3f 82 bc
       -0.12318793 -0.08245832 0.0017757757 -0.015899416
0002d0 b5 c5 21 3e c9 5a 48 be 86 4e 9e 3c 3e 06 8d bd
       0.15798075 -0.19565882 0.019324552 -0.06885956
0002e0 a9 e7 93 3c c6 32 55 3e 86 8b cf 3b 77 ce 19 bd
       0.0180548 0.2082015 0.006333771 -0.037550416
0002f0 3f 49 96 bd d0 3e 5d be 60 dd 48 be 2c 33 c1 3d
       -0.07338189 -0.21605992 -0.19615698 0.094335884
000300 eb 62 07 be e7 bd fb 3d ed 6b 7b bd 18 f8 9f 3d
       -0.13221328 0.122920804 -0.061382223 0.07810992
000310 80 d7 21 3e 9d ba 01 3d 42 3f 98 3d fa 5a 3b 3e
       0.15804863 0.03167211 0.074339405 0.18296424
000320 5a 55 8b bd 63 0b 23 3e 21 75 3a be 19 03 4b 3e
       -0.06803389 0.15922312 -0.18208744 0.198254
000330 73 71 91 bd ab 82 05 bc ac be f8 3d 90 36 82 3c
       -0.07101717 -0.008148829 0.12145743 0.015895158
000340 18 dc 41 3e 5b e2 c2 bd 46 64 f4 bd 27 ea 45 3e
       0.18931615 -0.0951583 -0.11933188 0.19327603
000350 59 d1 05 be 81 92 18 3e 85 86 55 3e d1 13 16 3e
       -0.13068141 0.14899637 0.20852096 0.14655997
000360 d6 a3 a7 bd e0 be 51 bb 63 cc 47 be c9 70 f1 bd
       -0.08185546 -0.003200464 -0.19511561 -0.1178909
000370 f8 8c 37 bd 74 7a 12 be 61 ce ff 3d 38 57 e8 3d
       -0.044812173 -0.14304525 0.124905355 0.11344761
000380 ae c5 7d bd d1 77 0b bd ea 27 56 3e 71 7d 5a bc
       -0.0619561 -0.034049813 0.20913664 -0.013335572
000390 5d 4e 3c 3e a8 5d 4d 3e 43 89 9b bd 85 be 53 be
       0.18389268 0.20055258 -0.0759454 -0.20678146
0003a0 fa cb 4e 3e dd 65 ee bd 25 02 54 3e bd 88 0d be
       0.20194998 -0.11640523 0.20703943 -0.13821693
0003b0 e1 d7 20 3d e5 19 83 3d 61 7b 51 bd 03 e3 2c 3e
       0.03926838 0.06401423 -0.051143054 0.16883473
0003c0 08 03 49 be 62 40 b8 bd 6e 98 0b bd 5d cc 29 3e
       -0.19630063 -0.08996655 -0.034080915 0.16581865
0003d0 e2 5c cd 3d 69 9c 0e 3e fa db be 3d d5 67 47 3e
       0.100274816 0.13926853 0.09319301 0.19473203
0003e0 5c da 5c bd 64 e2 88 bd 2c 8d f3 bc 12 6e ae 3d
       -0.05391918 -0.066838056 -0.029730402 0.08517088
0003f0 61 07 82 bd b1 da a2 3d d7 22 73 3d 4a 84 50 3d
       -0.06349064 0.07951868 0.059359398 0.05090741

job_queue_attention.in_proj_bias f4 [96]
000000 00 00 00 00 00 00 00 00 00 00 00 00 00 00 00 00
       0.0 0.0 0.0 0.0
000010 00 00 00 00 00 00 00 00 00 00 00 00 00 00 00 00
       0.0 0.0 0.0 0.0
000020 00 00 00 00 00 00 00 00 00 00 00 00 00 00 00 00
       0.0 0.0 0.0 0.0
000030 00 00 00 00 00 00 00 00 00 00 00 00 00 00 00 00
       0.0 0.0 0.0 0.0
000040 00 00 00 00 00 00 00 00 00 00 00 00 00 00 00 00
       0.0 0.0 0.0 0.0
000050 00 00 00 00 00 00 00 00 00 00 00 00 00 00 00 00
       0.0 0.0 0.0 0.0
000060 00 00 00 00 00 00 00 00 00 00 00 00 00 00 00 00
       0.0 0.0 0.0 0.0
000070 00 00 00 00 00 00 00 00 00 00 00 00 00 00 00 00
       0.0 0.0 0.0 0.0
000080 00 00 00 00 00 00 00 00 00 00 00 00 00 00 00 00
       0.0 0.0 0.0 0.0
000090 00 00 00 00 00 00 00 00 00 00 00 00 00 00 00 00
       0.0 0.0 0.0 0.0
0000a0 00 00 00 00 00 00 00 00 00 00 00 00 00 00 00 00
       0.0 0.0 0.0 0.0
0000b0 00 00 00 00 00 00 00 00 00 00 00 00 00 00 00 00
       0.0 0.0 0.0 0.0
0000c0 00 00 00 00 00 00 00 00 00 00 00 00 00 00 00 00
       0.0 0.0 0.0 0.0
0000d0 00 00 00 00 00 00 00 00 00 00 00 00 00 00 00 00
       0.0 0.0 0.0 0.0
0000e0 00 00 00 00 00 00 00 00 00 00 00 00 00 00 00 00
       0.0 0.0 0.0 0.0
0000f0 00 00 00 00 00 00 00 00 00 00 00 00 00 00 00 00
       0.0 0.0 0.0 0.0
000100 3a e7 45 bb 54 6e ab 3c 42 6e 4e 3b 3b e7 d6 bb
       -0.0030197636 0.020926632 0.0031498824 -0.0065583265
000110 19 61 9e bc 8f 8d d5 ba 6c d0 92 3b c2 31 f6 ba
       -0.01933341 -0.0016292798 0.004480412 -0.001878314
000120 b9 aa d4 bb 07 b5 8a 3b 4b 3c ac 3b 23 95 c3 3b
       -0.0064900783 0.004233006 0.005256211 0.005968706
000130 94 31 d4 bb 40 c7 2d bb 5a 05 92 bc 6f ee 80 ba
       -0.0064756367 -0.0026516467 -0.017824817 -0.0009836684
000140 4f 85 9f bc de 06 3c 3b bf 20 a3 3b 60 f8 52 bb
       -0.019472746 0.0028690617 0.004978269 -0.00321915
000150 0d 5f 88 3b 0b a1 a6 39 5e 3d 80 bc 34 0f c0 bb
       0.0041617216 0.00031781974 -0.015654262 -0.0058611874
000160 a2 38 5c bb 71 82 11 38 ab 58 53 ba ae ee 77 ba
       -0.0033603092 3.4692177e-05 -0.0008062224 -0.00094578683
000170 15 06 5f 3c 23 ab bc bb da 81 76 bb bb 07 19 bc
       0.01361229 -0.005757706 -0.0037614019 -0.009340222
