src/training/checkpoint_750.pt (torch, 203909 bytes, 75 tensors)

policy_log_std f4 [30]
00000000: 2cdc 11bf 87f5 11bf 7c15 0fbf 7d33 11bf
00000010: d9b2 10bf 999a 0fbf 1113 0dbf 56f8 10bf
00000020: 791b 11bf 45a4 0ebf 9ede 0fbf baa0 0fbf
00000030: a511 10bf 90e1 0fbf 9bf1 11bf fbfd 10bf
00000040: 33ea 0ebf ebd3 0fbf 2b2f 0fbf abf0 11bf
00000050: 3dc3 10bf 4654 11bf 5f37 0fbf 0b02 0fbf
00000060: d740 0fbf 9e3c 10bf 4897 11bf 8426 10bf
00000070: 68aa 0dbf 5631 10bf
-0.5697658 -0.5701527 -0.5589216 -0.5671919 -0.565229 -0.5609527 -0.5510722 -0.5662893
-0.56682545 -0.55719405 -0.5619906 -0.56104624 -0.56276923 -0.56203556 -0.57009286 -0.56637543
-0.5582611 -0.56182736 -0.5593135 -0.57007855 -0.5654791 -0.56769216 -0.55943865 -0.5586249
-0.5595831 -0.56342494 -0.5687146 -0.5630877 -0.55338144 -0.5632528

job_encoder.0.weight f4 [32, 4]
00000000: 053f 5f3e aa50 a2be 9b46 793d cf84 07bf
00000010: 12f4 34be de6a 77be 789a 103b cfe1 813e
00000020: f930 273d dc85 9ebd 2e7b 773d 2623 d63e
00000030: 7b99 0cbe 2557 a33e ed55 94be 5a5f 873d
00000040: 1618 cb3d f508 afbd 5e35 fabd 03d2 913e
00000050: 7c96 6b3e d98a 16bd 1580 25bf c7b9 043e
00000060: 17d0 913d d3b5 eb3e 4385 35bd cc61 03bf
00000070: 20ec fcbd fdf6 563e 46ee 94be 0318 50be
00000080: 3bfa 593e db2b 57be 87ef f7bd d433 923e
00000090: 2b12 073e ba21 eabe cbc9 783d 8232 823e
000000a0: ecec 23bd cb25 243e da10 1bbe 7f8d c73d
000000b0: ed55 3fbf c2dd be3d 8e25 c7bd 3566 56be
000000c0: e04b d73d aec8 adbd 2790 afbd daac 3e3d
000000d0: fff5 783d ceea bd3e c844 8dbd 7efd 14bd
000000e0: 6d46 14be 98b0 073e e294 afbd 27f5 96bc
000000f0: 7179 53bd 028c 793e 5cf6 d9be 74a5 153e
00000100: 8c35 bb3d 79f6 1a3e c39d 733d f30a 9e3e
00000110: 7d15 b33d 8e47 b9be b1e8 06bf 63d6 04bd
00000120: ad9e 1c3d ee37 943e 6ce4 43be f155 e5bd
00000130: 9eea a23e c1d9 21be 87a6 adbd 909f ffbd
00000140: c894 733e 5052 823e ac84 c8be 05a2 36be
00000150: 48a0 ccbe 9cef 4abe 2fcb 31be 3537 aabe
00000160: 1d43 a3be a21e cebe ea4a 9cbe d216 f3bd
00000170: 00e9 16bf 54ec de3d 43e5 c8bc 5857 8d3d
00000180: 2381 a23d 4322 fbbd ed8a 0ebe 8881 833c
00000190: 97e0 48bd 6e26 b2bc 47ec 9fbe 4926 003e
000001a0: 5de8 293e 181e fcbd 89df 3a3e 30b2 8fbe
000001b0: 5c58 1a3e a58a 043f 7b54 883d cb51 e63e
000001c0: f5a9 713e c849 4fbe 994d f2be c574 81be
000001d0: e135 93bd 0ff8 1d3d 1e1d c0be 9924 ac3e
000001e0: 8092 e1be 818b 87be a6a9 df3c 6963 483e
000001f0: 1c0f 77be 6b41 b0bd 7a78 fdbd 3bec 663e
0.21801384 -0.31702167 0.06085835 -0.52937025 -0.1767123 -0.2416186 0.0022064727 0.2536759
0.04081819 -0.077403754 0.060420208 0.4182369 -0.13730423 0.31902424 -0.28971806 0.06609984
0.099167034 -0.0854663 -0.1221721 0.2848054 0.23006624 -0.03675351 -0.6464856 0.12961493
0.07119768 0.46037158 -0.04431654 -0.513211 -0.12349725 0.20992656 -0.29088038 -0.2032166
0.21286862 -0.21012823 -0.12106233 0.28555167 0.13190524 -0.45728856 0.06073932 0.2542916
-0.04002087 0.16030042 -0.15143147 0.09743785 -0.7474049 0.09319641 -0.0972396 -0.20937426
0.10512519 -0.08485542 -0.08572417 0.046551563 0.060781475 0.37093204 -0.068978846 -0.03637456
-0.1447999 0.13250959 -0.08573319 -0.018427445 -0.051629487 0.24369815 -0.4257077 0.14613897
0.09141073 0.15133084 0.059476625 0.3086773 0.08744333 -0.36187404 -0.5269881 -0.032431018
0.038237263 0.2894892 -0.19130105 -0.11198033 0.31819624 -0.15805723 -0.08479028 -0.12481606
0.23787224 0.25453424 -0.3916372 -0.17835243 -0.39966035 -0.19817966 -0.17362665 -0.33245245
-0.3188714 -0.40257746 -0.30525905 -0.11869587 -0.5894928 0.1088492 -0.024523383 0.06901425
0.07934787 -0.12262394 -0.13920183 0.016052976 -0.04904231 -0.02174684 -0.31234953 0.12514605
0.16592546 -0.123104274 0.18249334 -0.28065634 0.15072769 0.51774055 0.06656738 0.44984278
0.2359999 -0.20242989 -0.47324827 -0.252844 -0.07188011 0.038566645 -0.37522215 0.33621672
-0.44057083 -0.2647362 0.027302574 0.19569172 -0.24126858 -0.086062275 -0.12376495 0.22551052

job_encoder.0.bias f4 [32]
00000000: 0000 0000 0000 0000 0000 0000 0000 0000
00000010: 0000 0000 0000 0000 0000 0000 0000 0000
00000020: 0000 0000 0000 0000 0000 0000 0000 0000
00000030: 0000 0000 0000 0000 0000 0000 0000 0000
00000040: 0000 0000 0000 0000 0000 0000 0000 0000
00000050: 0000 0000 0000 0000 0000 0000 0000 0000
00000060: 0000 0000 0000 0000 0000 0000 0000 0000
00000070: 0000 0000 0000 0000 0000 0000 0000 0000
0.0 0.0 0.0 0.0 0.0 0.0 0.0 0.0
0.0 0.0 0.0 0.0 0.0 0.0 0.0 0.0
0.0 0.0 0.0 0.0 0.0 0.0 0.0 0.0
0.0 0.0 0.0 0.0 0.0 0.0 0.0 0.0

job_encoder.2.weight f4 [32, 32]
00000000: 66ea 153d 90c8 583e a09b 0cbf 461c 883e
00000010: 51cd d03e ec95 83be 4425 4e3e 961a 933e
00000020: 8cbb 0a3e f9eb b6bd a0a4 2fbe 174a 533e
00000030: 3c85 653e 392c 133f 8c5b 49bd f584 b9be
00000040: 6664 00be 0968 273d 5b13 94be 9540 143e
00000050: fd4f 0fbe aab7 f0bd 8e32 383e f168 633e
00000060: 9bce a0bd 7f5e 013f 8701 013e 32e2 423e
00000070: 2296 e2bd 3792 d83d 95fd 813d b2e4 3fbe
00000080: 2849 1cbf 9330 c93d 5678 ccbd 6449 1ebe
00000090: 4a60 343c 9d83 ad3d 0f71 453e 4afe 88bd
000000a0: ebe5 e5bd 4103 ee3d dd8b cd3c d70c af3d
000000b0: cd6f 92bd 303b 5cbd 7774 69be d3fa b7be
000000c0: 04c5 933a 0314 01bf 9bd0 1f3c c4f1 cc3e
000000d0: d15c eabd e7fb a03e 49cf bd3e a758 8d3d
000000e0: 5487 953d 6437 a9be 3f7f b8be b032 e93d
000000f0: 87f1 e7be 7e79 803d bfe7 643e dd16 b63e
00000100: 9aa7 0cbe 027c 2dbe 1cc6 c1bd b9a5 18bc
00000110: 8e8d cf3e 2eb5 323e a035 95be e780 00bd
00000120: fe38 c33d cfc2 0c3f fd2f 01be 1932 29bc
00000130: f7e0 96bd 5f42 0a3e bb02 983e 61f5 8dbd
00000140: 6243 ec3e 4471 b8bd 4e22 20bd a29f 5cbe
00000150: 84a2 b2be 14e7 8d3e 7c7d 81be 5e5f 3f3e
00000160: b668 7cbe 7739 cabe 6e73 da3e 092e 053e
00000170: d5af ddbc 0432 59be 84ca aa3e dd5c 90be
00000180: 7f5b 35be 932f e03e d454 7c3e 34ae 173e
00000190: a9c3 4e3e b89b c7be c316 663e 99e7 e83d
000001a0: cc34 183b 100b c0bc 7a87 5f3d 77e8 00bf
000001b0: ab30 cb3d 59b9 83be 634f 833e 0905 0f3c
000001c0: ceeb 05bf 6ef3 00bf 66ad c13c 5efa 66bd
000001d0: be26 8e3e f543 533d 79f8 12be af3f 50be
000001e0: 1774 813d 8d42 f1bc 66bc d73e 6f66 433e
000001f0: 9f6b 243d 6085 76be 62c0 753e 5728 32be
00000200: a3cb 4c3e d8a1 483d ebf7 9bbd 4afd 86bd
00000210: 400a e83c 62cb 4a3e 77c2 623e 71ad 1abd
00000220: 48fa 22be 25c5 2ebf 5817 893e 8081 873e
00000230: 73be f63c f08e 08bf 6b7f dfbc 98f5 9dbe
00000240: 7caa 263e 0256 38be d1e3 a03e 2384 fabc
00000250: 33c8 20be 8bbd 6d3e d452 11be 85a0 f33e
00000260: 2c8c 4cbe feb7 1f3d 495a e93e f0da f43a
00000270: 8b0d 15be 4338 0a3e fb64 2fbe 93fe 4ebe
00000280: cf98 b73d 9817 993d e889 22be 89c8 d7bd
00000290: a4ab cfbd 3c70 c7bd 452f 443e b854 a33e
000002a0: 64db 1f3f 76e9 323d 58e0 1e3e 3b9e f1bd
000002b0: e83b b9be fe22 c0be 0462 26be 61bc bbbd
000002c0: f956 96bd a84e 0f3e 8f4a 96be 6574 7c3d
000002d0: 8f07 8bbc 5cfd dabe e7e6 8dbd 1aef e13d
000002e0: fc66 aabe 7097 aebe c165 90be 5b5e a9be
000002f0: d997 a4be cfbc 29be 4434 f43d bece d8be
00000300: 1ea4 ee3e 3a2d 333e 4889 2e3d 8f38 803e
00000310: f536 36bd eae8 2f3e 34b2 be3e 0ca4 973e
00000320: 8b05 d3be 0a6b 613e de2f c9bd 2488 15be
00000330: 0a3d 1cbe 4714 8a3e ff1f 64be aaf9 953e
00000340: 3d38 2c3e bc03 bcbe eced e23b 5255 83be
00000350: 14fb 9c3d c64f 9f3e b24a d3be 28dc c33d
00000360: f2e8 f23c 0504 6d3d d93c dabe df92 b03c
00000370: 970a d9be 1273 20bd 6e94 3ebe 9919 41be
00000380: e6a2 ad3d 1e2d 893e 2745 57be cb69 d73d
00000390: 9250 99be 6289 da3c 555f 9dbd 0948 d73d
000003a0: 9d99 48be c23c 793d d940 b23e 857c 403b
000003b0: 138c 533d 8f9a 7abe 16e8 873e 9133 433e
000003c0: ec2f 2cbc d828 583d 72b0 ccbe 1d17 f23e
000003d0: 3b65 fdbe 6e74 b93e 3ed9 a8be a857 1fbe
000003e0: 87fd 87be a451 bb3e 6931 ffbd 22bf 5bbe
000003f0: 0aeb 813e a6c7 8bbd 48b2 be3e c7b2 733e
0.036600493 0.21170259 -0.54924965 0.2658407 0.40781644 -0.2570032 0.20131403 0.2873122
0.13548106 -0.08931727 -0.17152643 0.20633732 0.22414106 0.57489353 -0.04915957 -0.3623425
-0.12538299 0.0408707 -0.28921017 0.14477761 -0.13995357 -0.11753781 0.17988035 0.22208
-0.07851907 0.50534815 0.12598239 0.19031599 -0.11063792 0.10574763 0.06347195 -0.18739584
-0.6104913 0.09823718 -0.0998389 -0.15457684 0.011009285 0.08472369 0.1928141 -0.06689127
-0.11225494 0.116217144 0.025091106 0.08547371 -0.071502306 -0.053767383 -0.22798334 -0.3593355
0.0011273925 -0.5042116 0.009754325 0.40028203 -0.114434846 0.31442186 0.3707221 0.06901675
0.073012024 -0.33050072 -0.3603458 0.11386621 -0.45301458 0.06273173 0.22354029 0.35564318
-0.1373581 -0.16941836 -0.094616145 -0.009316855 0.40537685 0.17451927 -0.29142475 -0.03137293
0.09532355 0.54984754 -0.12615962 -0.010326886 -0.073671274 0.13501881 0.29689583 -0.06931568
0.4614516 -0.09005979 -0.039095215 -0.2154527 -0.34889615 0.2771536 -0.2529105 0.18688723
-0.24649319 -0.39496967 0.4266619 0.13005842 -0.027061382 -0.21210486 0.33357632 -0.2819585
-0.17710684 0.43786296 0.24641734 0.14812547 0.20191826 -0.3898599 0.2246962 0.11372299
0.0023224829 -0.023442775 0.05457256 -0.50354713 0.09921392 -0.25727347 0.25646505 0.008729228
-0.52312934 -0.50371444 0.023642253 -0.056391113 0.27763933 0.05157848 -0.14352597 -0.20336793
0.063209705 -0.02945068 0.42135924 0.19082044 0.040141698 -0.24074316 0.2399917 -0.17398201
0.19999556 0.04898247 -0.07615646 -0.0659128 0.0283252 0.19804147 0.22144495 -0.037763063
-0.15915787 -0.6826957 0.26775622 0.26465988 0.03012011 -0.53343105 -0.027282437 -0.30851436
0.16275972 -0.1800156 0.3142381 -0.030580586 -0.1570137 0.23216836 -0.14191753 0.47583404
-0.19975346 0.038993828 0.45576695 0.0018680971 -0.14555947 0.13498025 -0.17128365 -0.202143
0.08964693 0.07475203 -0.1587292 -0.10536296 -0.1014016 -0.09738204 0.19158657 0.31900573
0.6244414 0.043679677 0.15515268 -0.11797758 -0.36178517 -0.37526697 -0.16248327 -0.0916679
-0.073408075 0.13994849 -0.2935376 0.06163444 -0.016971378 -0.42771423 -0.06928807 0.11031933
-0.33281696 -0.34099913 -0.28202632 -0.330798 -0.321471 -0.16575931 0.119240314 -0.42345232
0.46609586 0.17497721 0.04261139 0.2504315 -0.044486005 0.17178693 0.37245333 0.29617345
-0.41215166 0.22013488 -0.09823583 -0.14602715 -0.1525766 0.26968595 -0.2227783 0.2929204
0.16818328 -0.367216 0.006925335 -0.25651032 0.07665077 0.3111555 -0.41267926 0.09563476
0.029652093 0.05786516 -0.42624548 0.021554409 -0.42390892 -0.03917224 -0.18611309 -0.18857421
0.08478336 0.26792234 -0.21022473 0.10518225 -0.29944283 0.026676837 -0.07684199 0.105117865
-0.19589849 0.06084896 0.348151 0.0029371094 0.051647257 -0.24473022 0.26544255 0.1906264
-0.010509472 0.052773327 -0.39978367 0.4728326 -0.49491295 0.3622164 -0.32978243 -0.15560782
-0.26560614 0.36585724 -0.12460596 -0.2145963 0.25374633 -0.06825189 0.37245393 0.23798667

job_encoder.2.bias f4 [32]
00000000: 0000 0000 0000 0000 0000 0000 0000 0000
00000010: 0000 0000 0000 0000 0000 0000 0000 0000
00000020: 0000 0000 0000 0000 0000 0000 0000 0000
00000030: 0000 0000 0000 0000 0000 0000 0000 0000
00000040: 0000 0000 0000 0000 0000 0000 0000 0000
00000050: 0000 0000 0000 0000 0000 0000 0000 0000
00000060: 0000 0000 0000 0000 0000 0000 0000 0000
00000070: 0000 0000 0000 0000 0000 0000 0000 0000
0.0 0.0 0.0 0.0 0.0 0.0 0.0 0.0
0.0 0.0 0.0 0.0 0.0 0.0 0.0 0.0
0.0 0.0 0.0 0.0 0.0 0.0 0.0 0.0
0.0 0.0 0.0 0.0 0.0 0.0 0.0 0.0

queue_encoder.0.weight f4 [32, 3]
00000000: a27b 0c3f a0a5 bf3d e772 ed3e faa6 7fbe
00000010: fdc8 193d 72b8 5fbd 5867 80be 36c8 85be
00000020: 7209 02be c804 30bd 8187 0b3f d545 86be
00000030: 1aae ea3c 105a 4d3d 0f48 93be f4ba dfbe
00000040: 9502 e53a 98f9 803d 5b9d 7cbc ea50 283e
00000050: e0e6 043f 64b9 c03e 9177 fc3e ba23 4a3f
00000060: 35cb 003d 97da a33e 28c5 963e 4a0b 3c3d
00000070: b90d 47be 3940 76be cb63 663d 5c9d 973e
00000080: c814 71bb 3187 8b3e 9bc2 a83e 5e31 f83d
00000090: 66fe a43e 40d1 aabc 7942 283f 4b4f a9bc
000000a0: 4915 3dbe 9666 25be 73ec 433e bf2d b2bd
000000b0: 05a0 7dbe ff12 7f3d bc8c 1e3f 24be fe3e
000000c0: 63e4 2bbd 7d3f 693e 7a1f 423e 45cf ee3e
000000d0: 3230 433e b0fa 8cbe 007f 0e3f 329d 7c3e
000000e0: 1e2a 0d3d a2f1 8e3d 13fe 73be ae3f 1fbe
000000f0: e406 23bf f43e febd 9f64 e53d 722a 64bc
00000100: fba6 aa3e bcda c63d 92d9 f83c f654 ec3d
00000110: 9873 553e 9692 873e 4646 afbe e0a0 a0be
00000120: d3fd 9abe f0bb 84be 49aa 9e3e 9967 07be
00000130: 2bd8 2fbe 780f a0be cfd7 283e 7729 6d3e
00000140: cca3 bc3e 4ccc 17be f2d4 d83e 641f 6fbd
00000150: f877 bcbe 3589 483f 5e4d 603d 0826 ec3e
00000160: 6a44 bd3e 374d 12be 13ac 8e3e 1af9 023e
00000170: 71cd c53e eeaf 0b3d eb49 e73e 5ed1 95bd
0.5487615 0.09357762 0.46376726 -0.2496604 0.037545193 -0.05461926 -0.25078845 -0.2612931
-0.12698916 -0.04297331 0.5450364 -0.26225153 0.028647471 0.05013472 -0.28765914 -0.4369732
0.0017472083 0.06297606 -0.015418376 0.16437116 0.5191479 0.37641442 0.49309972 0.78960764
0.031443793 0.32002708 0.29447293 0.045909204 -0.19438829 -0.24047936 0.056247514 0.29612243
-0.0036786068 0.2725158 0.32960972 0.12118791 0.3222534 -0.020851731 0.6572643 -0.020667693
-0.18465151 -0.16152415 0.19133167 -0.087001316 -0.24768074 0.062273975 0.61933494 0.4975444
-0.041965853 0.22778125 0.1895732 0.4664251 0.19061354 -0.2753501 0.55662537 0.2466934
0.034463994 0.069796816 -0.2382739 -0.15551636 -0.6368239 -0.12414351 0.112008326 -0.013926135
0.3333052 0.09709689 0.030377183 0.115396425 0.20844877 0.26479024 -0.34233302 -0.31372738
-0.30271778 -0.25924635 0.30989292 -0.13223113 -0.17172305 -0.31261802 0.16488574 0.23160349
0.36843717 -0.14824027 0.42349964 -0.058379546 -0.3681028 0.7833436 0.054761283 0.46122766
0.36966258 -0.14287268 0.27865657 0.12790337 0.38633302 0.034103326 0.45173582 -0.07315324

queue_encoder.0.bias f4 [32]
00000000: 52a9 82bc 45d5 b93d a501 ef3d 306b 88bd
00000010: d835 c43d 85cb 1bbe 81a5 efbc 5ff2 023c
00000020: bb89 45bd ca33 973d 6733 75bd 03dc 20bd
00000030: 79d3 6cbc fd76 b83d 5e84 9e3d 9f76 1cbc
00000040: 55de 8bbd 2ccd 993d 6617 e8bc d936 b03d
00000050: 7d0d 6ebe 429e 5dbd 50cd 59bd 44f2 c23d
00000060: 8be2 d1bc ec9f c93d cc1b 43bc 9b56 dfbd
00000070: 90fb 8fbd c6c6 13bd e074 9abc e487 9cbc
-0.015949879 0.09073881 0.116702355 -0.066610694 0.095805824 -0.15214355 -0.029253723 0.007992356
-0.048227053 0.07382925 -0.059863474 -0.03927232 -0.014454716 0.0900707 0.07740091 -0.009549766
-0.06829516 0.075098366 -0.02833147 0.08604211 -0.23247333 -0.054106005 -0.053174317 0.09518865
-0.02562072 0.09844956 -0.011908483 -0.109051906 -0.070304036 -0.036078237 -0.018854558 -0.019107766

queue_encoder.2.weight f4 [32, 32]
00000000: 0a4d c1be bf22 a13e 60ef acbe 6f86 63bf
00000010: 4bd3 463d 4242 0c3e 3338 7c3d a31f d1be
00000020: bd67 0f3e 9673 dd3e 951c 3b3d 5364 27be
00000030: 1238 09be 6b79 223e ec65 433e 3dea 3f3e
00000040: f75a 2ebe 0455 333e 37a8 15be e62d 09be
00000050: b3f7 ad3e 685c 29bd ec8a c23d 29c4 7e3d
00000060: e041 8bbe effc 5abb c256 643d 6ca4 1d3e
00000070: 8b02 4abe 3450 b53c 8ea4 1fbe 4a02 1c3e
00000080: f1cf 723e 8ff6 253e 9cb8 05be 9c86 483e
00000090: b2b1 f13c 9f29 b6be 3411 c5be a412 0b3e
000000a0: 1448 babd 10c2 9abe 1fc2 703c 04f9 b5be
000000b0: 5497 76be 3d87 dabe 3849 603d 27a6 fb3e
000000c0: ae51 5eba ba59 a0be ebee 273e 16d0 33bf
000000d0: d012 863e 8e22 ac3a eebe 54be 7137 2abe
000000e0: 5cbe 033d 5fdf 9d3d a817 8d3d 0739 7a3e
000000f0: 1302 d13e 7ddc a5be afc3 82be 9713 853e
00000100: 50df 76bd 733b 053d 22b6 ac3e 09dc 6dbe
00000110: bfb2 0b3e 5cbe febe 8d9a b03e 1282 b8be
00000120: 56c1 84bd d5a4 b6bc 2fa2 2c3e d79f 1cbf
00000130: dc50 89be a9a6 843d 0c86 67bc fa90 cbbd
00000140: 2719 1bbd 9119 c8bd 1fd4 f93d 0adb 483e
00000150: b23d 1dbf 8640 f63d 16c7 873e fd67 fd3d
00000160: 698c 4c3d bee2 a73e f5a7 ad3e 1ec2 70be
00000170: 0c96 1f3e f8cc 063e 4706 4b3e 1448 693e
00000180: 956b 0bbe fada 90bd 2773 0fbe 677f 01be
00000190: 4d9d bdbd 9464 493e 511d b3be bed3 343f
000001a0: e7c3 14bd a05b 3ebe 9458 0d3e 4622 7f3d
000001b0: 963a ffbd 90fe 56be a60b 893d 01ab 843e
000001c0: a64e 1c3d e8ab fb3e d8ab 21be 8376 23bd
000001d0: af07 47be 46e1 e63d 83d5 243f 6b33 3ebe
000001e0: 1c1b 6a3e a475 283b 56f9 153e 99c5 343e
000001f0: 0d66 d83e 8079 74be 9a26 073f 4653 483e
00000200: 84ae 003c 03b5 b2be c27b 0cbd 1b81 febe
00000210: bdd2 7e3f 4782 8b3d e425 bebd 0928 f9bd
00000220: cf26 2f3d ae70 253e 0fed 9f3d d17d 8a3d
00000230: c617 81be 0bf3 eabd e5ad cbbc 708e d5be
00000240: 9b4f 3a3e fa0d 01be 70b3 b5be 3504 13be
00000250: 5cf4 69bd 4bbd 393d 0897 80be c28e ed3d
00000260: 6f48 4a3e 0814 2d3e 57f0 9abe 2af2 f1be
00000270: dbaa dabc 5482 c6bd d165 683c f499 4ebe
00000280: 20fd 1c3e 6179 fcbe d1ae 073e 50b5 303d
00000290: 6e28 b53e a816 1fbd 26c1 eb3d 7dd0 8fbe
000002a0: f702 97be 69ff 983e 67d2 3b3e 3f3e 98be
000002b0: 4c08 f03d 9058 dbbd 4fde 9b3d 456f f13e
000002c0: 1dfa a4be f14a c43e 669a 11bf 3ea7 9d3e
000002d0: abec d3be 6232 57bc 3e5d 14be eb9a cdbd
000002e0: e85e 74bd fedb 85be afa4 1abe 4528 443d
000002f0: 6238 c8be 33f1 79bd 365e bfbe 2055 1e3e
00000300: ff22 81be 90ee 84be 916a 65be cdce fb3e
00000310: 9596 7abd 0f46 b8be 08cf ac3d 895e 733e
00000320: c93d dc3e 5dcb 48bd 11b0 8e3b 058c 65be
00000330: 7d73 2f3e dc29 833e a4a6 003b e151 da3e
00000340: 8b9f 183f e31e 08bd afd6 87be d7a0 82be
00000350: b81d af3e d702 8cbe c70f 1a3e 4e0d 29be
00000360: 853e abbd f109 4ebe c785 82bd 82da 9abd
00000370: f80b 083e b43d 043f 31b8 ea3e a038 e23d
00000380: 0614 81be 08cd f23e 959b a0be 25ed 643e
00000390: 261e 883e b101 1fbe 9ef1 d9bd 9431 c1be
000003a0: 9ac3 1bbe 5801 81be 60bb 2d3c 1a0b e93d
000003b0: fa3e 953e eeac 08be ed24 803d 139f 53be
000003c0: 1c4e 813d 4fe1 d6bd 1c36 ebbe 4ed7 813e
000003d0: b2d0 30be f4eb a4be c276 c23e 0e2c bdbe
000003e0: 5404 0c3d edf5 e43e 7f35 c5bd 9fe7 e3bc
000003f0: 4c50 14be fdb4 9abe 093e a2be 9075 08be
-0.3775409 0.31471822 -0.3377638 -0.88877004 0.04854135 0.1369715 0.061577033 -0.4084445
0.14004417 0.43252248 0.045681555 -0.16346864 -0.13400295 0.1586663 0.19081849 0.18741699
-0.17026888 0.175129 -0.1461495 -0.13396415 0.33978042 -0.04134789 0.094991535 0.06219879
-0.27198696 -0.003341492 0.0557468 0.15394753 -0.19727533 0.02213297 -0.15590116 0.15235248
0.23712136 0.16207336 -0.13058704 0.195826 0.029503677 -0.3557863 -0.38489687 0.1358133
-0.09095779 -0.30226183 0.01469472 -0.35541546 -0.24081165 -0.42681304 0.054757327 0.49150202
-0.0008480799 -0.31318456 0.16399734 -0.7023939 0.26186228 0.0013132857 -0.20775959 -0.16622712
0.032163963 0.0770862 0.06889278 0.24435817 0.40821895 -0.32394782 -0.2553992 0.25991508
-0.06027156 0.0325274 0.33732706 -0.23228468 0.13642405 -0.49754608 0.34492913 -0.36036736
-0.064821884 -0.022295395 0.16858743 -0.61181396 -0.26819503 0.064771004 -0.01413108 -0.099397615
-0.037865784 -0.097705014 0.12198662 0.19614807 -0.61422265 0.120240256 0.26519078 0.1237335
0.049938593 0.32790178 0.33917204 -0.2351155 0.15584582 0.13164127 0.19826613 0.22781402
-0.13615258 -0.070730165 -0.14008771 -0.12646256 -0.09258518 0.19667274 -0.34983304 0.7063559
-0.03631964 -0.1858964 0.13803321 0.062288545 -0.12462346 -0.20995545 0.06691675 0.25911716
0.038160942 0.49154592 -0.1578821 -0.039907943 -0.19436525 0.11273436 0.64388293 -0.18574302
0.22861904 0.0025704885 0.14645895 0.17653503 0.4226536 -0.23874474 0.52793276 0.19563016
0.007854108 -0.34903726 -0.034297712 -0.49707875 0.9954031 0.06811958 -0.09284571 -0.12165839
0.04276162 0.16156265 0.07808887 0.06762279 -0.2521345 -0.11472138 -0.024863193 -0.41710234
0.1819443 -0.12602988 -0.35488462 -0.14357074 -0.057117805 0.04534654 -0.25115228 0.115994945
0.19754194 0.16902173 -0.3026149 -0.4725507 -0.026692798 -0.09692827 0.014184431 -0.20175916
0.15330935 -0.49311355 0.13250281 0.043141663 0.35382408 -0.038839966 0.115114495 -0.2808875
-0.2949445 0.29882362 0.18341981 -0.2973499 0.117203325 -0.10710251 0.076107614 0.47155204
-0.3222207 0.38338426 -0.5687622 0.30791658 -0.413915 -0.013134571 -0.14488694 -0.10039314
-0.059660822 -0.26144403 -0.15101884 0.047889967 -0.39105517 -0.06102104 -0.37376565 0.1546216
-0.25222012 -0.2596326 -0.22403933 0.49181214 -0.061178762 -0.3599095 0.084379256 0.23766531
0.43015888 -0.049022067 0.004354485 -0.22416694 0.17133899 0.25617874 0.0019630576 0.42640594
0.59618443 -0.03323258 -0.26530978 -0.25513336 0.3420236 -0.27345917 0.15045081 -0.16508982
-0.08361534 -0.2012098 -0.06373172 -0.07561208 0.13285816 0.5165665 0.45843652 0.110459566
-0.2521059 0.4742205 -0.313687 0.22356088 0.265855 -0.15527989 -0.10641788 -0.37733138
-0.15211335 -0.25196338 0.010603756 0.113790706 0.2914961 -0.13347217 0.06257043 -0.20666151
0.06313726 -0.10492193 -0.4593972 0.25359577 -0.17267111 -0.32211268 0.3798123 -0.36947674
0.034183815 0.44718876 -0.09629344 -0.027820406 -0.14483756 -0.30216208 -0.31687954 -0.13326097

queue_encoder.2.bias f4 [32]
00000000: 252f 8c3d 8239 d0bd 0778 933d 9929 91bd
00000010: c841 723d e4d1 9e3d e8a1 71bd b0b6 603d
00000020: afdf 803d a367 9ebd 5057 5cbd 0d50 9e3d
00000030: 5e46 8bbd f447 983d e3da a2bd a075 51bd
00000040: 627e 5e3d d036 423d 11cb aabd 95ea a83d
00000050: 23fa a33d 911c 66bd fe98 423d 4b32 a13d
00000060: cae4 933d 8085 49bd 37f6 95bd da74 49bd
00000070: 4a38 78bd ed4c 31bd c4b3 50bb d787 ad3d
0.068449296 -0.10167219 0.07200628 -0.07088012 0.059144765 0.07754877 -0.058992296 0.054861724
0.06292664 -0.07734611 -0.053794205 0.07730112 -0.06800531 0.07435599 -0.079519056 -0.051137567
0.054319747 0.047415555 -0.08339513 0.08247868 0.08006694 -0.056179587 0.047509186 0.07870921
0.072213724 -0.04919958 -0.073223524 -0.049183704 -0.060600556 -0.043286253 -0.003184543 0.08473175

host_encoder.0.weight f4 [32, 2]
00000000: c6a2 c0be 3a43 073e d82c 343d e1ae 323e
00000010: 3de9 b93e a0e8 96bc 314f 06be a9b8 e9bd
00000020: 8cd6 4fbe 5d20 52be ca3e f7be e611 e83d
00000030: 26d3 8ebe 1b6b 5ebd 4c34 863d 18cd d53e
00000040: c17d 92be 244e 00bd 649e a83e 6716 16bf
00000050: 07bd 64be 33d6 20bf 9cf2 6cbe 58f0 b43e
00000060: 413b cbbd 4b87 c43d 1231 e8bc 92b4 f6bd
00000070: b508 25bd 70bd 5a3e 807d 433d f746 8cbe
00000080: 6dd1 903e 84e9 fb3e 24b3 a5be d333 42bd
00000090: d63a 08be 75a9 2cbd 5d05 07be e57b 73be
000000a0: 3cc6 22bd 6633 3dbd e50d 923e b412 063f
000000b0: ae42 f73c 73c5 51bd 6a1c 60be 43fe 3ebe
000000c0: 2dd2 ebbe dd8a a83d 94cf b2be 0434 8c3e
000000d0: bd0d 083d f292 2dbf 921a 93be c57a 19be
000000e0: 5b53 a13e 71e0 b6be a7a2 f03e 28da 41be
000000f0: 2150 99be 0b65 37ba ca83 233e 9bcb a8be
-0.37624186 0.13209239 0.04398808 0.17449524 0.3631076 -0.018421471 -0.13116147 -0.11412174
-0.20296687 -0.20520158 -0.48290092 0.11331539 -0.27895468 -0.054301362 0.065529436 0.41758037
-0.28611568 -0.03132452 0.32933342 -0.58627933 -0.22337733 -0.6282684 -0.23139423 0.35339618
-0.09923411 0.095961176 -0.028343711 -0.1204616 -0.040291507 0.21361327 0.047727108 -0.27397892
0.2828478 0.49201596 -0.32363236 -0.047412705 -0.13303694 -0.042153794 -0.1318564 -0.23777731
-0.039739832 -0.046191595 0.28526226 0.5237229 0.030183163 -0.051213693 -0.21885839 -0.1865168
-0.4605879 0.08229611 -0.34923995 0.27383435 0.033216227 -0.67802346 -0.2873121 -0.14988239
0.31508908 -0.3571811 0.46999094 -0.18930876 -0.29943946 -0.00069959526 0.15968242 -0.3296784

host_encoder.0.bias f4 [32]
00000000: 3ae7 8a3c a2d3 19bc 8d36 7dbc 49bf a9bc
00000010: 7d19 3e3c 15f9 b83c 5f5b c0bc 8a8c a53c
00000020: f75c 5c3c 72b8 c3bb 3753 b03c 4cb1 003d
00000030: ff59 873c 1067 58bc 1eae 1ebc e77f dd3c
00000040: 6991 b93c 6420 c23c 79a2 c2bc 5621 97bc
00000050: f848 a5bc f639 393c eea3 a6bc c68b a6bc
00000060: 4ebf 513c 6cba 61bc e56a 29bc 2245 eebc
00000070: 7856 f33c 15b8 8cbc 27eb 923c e546 61bc
0.01695596 -0.009388836 -0.0154549 -0.020721095 0.011602757 0.022579709 -0.02348107 0.020208616
0.013449899 -0.0059729153 0.021524055 0.031419083 0.016522406 -0.013208166 -0.009685067 0.027038528
0.022652345 0.023697086 -0.023759114 -0.018448513 -0.020176396 0.011305323 -0.02034184 -0.020330321
0.012801958 -0.013777357 -0.010340427 -0.0290857 0.029704317 -0.01717762 0.017934395 -0.013749813

host_encoder.2.weight f4 [32, 32]
00000000: 124a 463d c942 64be 2320 70bd d9ce 1ebd
00000010: 1f6a 5e3e 92d9 c13d 8ebd ee3e f9fe bdbd
00000020: 2faa 2e3e d53f 493d 275d 28be 18c1 3c3e
00000030: e99e 37bd 8553 9c3e bd38 82be 0b64 d1be
00000040: a5fd b4bb 9eeb aa3e 0642 91be 2c49 193e
00000050: abaf f8bd 8ce9 c63e 3012 32be 005d f73e
00000060: 2f19 84be c6d2 3b3e 35ce 043e 3fb2 0abf
00000070: 84cc 923e 71f1 e4bd 55ca f8bc d15f b1be
00000080: 8eb9 d13d 3a69 8abd 0ca3 7d3d 3be4 9a3e
00000090: fa0b 353e 3dbb 283f 67df f33c 061d d4bd
000000a0: 88e4 1bbe 065c 903d de7b 8bbe 9828 fb3e
000000b0: fee4 5a3d 3c18 853c 9e96 b73d 0ac8 79be
000000c0: cc70 2f3d f256 2dbe 8879 f0be 93f0 35bd
000000d0: 483b d33e 3410 e5be ad09 203e de08 053e
000000e0: 0e3c 0f3e 2bcd 7abe c9e4 96be 8c84 513e
000000f0: 7531 ebbd 5d93 b4be 0ee2 703d 7d5a 50be
00000100: 4632 ac3c 0b3a 22be be4e 9e3e b00c 803e
00000110: dd55 17be 145f 023a e0e0 113d 760b b7be
00000120: 02f1 d4be d22f 553e 8bf3 f03d 2092 1d3d
00000130: e42e fabe 2883 d43e d5d1 393e f681 833e
00000140: baaa bd3e 77f6 b2bd 0a41 233f 99c2 993e
00000150: bed9 483e f21a 38be 3370 b8be 4573 5d3d
00000160: 5b02 adbe a46c 2cbe bf77 93bd e5c6 9bbe
00000170: e241 e4bd ddd2 b93c f56b 97be 91fd 003e
00000180: 0449 1dbe 0fd2 a43e 30c0 70bd 7d18 c73c
00000190: 4599 99bd 4710 d23e 5667 e83e 577d 6cbb
000001a0: 026b 06bd f653 ea3e 007d 393e 528a c93e
000001b0: c941 e6bd 827f 97be 69e1 a5bd b087 cb3d
000001c0: 6267 0c3e f50a 943e eb42 5d3e 0b15 b0be
000001d0: 27f9 a7bc 1d62 11be 6893 e0bd 87d4 953c
000001e0: 426d af3d b602 f33d 24a0 483f 6aa7 543e
000001f0: e195 92bd f08a 7e3e 6bc4 59bd f379 d53c
00000200: 61e1 56be 9668 3c3d 2ffa 12be 1fda 283f
00000210: 38f0 393e 9afb a1bd 102b 8abd 3214 ad3d
00000220: 5a52 da3d bf8f 2d3e f72a 643e a49b 34be
00000230: da54 543e 42c4 10bd f5aa 68be a497 863e
00000240: 7b9c babd 6391 313e 184f 37bd b148 81ba
00000250: e700 a23e 473f 65be 5176 2abf f4cc 773e
00000260: 55c3 603d eb94 233e c1a8 75be e70e cfbc
00000270: 27aa 523e a252 aa3e 3869 133f 6373 f13c
00000280: d84d 3e3e 97b5 123e f78d ce3c 2fc7 0e3e
00000290: e675 c0bd 10a6 b53e 3a3a b03e d859 f43d
000002a0: e6e9 25be 9897 89be b1ce 693e c5f8 d5be
000002b0: c93b ab3e 37e1 3ebe 1b41 1f3f 5695 b7bd
000002c0: adb9 563d dfc8 153e 910c 8c3e b987 30be
000002d0: 5965 f6bd ce93 98bd 0627 a53e c218 473e
000002e0: a672 8f3e 2d7f fd3c 5f69 debc 7753 07bf
000002f0: e68d 023e 0314 9dbe 0764 b43e c971 9cbd
00000300: ad7b 833e f6f0 9d3e feec 073e b2b4 2d3e
00000310: 13e3 b23c 8d3d 7a3e be33 3d3e 4462 e3bc
00000320: a702 433e 9b88 993e e9b2 efbd f500 88be
00000330: b535 96bc 4897 43be 85c9 b1be d67d f6be
00000340: 3f12 0f3e 9889 a5be 59d8 433e bb0a 0d3f
00000350: e882 7abe 8075 1fbc 5c2f 583e 6f8e d5be
00000360: de8c 17be 7a9c c4bd 2674 46be 98ac e9bd
00000370: a8e3 85be f880 d93e bb71 5e3e 1980 c4bd
00000380: 96aa d4be 9d4a d8bd 289b 12be a52f 853e
00000390: 258d 87be ebdc a0be 9722 043e f56c 6e3a
000003a0: 420b 513e 8a25 cc3d 2c7d 10be 1673 d63e
000003b0: 2bca 66be 77d2 a73d 8c69 a73e 6791 04bf
000003c0: 0616 52be 55c0 adbe 0946 c13d 7abf 003e
000003d0: 57ec d8bd 11e5 843d e002 debd 6f66 41be
000003e0: 99d8 c23e 1065 4d3e 7717 033e d462 37be
000003f0: 2a91 27be 8828 9fbe 2373 af3e 3fcb e23e
0.048410483 -0.22291102 -0.058624398 -0.038771484 0.2172017 0.09465326 0.46628994 -0.09277148
0.17057107 0.04913314 -0.16441785 0.18433034 -0.044829283 0.3053247 -0.25433913 -0.4089664
-0.005523401 0.33382887 -0.28370684 0.14969319 -0.12142881 0.38850057 -0.1738975 0.4831314
-0.25800464 0.18342122 0.12969287 -0.5417823 0.28671658 -0.11178864 -0.030369917 -0.34643415
0.1024047 -0.067583516 0.06192307 0.3025225 0.1768035 0.659107 0.029769612 -0.10357098
-0.15223897 0.07048802 -0.2724294 0.49054408 0.05344104 0.016246907 0.08964275 -0.24392715
0.04283218 -0.16927698 -0.4696772 -0.044418883 0.41256166 -0.44738925 0.15628691 0.12991664
0.13987753 -0.24492328 -0.29471424 0.20460719 -0.114840426 -0.3526868 0.058809333 -0.20347019
0.021020066 -0.15842454 0.3091945 0.2500968 -0.14778848 0.0004973274 0.035614848 -0.35750932
-0.41590124 0.20819023 0.11765202 0.038469434 -0.488639 0.41506314 0.18146451 0.2568509
0.37044317 -0.08738416 0.63771117 0.3003128 0.19614312 -0.17979029 -0.360231 0.054065008
-0.3379086 -0.16838318 -0.07200574 -0.30425182 -0.11145379 0.022683555 -0.29574552 0.12596728
-0.15359885 0.32191512 -0.058777034 0.02430367 -0.07499937 0.41028044 0.4539134 -0.003608545
-0.032816894 0.45767182 0.1811409 0.39363343 -0.11243016 -0.29589468 -0.08099634 0.0993799
0.13711312 0.2891461 0.21607558 -0.34391055 -0.020504547 -0.14197583 -0.109656155 0.018289817
0.08565761 0.118657514 0.78369355 0.20766988 -0.071574934 0.24857688 -0.053165834 0.026059126
-0.20984413 0.04599818 -0.1435325 0.65957826 0.18158042 -0.07909317 -0.06746495 0.084511176
0.106602386 0.16949366 0.22282015 -0.17637497 0.20735493 -0.035343416 -0.22721465 0.26287568
-0.091118775 0.17340617 -0.044753164 -0.0009863583 0.31641313 -0.2238742 -0.66586787 0.24199277
0.054873783 0.15974776 -0.23990156 -0.02527566 0.2057272 0.3326617 0.57582426 0.029473966
0.18584383 0.14327084 0.025214178 0.1394317 -0.09397487 0.35478258 0.34419423 0.11931199
-0.16202506 -0.2687347 0.22832753 -0.4179136 0.3344405 -0.186406 0.6220872 -0.089640304
0.052423168 0.14627407 0.27353337 -0.17239274 -0.12031049 -0.074500665 0.32256335 0.19443038
0.28017157 0.030944431 -0.027149854 -0.5286173 0.12749442 -0.3067933 0.35232565 -0.0763889
0.25680295 0.308479 0.13273999 0.16963461 0.021836793 0.24437542 0.1847677 -0.027756818
0.1904398 0.29987034 -0.11704046 -0.2656323 -0.018336156 -0.19100678 -0.3472406 -0.4814288
0.13971804 -0.32331538 0.19125499 0.550945 -0.24464 -0.009732604 0.21111816 -0.4171023
-0.1479983 -0.09600158 -0.19380245 -0.11409873 -0.2615025 0.42481208 0.21723072 -0.09594745
-0.41536397 -0.10561106 -0.14317 0.26012912 -0.26474872 -0.31418547 0.1290382 0.00090952154
0.20414451 0.099680975 -0.1411025 0.4188468 -0.22538058 0.0819444 0.32697713 -0.51784366
-0.20516214 -0.339358 0.09437186 0.12573043 -0.10591953 0.064890034 -0.10840392 -0.18886732
0.38055876 0.20058084 0.1280192 -0.17908794 -0.1636397 -0.3108561 0.3426753 0.4429569

host_encoder.2.bias f4 [32]
00000000: b076 5a3c 2438 863c 5ede cabc 2685 88bc
00000010: 0d59 e4ba 0f99 863c 912d b7bc dd61 93bc
00000020: 8172 863c 092d 943c aea8 58bc aef0 babc
00000030: 8ea0 ab3c b762 e73c 2ebd df3c a686 a03c
00000040: 4e12 3fbc a15f aebc 1505 483b 36d9 93bc
00000050: d96c a0bc 7b5a d43c 130e 7e3c 2602 b2bc
00000060: 6974 2fbc c2e5 8c3c a50b 90bc 807a ce3c
00000070: 8cb6 c23c 6efd b73c 5a06 dcba 51fe b53c
0.013333961 0.016384192 -0.024764236 -0.016665053 -0.0017421559 0.016430406 -0.022360595 -0.017991
0.016412022 0.01808788 -0.01322381 -0.022819843 0.020950582 0.028245313 0.027311888 0.019595455
-0.011662079 -0.021285834 0.0030520607 -0.01804791 -0.019583153 0.02592205 0.015506285 -0.02172954
-0.010708907 0.0171994 -0.017583678 0.025204897 0.023768686 0.022459712 -0.0016786561 0.022215994

job_queue_attention.in_proj_weight f4 [96, 32]
00000000: bd68 4d3c 4b68 27be 02f2 703d 9761 3ebe
00000010: fa21 b5bd 4748 1a3e 0cf8 4f3e 3fab 8abc
00000020: c675 1ebe b108 36be 77ef 59bd ec45 e2bd
00000030: da3b 303e 7a0b 1ebe 3d73 053e bc9b 283d
00000040: cedc 86bd 5eb8 343e 07c0 f63d e121 f8bb
00000050: dc43 16be 6481 82bd 43f7 8e3d 3d19 403e
00000060: 6da1 95bd 8a45 b8bd 569d 58be a244 083e
00000070: 2c63 583e 30a3 183e 0412 f7bd a4d2 1e3e
00000080: 286d 86bd 11d2 e73d 03a2 013e bdc0 34be
00000090: 1975 5b3d 7504 b13d c947 05be 90f9 4c3e
000000a0: e313 2d3e 8b4a 393e 9bff ffba 213d edbd
000000b0: c34f f2bd 6ab8 9c3d 6a2e 30bd 8f36 303e
000000c0: 47ad 393e 5cde 883c 2581 35be 3b00 b03d
000000d0: 8666 463e 55bd 5ebd 720e e8bd d872 4fbd
000000e0: 641b fe3c ca7e 24be 69cb ec3d 2b88 bd3d
000000f0: 1e87 a9bd d241 a4bd 5364 d2bd d54d 2d3e
00000100: 877d 033e c40e 7c3d 1119 1fbc 8389 5d3d
00000110: 0be6 553e cf63 8c3d b723 ddbd bf85 ab3d
00000120: 0ef6 afbd 2eeb fbbb 26cb 0ebe f090 cfbb
00000130: 4c0e 393c 2475 06be 5888 0e3e 0ec3 4c3e
00000140: a870 39be a87b 803d 2627 19be a142 30bd
00000150: f265 d43d 4913 79bb ad5d 863d b1a9 8fbd
00000160: 7693 533e 712c d0bd eafa 253d ba0e b63c
00000170: ca04 173e 3e1e b53c 30ab 053e 4e7d 643d
00000180: 8c5c 0d3e df54 333b daf4 933d 17b1 5a3e
00000190: a075 90bd 216f b4bd 9aef 203e c38e a93d
000001a0: 5344 51be e2b3 9d3d 886f 59be 12bc f0bd
000001b0: 1c86 ad3d 1e93 e93d b83c 48bd e6a9 3b3e
000001c0: 0b53 5c3e c4e0 2c3e d29f 4bbe 7a48 a1bd
000001d0: 2cd1 573c 8f31 343e 9ac2 14bd 0341 393d
000001e0: f461 e93d 3cfd e7bd 1443 06be c83f 5b3e
000001f0: a84d 9ebb bedf 1c3e 292e 58be 473f a9bd
00000200: d090 1b3e 26b6 abbc 9659 953d 81b9 39be
00000210: f9c9 573e e14e ddbd 355d 33bc df36 11be
00000220: 20ba c4bd 0e10 3ebe b30d 42be e92b 35bd
00000230: cc94 c3bd 74c5 233e 824c 89ba 2465 2c3e
00000240: 0988 14bd 2324 3c3d 75ec 543e af8d 2bbe
00000250: db15 c0bd aa88 3d3e f750 4bbd 8ed4 6ebd
00000260: fe56 8e3c d909 eebd 2a1c 7f3c c04a b8bd
00000270: 64aa 8c3d 803f 3cbd 6cca 94bd 9208 a7bd
00000280: 9566 663d b084 de3d 76b0 4abe 369f 1abe
00000290: 95c5 54be d1fa ce3d 8745 263e 1803 55be
000002a0: 1d89 663d 3dd9 333d 10f2 edbd d698 3f3d
000002b0: 1ef3 2a3e 1176 593e 55bd bf3d 45d7 2fbd
000002c0: f449 fcbd e8df a8bd 25c1 e83a 7e3f 82bc
000002d0: b5c5 213e c95a 48be 864e 9e3c 3e06 8dbd
000002e0: a9e7 933c c632 553e 868b cf3b 77ce 19bd
000002f0: 3f49 96bd d03e 5dbe 60dd 48be 2c33 c13d
00000300: eb62 07be e7bd fb3d ed6b 7bbd 18f8 9f3d
00000310: 80d7 213e 9dba 013d 423f 983d fa5a 3b3e
00000320: 5a55 8bbd 630b 233e 2175 3abe 1903 4b3e
00000330: 7371 91bd ab82 05bc acbe f83d 9036 823c
00000340: 18dc 413e 5be2 c2bd 4664 f4bd 27ea 453e
00000350: 59d1 05be 8192 183e 8586 553e d113 163e
00000360: d6a3 a7bd e0be 51bb 63cc 47be c970 f1bd
00000370: f88c 37bd 747a 12be 61ce ff3d 3857 e83d
00000380: aec5 7dbd d177 0bbd ea27 563e 717d 5abc
00000390: 5d4e 3c3e a85d 4d3e 4389 9bbd 85be 53be
000003a0: facb 4e3e dd65 eebd 2502 543e bd88 0dbe
000003b0: e1d7 203d e519 833d 617b 51bd 03e3 2c3e
000003c0: 0803 49be 6240 b8bd 6e98 0bbd 5dcc 293e
000003d0: e25c cd3d 699c 0e3e fadb be3d d567 473e
000003e0: 5cda 5cbd 64e2 88bd 2c8d f3bc 126e ae3d
000003f0: 6107 82bd b1da a23d d722 733d 4a84 503d
0.012537179 -0.16348378 0.058824547 -0.18591915 -0.08844371 0.15066634 0.20309466 -0.01692736
-0.15474615 -0.17776753 -0.053206887 -0.11048493 0.17210332 -0.15434065 0.13032241 0.041164145
-0.06585084 0.17648456 0.12048345 -0.007572398 -0.14674324 -0.063723356 0.06980755 0.18759628
-0.0730618 -0.089976385 -0.21153769 0.13307431 0.21131581 0.14906001 -0.12063983 0.1551004
-0.06563789 0.11319364 0.12659459 -0.17651649 0.05357847 0.08643428 -0.13015665 0.20017076
0.16902117 0.18094842 -0.0019531132 -0.11583925 -0.118316196 0.07652362 -0.043013014 0.17208312
0.18132506 0.016707592 -0.17725046 0.08593794 0.19375047 -0.05437978 -0.1133088 -0.050646633
0.03101892 -0.16063991 0.11562235 0.092544876 -0.08277725 -0.08020367 -0.102730416 0.16924222
0.12840854 0.06153752 -0.009710566 0.05408622 0.20888536 0.068549745 -0.10797828 0.083751194
-0.08591853 -0.0076879477 -0.13944682 -0.0063344166 0.011294913 -0.13130623 0.13919199 0.19996282
-0.18109381 0.062735856 -0.1495634 -0.043032292 0.10371007 -0.003800588 0.06560836 -0.07014788
0.2066172 -0.101647265 0.040522493 0.022223819 0.1474792 0.022109147 0.13053584 0.055783562
0.13804835 0.002736382 0.07224436 0.21356617 -0.07053685 -0.08810259 0.157164 0.08279183
-0.2043622 0.077003255 -0.21233952 -0.117546216 0.08472845 0.114050135 -0.04888603 0.1832653
0.21516053 0.16882616 -0.19885185 -0.07875152 0.013172429 0.1759703 -0.0363184 0.045228016
0.11395636 -0.113275975 -0.13111526 0.2141105 -0.0048310347 0.15319726 -0.21111359 -0.08264022
0.1519196 -0.020960879 0.07292478 -0.1813717 0.2107314 -0.108060606 -0.010947515 -0.14181088
-0.09605813 -0.18560812 -0.18950538 -0.04423133 -0.09549865 0.15993291 -0.0010475072 0.16835457
-0.036262546 0.0459329 0.20793326 -0.16753267 -0.093791686 0.18509164 -0.04963776 -0.058308177
0.017375465 -0.11622972 0.01557068 -0.089986324 0.06868437 -0.045958996 -0.072651714 -0.081559315
0.056250174 0.10865152 -0.19793877 -0.15099797 -0.20778497 0.10106433 0.1623746 -0.20801961
0.056283105 0.043908346 -0.116184354 0.046776615 0.16694304 0.21236445 0.09362284 -0.042929906
-0.12318793 -0.08245832 0.0017757757 -0.015899416 0.15798075 -0.19565882 0.019324552 -0.06885956
0.0180548 0.2082015 0.006333771 -0.037550416 -0.07338189 -0.21605992 -0.19615698 0.094335884
-0.13221328 0.122920804 -0.061382223 0.07810992 0.15804863 0.03167211 0.074339405 0.18296424
-0.06803389 0.15922312 -0.18208744 0.198254 -0.07101717 -0.008148829 0.12145743 0.015895158
0.18931615 -0.0951583 -0.11933188 0.19327603 -0.13068141 0.14899637 0.20852096 0.14655997
-0.08185546 -0.003200464 -0.19511561 -0.1178909 -0.044812173 -0.14304525 0.124905355 0.11344761
-0.0619561 -0.034049813 0.20913664 -0.013335572 0.18389268 0.20055258 -0.0759454 -0.20678146
0.20194998 -0.11640523 0.20703943 -0.13821693 0.03926838 0.06401423 -0.051143054 0.16883473
-0.19630063 -0.08996655 -0.034080915 0.16581865 0.100274816 0.13926853 0.09319301 0.19473203
-0.05391918 -0.066838056 -0.029730402 0.08517088 -0.06349064 0.07951868 0.059359398 0.05090741

job_queue_attention.in_proj_bias f4 [96]
00000000: 0000 0000 0000 0000 0000 0000 0000 0000
00000010: 0000 0000 0000 0000 0000 0000 0000 0000
00000020: 0000 0000 0000 0000 0000 0000 0000 0000
00000030: 0000 0000 0000 0000 0000 0000 0000 0000
00000040: 0000 0000 0000 0000 0000 0000 0000 0000
00000050: 0000 0000 0000 0000 0000 0000 0000 0000
00000060: 0000 0000 0000 0000 0000 0000 0000 0000
00000070: 0000 0000 0000 0000 0000 0000 0000 0000
00000080: 0000 0000 0000 0000 0000 0000 0000 0000
00000090: 0000 0000 0000 0000 0000 0000 0000 0000
000000a0: 0000 0000 0000 0000 0000 0000 0000 0000
000000b0: 0000 0000 0000 0000 0000 0000 0000 0000
000000c0: 0000 0000 0000 0000 0000 0000 0000 0000
000000d0: 0000 0000 0000 0000 0000 0000 0000 0000
000000e0: 0000 0000 0000 0000 0000 0000 0000 0000
000000f0: 0000 0000 0000 0000 0000 0000 0000 0000
00000100: fef1 b03d e188 a6bd 58ef 8ebd 40ea b03d
00000110: 7115 963d 2f8f 6b3d 20b6 9abd 5629 9f3d
00000120: 160a 9c3d 9e94 813d 90c6 763d 1a4f 773d
00000130: 0763 9e3d c115 abbd fcba afbd 9aba aa3d
00000140: c0ec 90bd 7234 98bd 3f04 8ebd e7b1 55bd
00000150: 2334 a7bd 1f9d 833d b2a0 9dbd f305 18bd
00000160: 55f5 8ebd b972 673d ff9c a33d 8f56 46bd
00000170: d1c6 3ebd ed53 b9bd 1919 2c3d 41b6 98bd
0.0 0.0 0.0 0.0 0.0 0.0 0.0 0.0
0.0 0.0 0.0 0.0 0.0 0.0 0.0 0.0
0.0 0.0 0.0 0.0 0.0 0.0 0.0 0.0
0.0 0.0 0.0 0.0 0.0 0.0 0.0 0.0
0.0 0.0 0.0 0.0 0.0 0.0 0.0 0.0
0.0 0.0 0.0 0.0 0.0 0.0 0.0 0.0
0.0 0.0 0.0 0.0 0.0 0.0 0.0 0.0
0.0 0.0 0.0 0.0 0.0 0.0 0.0 0.0
0.08639906 -0.08131576 -0.06979245 0.0863843 0.073283084 0.057509597 -0.07554269 0.07771556
0.07619111 0.063271746 0.060247958 0.06037817 0.07733732 -0.083537586 -0.08580586 0.08336373
-0.070764065 -0.07431878 -0.06934404 -0.052171614 -0.08164241 0.06426453 -0.07696666 -0.03711505
-0.06980387 0.056505892 0.07988929 -0.048422392 -0.046576325 -0.09049211 0.042016122 -0.07456637

job_queue_attention.out_proj.weight f4 [32, 32]
00000000: c53d 573e 8070 b2bc 2cac 763d f717 cdbd
00000010: 20bd 913e ae10 593d c688 d3be d525 b53d
00000020: f155 903e 1abf d3bd 76fd 3ebe 332d f3bd
00000030: da9e 553e c965 073e 177b 473d 5617 fc3d
00000040: 21a1 a53e 11df ccbe 6230 eebe ee91 bdbc
00000050: e0c0 06be 9142 1c3e e21f 18bf f2c9 c1be
00000060: c7df 0bbe 6318 ddbe 3e6c ba3e 4120 623c
00000070: b7b7 963e e8c8 62be cb96 183f 69e0 a93d
00000080: 1f46 0e3e 1d60 11be 8ffe 87be 9802 24bc
00000090: 9f35 ef3e 866c afbd 67c2 903c b42c 5c3e
000000a0: d9e4 dd3e 0638 083f c861 ac3e d26c 5d3e
000000b0: 1c40 8a3e 83f0 8fbe faeb 9fbe 2b39 2b3f
000000c0: b2bd be3e ec12 30be 248f acbd 6aa5 e4be
000000d0: ec81 813d 1d32 393d ccbe d2bd 8274 0fbd
000000e0: ca2b 98be e21c cd3d 0d4a 3a3f fb27 e4bd
000000f0: 38af 053c 814e 8b3d 38b2 ecbd 1830 0abf
00000100: 86c9 cabe b009 8abe 2128 14be bbce c53d
00000110: 44fd 003f 7a46 f33d cee8 253d e97f a43c
00000120: 6080 8a3e 9768 a1bc 74d4 933e db38 013d
00000130: 237a b2be e533 a5be 949f ed3d 9837 eb3d
00000140: c135 353d 3be7 9fbe 2630 cebe 8407 473b
00000150: 51ba a8bd f00f 403d 368f a2be 11cf 7b3b
00000160: ad35 d43d 9648 113f d553 45be 43a0 e23e
00000170: 51f9 26be 9295 afbd 6356 d93e 2b6f fcbe
00000180: b3c3 363e 41d6 12bd efea 62bf 2bd6 2cbd
00000190: 0fbf 773e e877 a03e 5659 1dbf 1db8 743e
000001a0: 878c 123e 51d7 f43e 1aa0 233e 42d6 253e
000001b0: df38 3d3e 42fe e8bd 7350 5b3d 6e5c efbd
000001c0: 4b07 74be 26e6 e03b 872a 073e 6bfa f3be
000001d0: e9b1 42be b082 473e 397b 7fbe fad2 92bd
000001e0: 87be 39be 0313 713e 0f3f a13c 27c3 913e
000001f0: b7fe 34be 8950 863e 808a a93e 5f1b 873e
00000200: 93ea a83d 09ff 6e3d 53cc 10bd 360f ef3d
00000210: 17f2 983e f988 8dbe 1a62 cf3d a533 1e3e
00000220: 2f63 90be 9b22 8abc b382 dfbe 5058 bdbe
00000230: c067 babe a306 f8bd 3d71 b43e 2c20 483e
00000240: 63f8 3b3e b12c 263e 8dff c1bd 8066 08be
00000250: 0d73 a73e 7bb5 033e 1d92 b13e 8e8a ad3c
00000260: 1111 dabe e45f 82be 51e6 3dbf 99c0 d4bd
00000270: 7d3c 7e3e 2aa4 903e 1bd8 c3bd 6b05 173e
00000280: a237 54be 5da0 a03e 1f81 0dbd 7705 c3be
00000290: 602f 4dbe 0ad7 2dbc 447b 41bc a731 92be
000002a0: c677 473e 3999 85be eb90 dcbd 8b16 323e
000002b0: 206c 273e 9abe 9bbe 541a 3a3e 6d51 4dbd
000002c0: 6147 433e be95 5e3e d20d ab3e 209c 70be
000002d0: c0a4 93be ca06 0ebf 8d36 523e 523e 1a3e
000002e0: c0ed 9c3d fa4e ebbe 2005 17bf 5a82 3dbe
000002f0: 68e1 123d 3be8 70be 4fe5 543e 367b 88be
00000300: f29b 793e 6ba6 8e3c 4adf 84be 4914 ca3e
00000310: bb2f 1ebd a69e 72be 8b2e ba3e 27ae 0cbe
00000320: 0f12 02be 613d bc3d 08df 7d3e 7286 213d
00000330: eff5 b3bd 3fcc a23e fb4a 9e3d 3b5d babe
00000340: 5d0f 8fbd 5492 aa3e c1cd 29be 288e 7d3e
00000350: 539c dd3e 7d6d 35bf 622e a23c 19dd 9c3e
00000360: 6335 253d 424b 81be c1aa 4fbe c35a 7a3d
00000370: e7e2 043f 1f1a 6ebe b1e6 373e 32c8 1c3d
00000380: abba c63c 2d69 923c 9ef8 32bd 1175 063f
00000390: 6276 b3be b3e6 8abe 2c8d 9fbe 68a2 223e
000003a0: e7ac d3bd 1a7f e63e b408 383e 5380 af3d
000003b0: b270 363d 989c 52bd 54fa 003e a88a d1bd
000003c0: cc47 06be 73c8 adbe 7a7f ddbe 7da9 b7be
000003d0: 6634 20bf fe33 8e3e f54c a3be 6bb0 18be
000003e0: 497b 5bbe 4028 3dbe d884 783d 2b8a a93d
000003f0: 7144 93bd d732 c1bd fd59 8cbe 3535 22bf
0.21019657 -0.02178216 0.06022279 -0.100143366 0.28464603 0.052994423 -0.41315287 0.088451065
0.28190568 -0.10339184 -0.18651375 -0.118738554 0.20861378 0.13222422 0.048701372 0.123091385
0.32349494 -0.40013936 -0.46521288 -0.023140874 -0.13159513 0.15259768 -0.5942365 -0.37849385
-0.13659583 -0.43182668 0.36410707 0.013801635 0.29437038 -0.22146952 0.5960509 0.08294756
0.13893937 -0.1419682 -0.265614 -0.010010384 0.46720597 -0.08565621 0.017670823 0.21501428
0.4333866 0.53210485 0.3366835 0.21623543 0.27002037 -0.28113183 -0.31234723 0.66884106
0.372541 -0.17194718 -0.084257394 -0.4465745 0.06323609 0.045213807 -0.10290298 -0.03502322
-0.29720908 0.100152746 0.7276924 -0.11140438 0.008159451 0.06802083 -0.1155743 -0.53979635
-0.39606875 -0.26960516 -0.14468433 0.09658571 0.5038645 0.11878677 0.040505223 0.020080524
0.27051067 -0.019703193 0.28873026 0.031548362 -0.34858808 -0.32266155 0.11602703 0.11485213
0.044240717 -0.31231102 -0.4027111 0.003036947 -0.08238662 0.0468902 -0.31749886 0.0038422982
0.103618 0.5675138 -0.1927026 0.44262895 -0.16306044 -0.0857345 0.4244872 -0.49303564
0.17848091 -0.03584886 -0.8863973 -0.042196434 0.24193977 0.3134148 -0.6146444 0.23898359
0.1431142 0.47820523 0.15979043 0.16195014 0.18478726 -0.11376621 0.05354352 -0.116875514
-0.23830907 0.0068633733 0.13199817 -0.4765199 -0.1901318 0.19483447 -0.2494935 -0.07169147
-0.18139087 0.23542409 0.019683389 0.28469202 -0.17675291 0.26233318 0.3311348 0.2638807
0.082478665 0.05834869 -0.03535111 0.11672823 0.298722 -0.27643564 0.10126133 0.15449388
-0.2820067 -0.016862204 -0.43654403 -0.3698144 -0.3640728 -0.12110641 0.35242644 0.19543523
0.18356471 0.16227986 -0.094725706 -0.1332035 0.32704964 0.12862198 0.34681788 0.021184232
-0.42591146 -0.25463784 -0.7417956 -0.103882976 0.24827762 0.28250247 -0.09562703 0.1474816
-0.20724347 0.31372347 -0.034546968 -0.38090107 -0.20037603 -0.010610351 -0.011809174 -0.28553507
0.19479284 -0.26093462 -0.107698284 0.17391412 0.1634984 -0.30418855 0.18174106 -0.05012648
0.19070198 0.2173681 0.33408982 -0.23497057 -0.28836632 -0.5547911 0.20528622 0.15062836
0.07662535 -0.45958692 -0.58992195 -0.18506756 0.035859495 -0.23526089 0.207906 -0.26656502
0.24375895 0.017413339 -0.25951606 0.394686 -0.038619738 -0.23693332 0.36363634 -0.13738309
-0.12702201 0.091913946 0.24792111 0.039434858 -0.087871425 0.31796452 0.07729145 -0.36399254
-0.06985352 0.33314764 -0.16582395 0.2476126 0.43283328 -0.7087019 0.019797508 0.30637434
0.040334117 -0.2525273 -0.20279981 0.061121713 0.51908726 -0.23252152 0.17959096 0.03827686
0.024258932 0.017872417 -0.04369413 0.5252238 -0.35051256 -0.27129135 -0.31162393 0.15882266
-0.10335713 0.45018846 0.1797207 0.08569398 0.04454107 -0.05141887 0.12595493 -0.10231525
-0.13113326 -0.33941993 -0.4326132 -0.35871497 -0.62579954 0.27774042 -0.3189465 -0.14911048
-0.21433748 -0.18472385 0.060673565 0.082783066 -0.071907885 -0.09433525 -0.27412406 -0.6336244

job_queue_attention.out_proj.bias f4 [32]
00000000: 326a a53d e719 963d 8804 563d 9b1c 213d
00000010: 4ba5 9abd ff01 89bd 5b03 90bd cfbc ab3d
00000020: 092e 893d 1926 afbd e20f c6bd af05 b7bd
00000030: 4f2e b83d ea42 3e3d 7e9b 903d e4b8 90bd
00000040: 7646 0bbc a830 3bbd 7bd5 96bd 320a 78bd
00000050: 67fa 663d 4dcf 573d 4103 9cbd 5b5f 993d
00000060: b477 2f3d 466d a63d 7851 953c f03e 963d
00000070: c078 5bbd 6ac9 8cbd 5fd8 8e3d 1982 b8bd
0.08076896 0.07329159 0.052250415 0.03933392 -0.075510584 -0.06689834 -0.0703189 0.08385622
0.06698234 -0.085521884 -0.09670998 -0.08936631 0.08993208 0.046450533 0.07060908 -0.07066515
-0.008500686 -0.0457007 -0.07364937 -0.060556598 0.056391146 0.05268793 -0.07617808 0.07488891
0.042838767 0.08126311 0.018227324 0.07336223 -0.053581953 -0.06874354 0.06974863 -0.09009189
