src/training/latest.pt (torch, 96685 bytes, 39 tensors)

policy_log_std f4 [30]
000000 19 0b 00 40 f4 08 00 40 c4 08 00 40 cf 17 00 40
       2.0006773 2.0005465 2.000535 2.0014532
000010 10 16 00 40 3e 12 00 40 36 09 00 40 d8 0e 00 40
       2.0013466 2.0011134 2.0005622 2.000906
000020 ce 07 00 40 40 19 00 40 7c 21 00 40 11 04 00 40
       2.0004764 2.0015411 2.0020437 2.0002482
000030 54 0a 00 40 6e 10 00 40 57 06 00 40 7b 55 00 40
       2.0006304 2.0010028 2.000387 2.0052173
000040 e5 2e 00 40 87 09 00 40 bb 0c 00 40 f3 07 00 40
       2.0028622 2.0005815 2.000777 2.0004852
000050 9e 03 00 40 48 03 00 40 9f 18 00 40 1b 0b 00 40
       2.0002208 2.0002003 2.0015028 2.0006778
000060 95 08 00 40 41 03 00 40 90 0e 00 40 97 0e 00 40
       2.0005238 2.0001986 2.0008888 2.0008905
000070 dd 17 00 40 6f 0b 00 40
       2.0014565 2.0006979

host_encoder.weight f4 [32, 4]
000000 09 6b 3b be 53 2a b9 be c7 d9 8a 3d d9 a0 d7 3e
       -0.1830255 -0.36165103 0.06779819 0.42114905
000010 36 b3 15 3e 81 97 30 be d0 b3 a3 be ef 48 90 3e
       0.14619145 -0.17245294 -0.31973124 0.28180644
000020 52 fc 41 3f fb cd a4 3e 76 a5 d4 bd 86 fc a6 3d
       0.75775635 0.321884 -0.10383122 0.08153634
000030 a1 3c 3b 3f eb 09 1d 3f d9 59 d6 3e 59 7e d2 bc
       0.7313939 0.6134326 0.41865423 -0.025695013
000040 14 6a 5d 3e b5 4d e5 3d 8b 79 c3 3e 7e 86 2a bf
       0.21622497 0.11196462 0.38178667 -0.6661147
000050 01 f5 71 3e 26 b4 51 bf ae 65 a5 be 18 4e c6 3e
       0.23628618 -0.8191551 -0.32304138 0.38731456
000060 ff 61 ac be 75 0e 93 be 78 e9 17 3e 21 6b 97 be
       -0.33668515 -0.28721967 0.14835155 -0.2957392
000070 ba 72 32 3e 83 c4 6a be e9 5e c6 3d ce 70 b2 be
       0.17426577 -0.22926526 0.096860714 -0.34851688
000080 ea d2 dc bd 02 b5 f4 3e fe 75 07 3f 9b a9 18 bf
       -0.10782416 0.47794348 0.52914417 -0.596338
000090 85 e4 07 3e 58 e2 8d be ed a3 c3 be 75 0d b9 be
       0.13270767 -0.2771175 -0.38211003 -0.3614308
0000a0 c6 4e 07 3e 17 e4 59 3d 23 5c 12 be dd cd d9 3e
       0.13213643 0.05319604 -0.1429296 0.42539874
0000b0 95 8f 45 bf 47 69 dd be db 29 73 3e a9 e5 85 3e
       -0.77172214 -0.43244383 0.23746435 0.2615178
0000c0 92 6f 26 bd c0 d2 6d be cf 14 cb bd c3 08 03 be
       -0.040633745 -0.23224926 -0.09916078 -0.12796311
0000d0 79 11 79 bf b7 d0 b6 bf 92 31 6e 3d 5d 84 0e be
       -0.97292286 -1.4282445 0.058152743 -0.1391768
0000e0 ba 41 a3 3d 1a b2 ce be c6 7a 3e 3e cf 62 e7 3d
       0.07971521 -0.40370256 0.18601522 0.11298143
0000f0 a5 9c 2d be d2 59 f9 3d a5 f1 c1 bd 63 be 7f be
       -0.16954286 0.12175335 -0.09469918 -0.2497497
000100 a5 af be 3d ba 19 15 3f 2c 10 f0 3e 49 cf 69 3f
       0.09310845 0.5824238 0.46887338 0.9133192
000110 5c 4d fb 3d cb 4a c5 be e1 0f db bd b4 c8 bc 3e
       0.122706145 -0.38533625 -0.10696388 0.36871874
000120 92 c8 73 be 94 12 12 be 2c 35 d3 bd 67 68 06 3d
       -0.2380698 -0.142649 -0.10312876 0.03281441
000130 96 31 73 3d 42 8d 12 bf 05 30 9f 3e 53 79 88 3e
       0.05937346 -0.5724679 0.31091323 0.26655063
000140 c2 73 ba 3d 21 4b 54 3d 26 95 e8 3e eb fb 18 3f
       0.0910411 0.05182946 0.4542629 0.59759396
000150 a6 ea ba 3e 91 4d b4 be 67 3a 19 be 20 6f 8c 3d
       0.36507148 -0.35215428 -0.14963685 0.06857133
000160 c9 dc 81 3e 37 a9 16 bf a5 c6 2c be 23 0a c0 3e
       0.25363758 -0.5885195 -0.16872652 0.37507734
000170 f5 4d d6 3d e7 03 1e 3f d5 c6 80 3e 76 1f d2 3e
       0.10464088 0.61724705 0.25151697 0.41039628
000180 37 bf 6d 3e c7 f8 2f be cf 3d f5 3e 31 46 43 bf
       0.23217474 -0.17184745 0.4789872 -0.7627898
000190 c1 d6 03 3d fb 5f 66 be a7 87 0c be 85 65 93 be
       0.032187227 -0.22497551 -0.13723622 -0.2878839
0001a0 ed e2 0a bd ca c5 0d bf 41 56 bf 3e 06 d1 76 3c
       -0.03390782 -0.5537993 0.37370494 0.0150644835
0001b0 f6 67 eb be d6 26 ea 3e 2d 31 d4 3e 21 05 3d 3f
       -0.45977753 0.45732754 0.41443768 0.7383595
0001c0 a8 f9 2c 3f d2 b6 5e be a4 ef 3b 3d 0a a7 2a bf
       0.67568445 -0.21749428 0.045882836 -0.6666113
0001d0 60 54 98 3e f7 43 2e bf ff 6f cf 3e 39 9d 9d be
       0.29751873 -0.68072456 0.40515134 -0.30784014
0001e0 46 b9 f1 3b 75 ad ff be 5e be 90 3e 34 03 9b 3e
       0.0073768226 -0.49937025 0.2827024 0.3027588
0001f0 f2 d5 cb be da 13 bc 3e 3e 7c c8 3c 56 4b 1e 3f
       -0.39811665 0.36733896 0.024473306 0.61833704

host_encoder.bias f4 [32]
000000 42 46 c7 ba cc 9c 31 3e 21 f1 78 3d cb b1 d1 bc
       -0.0015203434 0.1734497 0.060776833 -0.025597474
000010 de 4c 60 bd 25 02 19 3d ff 79 ef bb 26 9f 67 bd
       -0.054760806 0.03735556 -0.0073082442 -0.05654826
000020 58 5a ef 3c 00 00 00 00 e4 61 5c 3d b3 dc 5e 3e
       0.029217884 0.0 0.053804293 0.21763878
000030 00 00 00 00 15 04 2d 3c a9 f9 09 3e 00 00 00 00
       0.0 0.010560055 0.13474144 0.0
000040 95 d7 33 bd 12 16 f5 3d 00 00 00 00 a4 3c e9 3d
       -0.043906767 0.119671 0.0 0.113885194
000050 ec 42 47 3c 67 63 d1 3d e8 8a b3 3d f1 24 2b bd
       0.0121619515 0.102240376 0.08766729 -0.041783277
000060 bc 99 0a 3e 00 00 00 00 e2 c4 90 3e 14 06 41 3d
       0.13535208 0.0 0.2827521 0.047124937
000070 3a 30 b0 3c f2 5b 75 3e b3 b2 35 3d aa 46 19 3e
       0.021507371 0.23960856 0.044359874 0.14968362

job_encoder.weight f4 [32, 2]
000000 31 aa 48 3f 12 74 d2 3d fd f1 3e 3f ff f4 9e 3e
       0.7838469 0.10276045 0.74587995 0.31046292
000010 22 e4 8f 3f ee 04 1b 3f 57 2c 43 3f 06 26 31 3d
       1.1241496 0.605544 0.7623953 0.043249153
000020 e1 f6 24 be 72 5b 91 be af e1 2e 3f 86 79 59 3f
       -0.16109802 -0.2839008 0.68313116 0.84951055
000030 c9 5f 91 3f 3a 1c f3 3e 5e a0 1f be 93 a0 0e be
       1.1357356 0.47482473 -0.15588519 -0.13928442
000040 05 11 49 3f af 50 a4 3e 5f 6c f6 be 64 2e 6f be
       0.78541595 0.32092807 -0.48129556 -0.2335754
000050 72 14 4f 3f c2 62 4c 3f 41 63 31 3f 43 b3 f3 3e
       0.8089057 0.7983819 0.69292074 0.47597703
000060 3f bb 3e 3f 70 8a d0 3e 8b e7 19 3f 8e 1a 94 3f
       0.74504465 0.4073062 0.6011893 1.1570604
000070 6f df b9 3f f5 82 8a 3f 68 4d b8 be 3b 1f 3e be
       1.4521312 1.0821215 -0.35996556 -0.18566601
000080 61 a3 02 bd 86 50 77 be 93 d0 8f 3f 00 0b 25 3f
       -0.03189409 -0.24151811 1.1235527 0.6446991
000090 2e 2a f9 be d3 56 96 be 7a 4a 09 be f3 7c 02 be
       -0.48664993 -0.29363117 -0.13407317 -0.12742977
0000a0 ab 42 8c bd 86 8c 4f be 5c fc 4c bd 48 ca d8 bd
       -0.068486534 -0.20268449 -0.050045356 -0.10585457
0000b0 89 90 b6 3d ba 1b 6a be 72 83 9a 3f d4 0f 75 3f
       0.08914287 -0.2286214 1.2071364 0.95727277
0000c0 0f c3 a0 bc 04 ad 54 be 0c 32 5f 3f 44 8e 0b 3f
       -0.019624261 -0.20769125 0.8718574 0.54513955
0000d0 4a 77 58 3f 13 af 57 3e c3 24 c5 be 40 7d 9f be
       0.8455702 0.2106288 -0.3850461 -0.31150246
0000e0 c8 6d a9 bd d6 6c 8a be a3 f8 36 be b8 ce 89 bd
       -0.08272892 -0.2703616 -0.17868285 -0.067288816
0000f0 51 fc 80 be 60 bb 17 3d b5 29 92 3f d9 b5 83 3c
       -0.25192502 0.03704393 1.1418978 0.016077923

job_encoder.bias f4 [32]
000000 2a 64 8c 3c 8f fa 84 3c e0 35 ad 3c 2b e5 e0 3c
       0.017137606 0.016232757 0.021143854 0.027453026
000010 00 00 00 00 ea cb 55 3d 3c d7 d0 3b 00 00 00 00
       0.0 0.05219642 0.006373314 0.0
000020 9e 6a 28 3d 00 00 00 00 b4 5a ab 3d 70 65 8a 3c
       0.041117303 0.0 0.083669096 0.016894072
000030 8a dd 2c 3c fd ff 90 3c 37 b8 dc 3c 00 00 00 00
       0.010550866 0.01770019 0.02694331 0.0
000040 00 00 00 00 1f 54 87 3c 00 00 00 00 00 00 00 00
       0.0 0.016519604 0.0 0.0
000050 00 00 00 00 00 00 00 00 71 c0 7a bd 7b 89 c7 3c
       0.0 0.0 -0.061218683 0.024357548
000060 00 00 00 00 1c 53 f4 3c 9c 85 18 3d 00 00 00 00
       0.0 0.029824786 0.037236795 0.0
000070 00 00 00 00 00 00 00 00 4b c5 e6 bb 22 11 0e 3d
       0.0 0.0 -0.007042562 0.034684308

attention.in_proj_weight f4 [96, 32]
000000 43 ad 82 3f 00 83 7f 3f 81 ca a7 3f 22 d5 16 3f
       1.0209125 0.99809265 1.3108674 0.58918965
000010 97 c0 80 bd e2 81 89 3f a9 be 5c 3f 28 00 c1 3c
       -0.062867336 1.0742762 0.86228424 0.023559645
000020 65 0c 7d 3f 5f 5d b6 3c 21 31 83 3f 90 48 82 3f
       0.9884704 0.02226132 1.0249368 1.0178394
000030 63 eb 5c 3f 69 64 73 3f 81 71 ae 3f 94 21 3e 3e
       0.8629667 0.9507509 1.3628389 0.18567497
000040 90 bb 44 be b3 07 93 3f 32 33 23 be 96 61 5e 3c
       -0.19212174 1.1486725 -0.15937498 0.013573071
000050 3b 43 4e 3e 12 30 28 3e 42 3c fa bd b7 15 a9 3f
       0.20142834 0.16424587 -0.122185245 1.3209752
000060 19 99 e7 3d dd 27 8a 3f 9c 8a 92 3f 06 1c b0 bd
       0.11308498 1.0793415 1.144855 -0.08599095
000070 ef 5f 4e bd 68 1a e0 bd 55 07 04 3d 22 f1 80 3f
       -0.05038446 -0.109425366 0.032233555 1.0073588
000080 07 c1 97 3f b8 53 81 3f ff 4a 9c 3f a2 cd 85 3f
       1.1855782 1.0103674 1.2210387 1.0453379
000090 05 65 42 be 6f db 90 3f 37 a4 90 3f d5 a6 b3 bd
       -0.18983848 1.1316966 1.1300114 -0.08772055
0000a0 c4 38 ab 3f 00 a2 64 3c 0f 57 a2 3f 46 b4 84 3f
       1.3376698 0.013954639 1.2682818 1.0367515
0000b0 1d 0e 73 3f 52 7b ad 3f 30 21 cd 3f 13 fb 7d bd
       0.9494341 1.3553259 1.6025753 -0.06200702
0000c0 ef 1f 12 be 4b ce ad 3f 06 73 53 be e9 90 69 3d
       -0.14269994 1.3578581 -0.20649347 0.057022963
0000d0 40 3d db 3d 40 7a 42 be 69 7a f5 bd 16 87 a6 3f
       0.10705042 -0.18991947 -0.119862385 1.3009975
0000e0 a8 57 3a 3e 03 58 a9 3f 33 af 94 3f b6 22 50 3e
       0.181975 1.3229984 1.1615967 0.20325741
0000f0 68 3b 94 bd d5 3b 57 be 19 39 9e 3d 45 e3 b2 3f
       -0.07237893 -0.21018918 0.07725734 1.3975607
000100 1f a3 a0 bf 07 02 c3 bf 56 70 bf bf a0 ce 7e bf
       -1.2549781 -1.5234994 -1.4956157 -0.99534035
000110 1c 76 20 3e 53 38 dc bf dd 54 a5 bf ae fd 3c be
       0.15670055 -1.7204689 -1.2916523 -0.18456146
000120 90 2b b2 bf f1 ff 12 bc ed 6d ce bf 04 84 b0 bf
       -1.3919544 -0.008972154 -1.6127297 -1.3790288
000130 4b 55 c4 bf 55 b3 e7 bf 8e 5c fd bf 92 de b6 3c
       -1.5338529 -1.8101603 -1.979387 0.022322927
000140 18 ac 2c 3e c6 e0 d9 bf 26 af 03 3e 9a 1b de 3c
       0.16862524 -1.702172 0.12859783 0.02711277
000150 c5 23 ef 3b c8 af 29 3d de ee 33 be 13 d3 fc bf
       0.007297965 0.041427404 -0.1757159 -1.9751915
000160 b0 52 8b bd 07 a8 dc bf 67 3e c1 bf 9b 31 23 3c
       -0.06802881 -1.7238778 -1.5097169 0.009960557
000170 ec 03 12 be 31 ec b7 bd 66 50 27 bd 8c bf c8 bf
       -0.14259309 -0.08980597 -0.04084816 -1.5683455
000180 07 f9 e6 bf fd 2d d6 bf 5b 00 f6 bf 37 97 ac bf
       -1.8044747 -1.6732785 -1.9218858 -1.3483647
000190 43 38 20 3c 2e 8b e3 bf 71 ed d7 bf d5 89 23 bb
       0.009779039 -1.7776849 -1.6869336 -0.002495398
0001a0 36 e0 ec bf 0a d9 8a 3c 27 ce cb bf f0 22 be bf
       -1.8505924 0.016949195 -1.5922288 -1.4854412
0001b0 09 4e c8 bf 4f 69 c5 bf e5 f7 0e c0 2f d1 23 be
       -1.5648814 -1.5422763 -2.2338803 -0.15997766
0001c0 bd 34 c6 3d e7 bb 01 c0 cb c9 f3 bc 64 93 8f bd
       0.09678028 -2.0270936 -0.029759308 -0.070105344
0001d0 61 3f a8 bd 7f 0d a4 bd 8e cc 20 3e 82 31 f8 bf
       -0.082152136 -0.08010387 0.15703031 -1.9390109
0001e0 aa c4 75 3d 57 57 b6 bf c4 dd f0 bf 33 1a 0f 3d
       0.060002007 -1.4245404 -1.8817677 0.034937095
0001f0 c0 ed 0d 3e 56 46 13 3e b4 83 2f be 61 68 ee bf
       0.13860226 0.143823 -0.17140085 -1.8625604
000200 db fd 01 bf ea 19 e6 be b3 c1 09 bf 2d fb bb be
       -0.5077798 -0.44941646 -0.53811187 -0.3671507
000210 37 7c 53 be 51 46 30 bf c9 df df be 45 d4 ca 3d
       -0.20652853 -0.68857294 -0.43725422 0.099037685
000220 2d 9f 4e bf 6f 84 a6 bd 90 75 0a bf 49 c8 24 bf
       -0.8071163 -0.081307285 -0.54085636 -0.6436811
000230 a0 95 ac be 15 ad e5 be 7a 47 1f bf 6e ba 24 be
       -0.33707905 -0.44858614 -0.6221844 -0.16086742
000240 c0 ca 4e 3d 88 05 c9 be b8 8d 2f 3e 27 ec eb bd
       0.050486326 -0.39262033 0.17143905 -0.11519652
000250 1d a0 46 be 6d cf c2 3d b6 48 6a bc df e5 20 bf
       -0.19397016 0.095122196 -0.014299562 -0.62850755
000260 ed cb b9 bd 5f d6 35 bf c3 c4 98 be 69 02 19 bd
       -0.09072099 -0.7103023 -0.29837617 -0.037355814
000270 b6 e4 1f 3e 15 e7 45 3e 34 99 d4 3c b6 68 ee be
       0.1561459 0.19326432 0.02595196 -0.46564263
000280 dd 50 90 bf b0 1e 88 bf 74 b0 c0 bf 69 74 1a bf
       -1.1274678 -1.0634365 -1.5053849 -0.6033388
000290 a6 7c 10 bd fa f8 8e bf c4 b0 9b bf 86 2d a4 bd
       -0.035275124 -1.1169732 -1.216332 -0.080164954
0002a0 d9 fb a7 bf 7e 6f ef 3d ac 5e a5 bf a2 41 a0 bf
       -1.3123733 0.11691187 -1.2919517 -1.252003
0002b0 2b e1 9f bf 2b 4f b7 bf fc 81 b5 bf f8 32 15 3e
       -1.2490591 -1.4321035 -1.4180293 0.14570224
0002c0 c2 f3 bd bc ec 5b 89 bf 73 43 b9 bd 25 d2 f8 bd
       -0.023187522 -1.0731177 -0.09046068 -0.12149457
0002d0 81 82 c6 bd 34 bf 18 be fe 28 30 be d8 11 ce bf
       -0.096928604 -0.14916688 -0.17203137 -1.6099195
0002e0 86 7d 44 be c6 a6 95 bf 13 35 6e bf 11 25 50 3e
       -0.19188508 -1.169152 -0.93049735 0.2032664
0002f0 79 d8 3c 3e 77 4c 4c bc 64 62 32 3d cf 01 a3 bf
       0.18441953 -0.0124694025 0.043550864 -1.2734927
000300 f0 9a 91 3f 01 0c 61 3f af 32 a2 3f 73 43 76 3f
       1.1375408 0.8790894 1.2671717 0.9619667
000310 a0 42 88 3d 0c bd ae 3f 59 1e 83 3f 8c 3e 3e 3e
       0.06653333 1.3651443 1.0243636 0.18578547
000320 d7 84 b7 3f 9c a2 11 3e 46 7c a8 3f a0 b6 9e 3f
       1.4337415 0.14222187 1.3162925 1.2399483
000330 f2 c9 9c 3f 54 9c b4 3f 2a d5 c3 3f 04 d9 20 bd
       1.2249129 1.4110208 1.5299428 -0.039269462
000340 04 c7 11 3e eb aa 9a 3f c3 65 05 3e 1b f0 57 3e
       0.14236075 1.208341 0.130271 0.21087687
000350 82 ce 48 3d c9 93 a4 bd 20 29 e4 bc 2b c9 b0 3f
       0.049025066 -0.08036 -0.027851641 1.3811392
000360 3e 86 15 3d b8 03 96 3f fd 38 a3 3f 53 33 05 3e
       0.036504976 1.1719885 1.2751766 0.1300786
000370 1a b6 09 be 63 84 90 bc ae d9 a0 bc 93 1c 7c 3f
       -0.13448372 -0.017641252 -0.019635048 0.984811
000380 0e b3 c6 3f 40 5c b9 3f 3c b7 cf 3f 31 41 98 3f
       1.5523393 1.4481277 1.6227794 1.1894895
000390 6d 18 9e bd 7b 8c dd 3f 6a ff c4 3f 2c 2e 5a 3e
       -0.077195026 1.7308496 1.5390446 0.21306676
0003a0 1a 7c d2 3f 2f cd 48 3d e2 ed c5 3f 11 77 b9 3f
       1.6444123 0.049023803 1.5463221 1.4489461
0003b0 42 23 a3 3f cc 10 b7 3f 69 47 ff 3f 5d 4e 55 3b
       1.2745135 1.4302001 1.9943668 0.003254793
0003c0 7e 09 a7 3d cc 84 e6 3f 2b e1 2f 3e c5 87 34 3d
       0.08156107 1.8009276 0.17175739 0.044074792
0003d0 c4 54 97 bd e3 b9 26 be 1f 5b e2 bd 36 65 e0 3f
       -0.07389215 -0.16281848 -0.11052536 1.7530887
0003e0 87 bb 85 3d 35 9e cd 3f 53 85 d8 3f 13 41 8c bd
       0.065299086 1.6063906 1.6915687 -0.068483494
0003f0 89 e8 8b bc d2 ac 83 bd c1 d5 52 3a 27 b0 e6 3f
       -0.017078655 -0.06429447 0.0008042716 1.8022507

attention.in_proj_bias f4 [96]
000000 a6 b0 92 bf 67 4d 61 bf 3a ca 84 3f 9c 3c 7e 3f
       -1.1460159 -0.8800873 1.0374215 0.9931123
000010 70 f5 a5 3f 49 16 a0 3f 99 4d 69 bf ff eb 7b bf
       1.2965527 1.2506801 -0.9113403 -0.98406976
000020 3e 1d 00 bf 27 d1 8c 3e ac a2 12 3f 5b c5 3c bf
       -0.5004462 0.2750332 0.5727947 -0.7373864
000030 92 2a c4 be 17 d6 ac 3e a1 6e da 3e 60 bd 80 3f
       -0.3831373 0.33757088 0.42662528 1.0057793
000040 9c a6 a8 bf 0b 44 64 3f a8 77 73 bf 53 df 9a 3f
       -1.3175845 0.89166325 -0.95104456 1.2099403
000050 e9 2c 02 bf 4a 5c 41 3f ce 28 72 bf 07 ff 8d 3f
       -0.5084978 0.75531447 -0.94593513 1.1093453
000060 35 40 bc be 68 49 ea 3e a1 13 8c 3d 84 ef cb 3e
       -0.36767736 0.4575913 0.068396814 0.39831173
000070 a9 e4 af bc 32 b9 e0 be 06 93 0a bf 41 c1 bf bd
       -0.021471338 -0.43891293 -0.5413059 -0.09363032
000080 d4 d0 82 3e 1c 21 7b 3e 29 d0 88 be 5c 98 88 be
       0.25549948 0.24524349 -0.26721314 -0.2667874
000090 6a be 7c be b1 60 84 be 5a 2f 88 3e fa 49 88 3e
       -0.24682012 -0.2585502 0.26598626 0.2661894
0000a0 3c 63 e2 ba d2 a8 d1 3a f7 b0 84 3b 7e d5 45 bc
       -0.0017272006 0.0015995747 0.004049416 -0.012074826
0000b0 a7 08 81 bb 67 3d 9c 3b fc 72 0a bb 60 e6 89 3c
       -0.003937799 0.004768062 -0.0021125665 0.016833484
0000c0 53 69 49 3d 99 ef 6b bd fe 7c 59 3d 18 0e 66 bd
       0.04917271 -0.057601545 0.053097717 -0.056165785
0000d0 0b 8f 33 3d 17 fc 73 bd 0f ba 53 3d 7b bd 4f bd
       0.04383759 -0.059566583 0.05169111 -0.050717812
0000e0 7d cf 1d 3b bc 52 35 3d 03 09 5f 3c db a5 08 3d
       0.0024079971 0.044268355 0.013612988 0.033361297
0000f0 53 88 98 3b cb 65 12 bc 33 6f 99 bc 6b fa 37 3b
       0.004654923 -0.008935402 -0.018729782 0.0028072845
000100 5b c7 86 3c 62 34 2a bd e6 d1 92 3c 17 ad 23 bd
       0.016452482 -0.041553862 0.017922353 -0.039959993
000110 26 4b 82 bd 57 b4 93 bd f2 2f 1f 3d 20 40 ac bc
       -0.0636199 -0.072121315 0.038864084 -0.021026671
000120 08 01 08 3d fa 8d 27 bc 89 dd 1a bc 74 6b 9f bc
       0.03320411 -0.010226721 -0.009452232 -0.019460417
000130 b4 0c 3c bd 1b 37 b4 3d 9a 4a d1 3d 3c a8 72 3d
       -0.045910552 0.08799573 0.10219307 0.059242472
000140 da cf a2 3d 4c 98 77 bd 2e e5 97 bc e0 63 87 3d
       0.07949801 -0.060447976 -0.018541899 0.066108465
000150 45 b7 a4 3d f5 a4 ae 3c 1a 1d 7b bd 02 da 45 3d
       0.080427684 0.021318892 -0.06130705 0.04830361
000160 55 1b f7 bd da 51 a6 3c f8 df 0c 39 c2 2a 17 3e
       -0.1206576 0.020302702 0.00013434875 0.14762405
000170 9d 6e ad 3c 40 f1 ac 3c 61 ad 60 3d cb 8d 10 3d
       0.021170909 0.02111113 0.054852847 0.035291474

attention.out_proj.weight f4 [32, 32]
000000 e1 80 a7 be 58 77 90 bd 56 f7 a9 be bf 90 09 3f
       -0.32715514 -0.07054013 -0.33196515 0.5373649
000010 ba 5f 1b 3e 73 ca 08 3f 37 13 56 be 40 ad 42 3c
       0.15173236 0.53433913 -0.20905767 0.011882126
000020 33 2f a2 3d 0d 37 43 bd 2d 31 95 be 6d ae db 3e
       0.07919159 -0.047659922 -0.2913908 0.42906514
000030 23 c0 75 3e 30 21 94 bd 42 73 85 be b5 93 1c be
       0.23999076 -0.072328925 -0.26064497 -0.15290721
000040 c3 8d 12 be 50 f2 63 be bb ee 2d 3e 87 b2 80 be
       -0.1431189 -0.22260404 0.169856 -0.25136206
000050 b3 1c 1f bf bb 69 d9 3c fd ba 49 3d 5d 46 83 3e
       -0.62153167 0.026539674 0.04925059 0.2563962
000060 db 7a 4d 3e 45 1e d2 bf 45 ff 9b bf 19 80 03 3d
       0.20066397 -1.6415488 -1.2187277 0.032104585
000070 87 3b 19 be 13 88 2b bf 6f 7b 29 bf 2e cd 94 bf
       -0.14964114 -0.6700451 -0.6620397 -1.1625116
000080 b6 b2 c1 be db 24 04 be fb e6 35 bf fd 5c bf 3e
       -0.37831658 -0.12904684 -0.71055573 0.37375632
000090 b3 25 90 3e 94 8e 9e 3c 99 47 9d 3c 49 4d 96 bd
       0.28153762 0.019355096 0.01919918 -0.0733896
0000a0 7b d1 3c 3e 4e e7 e5 3e 56 07 24 be bd 6b 25 bd
       0.18439285 0.44903034 -0.16018423 -0.04038595
0000b0 5b fa 86 3c e9 51 24 3e 2b 53 46 3e 97 da 26 3e
       0.0164768 0.16046871 0.19367664 0.16294323
0000c0 35 02 88 3e 20 fb 1e bd 51 26 22 3f 7b 7a 9c bb
       0.26564184 -0.03881371 0.63339716 -0.004775343
0000d0 33 1e 04 3f b6 1e 92 3d 74 1a 28 be 39 13 8d 3e
       0.5160858 0.07134764 -0.16416341 0.27553728
0000e0 c0 5a 9a be 86 d3 45 c0 4e a3 40 bf 57 d2 26 3e
       -0.30147362 -3.0910354 -0.75249183 0.16291176
0000f0 66 1c 94 be 04 56 a4 bf c5 80 c6 be 90 b4 44 bf
       -0.28927916 -1.283875 -0.38770118 -0.76838017
000100 bc 68 68 be 8c 23 c4 3e 40 07 f1 bd ef ac 4e 3e
       -0.22696203 0.3830837 -0.11768961 0.20183156
000110 ec 6e 8b be 49 e2 91 3d 8c e3 da 3d 02 7d 32 be
       -0.27233064 0.071232386 0.10687932 -0.17430499
000120 55 8f 84 3e 0a 9c e4 3d db ac 3b be 75 81 4e be
       0.25890604 0.111625746 -0.18327658 -0.20166571
000130 c5 a4 04 3d dd ea cf be 59 6e 22 bf 74 c7 23 bf
       0.0323837 -0.40608874 -0.6344963 -0.63976216
000140 08 bc 61 be ff 65 96 3d 4c eb b3 3d 6e 71 57 be
       -0.22044384 0.07343673 0.08785114 -0.21039364
000150 a7 b9 f1 be 39 a9 80 3d e2 dd 76 3e 61 97 b7 bd
       -0.47211954 0.06282277 0.24108079 -0.0896442
000160 bd 32 9f 3e bd 4d 5f 40 3b 87 8f 3e c0 66 fe be
       0.31093398 3.4891198 0.2803286 -0.49687767
000170 86 24 b8 be ab b1 fe ba 6e fe 15 bf 8a 7a aa 3e
       -0.35965365 -0.0019431611 -0.58591354 0.33296615
000180 39 70 7a be 8a 8e ba 3d 3a b7 38 bd 03 fd 90 3e
       -0.24456872 0.091092184 -0.045096613 0.28318033
000190 fd 44 34 3f c5 6b 33 bd a6 bb a3 bb e7 57 cb 3e
       0.7041777 -0.04380395 -0.0049967347 0.39715502
0001a0 e4 89 46 3d 30 30 9d 3e 2d f7 bc bd 01 67 98 3d
       0.048471346 0.30700827 -0.092268325 0.074415214
0001b0 a5 01 91 3e e8 65 56 be 25 84 89 be 0e 36 ab be
       0.28321567 -0.20937312 -0.2685863 -0.33439678
0001c0 bf 1e 11 be fd 0e fd 3e 4d f3 30 3f c7 7c 2a 3e
       -0.14171885 0.49425498 0.6912125 0.16649161
0001d0 4a 09 49 bd f7 09 2b be 84 8f 1b 3e cf cb f2 bc
       -0.049081124 -0.1670302 0.15191466 -0.0296382
0001e0 06 80 0e 3f a9 7e f4 3e e6 de 25 bf 1c 57 ac 3d
       0.556641 0.47752884 -0.6479324 0.08415052
0001f0 73 70 ed be 7f 8c 2d bf 55 1f 21 be a5 65 6c bf
       -0.46374854 -0.67792505 -0.15734608 -0.923426
000200 10 29 6d 3f f3 33 43 bf 62 d6 ec 3e 73 63 07 bf
       0.9264078 -0.76251143 0.4625731 -0.5288612
000210 78 c3 d6 bd 19 c5 12 3e 4a ed d0 3e b4 9c dd be
       -0.104865015 0.14333 0.40806037 -0.43283617
000220 b1 d8 74 be bb 53 17 3e bd 48 52 3d e1 78 e3 3a
       -0.23910786 0.14778034 0.0513389 0.001735475
000230 59 bc 31 be 19 8b 97 3d 7a 6d 49 3b 02 b2 8b be
       -0.17357005 0.07399578 0.003073542 -0.27284247
000240 22 99 9a be 30 fc ee be eb ee d7 3d 2d 7c 76 3e
       -0.30194956 -0.4667678 0.10543617 0.24070807
000250 7f 05 a7 bd cc 3e 98 bd b2 fe e6 3d 41 b4 88 3c
       -0.08155345 -0.074338526 0.11279048 0.016687514
000260 97 b9 17 bd 7f 1b 00 40 e9 c2 92 3f a4 73 cc bd
       -0.037042227 2.0016782 1.1465732 -0.09982994
000270 c9 c6 35 3f 81 03 75 3f e0 b6 fb 3e 7e 73 88 3f
       0.7100645 0.9570847 0.4916296 1.0660245
000280 70 01 82 3e 5c 15 7b be d1 93 09 3f 69 63 90 3d
       0.25391722 -0.24519867 0.53741175 0.07050211
000290 7c 25 5d 3e a1 0b bc be 56 61 06 bf b9 eb 23 be
       0.2159633 -0.36727622 -0.5249227 -0.1600789
0002a0 e7 ce 99 3e 2b ef 6b ba f0 2d 49 be 75 39 35 3d
       0.30040666 -0.00090001774 -0.1964643 0.04424425
0002b0 67 ab c0 be 5c d4 10 3d 9e bf 2f 3f 9d 7c 7a bd
       -0.3763077 0.03535877 0.6865176 -0.061153997
0002c0 a2 e3 bb 3e f4 40 4a be 47 0b fd bd 22 31 21 3e
       0.36697108 -0.1975134 -0.123556666 0.15741399
0002d0 a1 9f dd bd 89 89 5b 3e 83 cd 38 3e a6 a5 b1 bd
       -0.108214624 0.21439184 0.18047146 -0.08674173
0002e0 ed b5 6a bf 9e bc ff bf 50 02 b5 3e 94 bf a9 3e
       -0.91683847 -1.9979436 0.35353327 0.33153975
0002f0 05 40 f9 3e e3 76 ef bd a5 2f 0b 3e 77 ae 47 3e
       0.48681656 -0.11692598 0.13592394 0.19500147
000300 26 27 af 3d 66 93 2f 3e 4e 1f 92 be ec 5a 45 3e
       0.08552389 0.17146072 -0.2853951 0.19272965
000310 4e 7d 90 3e 67 7b 88 be 04 23 82 3d 85 67 2c 3e
       0.282206 -0.2665665 0.06354335 0.16836365
000320 34 b9 42 be 6b cb e4 3d dd 52 27 bd e7 dc 9c be
       -0.19015962 0.111716114 -0.04085051 -0.30637285
000330 57 4e 06 3e 25 c0 56 3e 88 68 0d 3e 74 1e 8a be
       0.13115822 0.20971735 0.13809407 -0.2697636
000340 52 e7 a9 be d6 7c c3 3e 27 e2 7a be 67 06 76 be
       -0.33184296 0.3818118 -0.24500333 -0.2402588
000350 13 1e ad be 32 a9 88 be ec 5b 94 3e db bb 52 3e
       -0.33812007 -0.26691586 0.2897638 0.20579474
000360 1c 4e 5f 3e ab e3 bf bf ee 91 34 bf 68 9c 93 be
       0.2180714 -1.4991354 -0.7053517 -0.28830266
000370 35 43 6f be 95 5e 63 be ed 3e f1 be 8a 7c 0d bf
       -0.23365481 -0.22204049 -0.4711832 -0.55268157
000380 b4 89 f8 3e ae b5 26 be b2 fb 96 3e e1 62 1b 3e
       0.4854256 -0.16280243 0.29488903 0.15174438
000390 2a 79 b2 bd a6 95 1f bf a1 08 e8 bd ef 20 8f be
       -0.087145165 -0.6233772 -0.11329771 -0.27954814
0003a0 75 78 51 bd 9f 56 8f be db cb d2 bd a2 8c 88 be
       -0.051140267 -0.27995774 -0.102927886 -0.26669794
0003b0 ad f3 fc bd c1 c6 db 3e 05 ce 18 bf 65 71 df 3e
       -0.12351165 0.42925075 -0.5968936 0.436412
0003c0 64 77 c4 3d fc 98 06 bd 73 0d c0 3e f2 c6 33 3c
       0.095930845 -0.03286074 0.3751026 0.010972725
0003d0 d3 af 0c 3e f7 70 d8 bd be ee 65 be 2d 4a b0 be
       0.13738947 -0.10568421 -0.22454354 -0.34431592
0003e0 d5 4f fd be f3 72 f2 be 78 9e ae 3e ef 7d 88 3e
       -0.4947497 -0.47353324 0.34105277 0.2665858
0003f0 95 c4 94 3e 7f 1e c7 3e 20 75 29 3e c4 f0 c1 3e
       0.2905623 0.38890454 0.16548586 0.37879002

attention.out_proj.bias f4 [32]
000000 6b 00 83 bd 46 d8 c8 3d cf 7a 33 be 4b 8c 83 bd
       -0.06396564 0.09806876 -0.17527317 -0.06423243
000010 2c 7f cc 3b b3 73 d7 3d 66 ec 45 bd 7e 5b a4 3d
       0.006240746 0.10520115 -0.04832115 0.08025263
000020 75 d2 06 3e d5 cd 9e bc 4d 04 de bd eb e7 48 3a
       0.1316622 -0.019385258 -0.10840664 0.0007663953
000030 3d 1c f1 bc 11 1c 96 bd 35 0a cc 3c 47 8c aa bd
       -0.02943241 -0.07329572 0.02490721 -0.08327537
000040 b0 e6 a2 3d 65 92 56 bd 9c 54 78 bd 96 76 7b bd
       0.079541564 -0.052385706 -0.060627565 -0.06139239
000050 5e 89 92 3d f6 ed 02 3e 67 a6 62 bd 3e d2 a7 bc
       0.07155107 0.12786087 -0.055334475 -0.020485993
000060 5b 24 fd 3c c9 3c c9 bd c5 de c6 3d e4 8b ae bc
       0.030901125 -0.09826047 0.09710459 -0.02130694
000070 a6 0f bf 3c 4d 36 1e 3e 6d 85 c1 3d b3 6e 9c 3d
       0.023322891 0.15450402 0.09449277 0.07638302

priority_head.weight f4 [1, 32]
000000 02 5f 39 c1 41 57 e4 c0 e9 2d be 3f a0 79 9f bf
       -11.585695 -7.135651 1.4857761 -1.2458992
000010 c9 91 1d 3f 30 5b cd c0 ca b2 73 be 33 c7 e2 bd
       0.61550575 -6.4173813 -0.23798671 -0.110731505
000020 7c fa 4e bf 8e 15 a7 3d d1 90 e0 c0 f4 aa 23 c1
       -0.8085096 0.08158408 -7.017678 -10.229237
000030 ec 55 e4 be 96 82 10 3f 4a 72 24 c1 9d 18 ef 3b
       -0.44596803 0.5644926 -10.277903 0.0072966353
000040 a1 ef 02 c1 c2 36 13 c1 fe 82 53 3d 32 56 18 c1
       -8.183503 -9.200869 0.051638596 -9.521044
000050 b0 90 07 c1 ba 5d 11 bf 2c cc 01 c1 bd fb cb c0
       -8.472824 -0.5678364 -8.112347 -6.37448
000060 26 8d d7 3e 5d 16 a0 3d f0 1d 21 c1 ea ef 27 c1
       0.42099875 0.078167655 -10.069809 -10.496073
000070 3d 0c 3b 40 b1 c4 00 c1 52 4f 1d c1 e8 e7 34 c1
       2.922622 -8.04802 -9.831865 -11.306618

value_head.0.weight f4 [64, 32]
000000 bd a5 b3 be 66 33 7e be 07 4b b5 be 89 6f e3 3e
       -0.35087386 -0.24824294 -0.35408804 0.44421032
000010 52 54 fa bd b1 b2 81 3d 7e 1d 02 3e 79 f9 1b be
       -0.12223114 0.06332911 0.12706563 -0.15231885
000020 4a 36 17 be f0 76 20 3e 08 59 4c bd 68 fe 45 3c
       -0.14766803 0.15670371 -0.049889594 0.012084581
000030 33 cf b7 3c b1 4e 8a be 45 28 fc 3d 3d 73 82 3f
       0.022437667 -0.27013162 0.12312368 1.0191418
000040 e5 8d 4b 3e 2d c2 b4 bb 61 70 38 bc dd 1e 90 3d
       0.19878347 -0.0055163116 -0.011257262 0.07037137
000050 1f bd 04 3e b7 9c 96 3d 39 84 54 3c 75 48 a6 3e
       0.12962769 0.0735411 0.012970977 0.32477155
000060 2e 40 bd be 08 90 a8 3c 51 7d 7a 3d 09 41 e0 3e
       -0.36963028 0.020576492 0.061154667 0.43799618
000070 25 44 5a bd 43 4c 72 bd 94 c1 12 3d 06 2f e0 3d
       -0.053287644 -0.05915476 0.03582914 0.10946469
000080 8a 33 e7 3b fc f0 e8 bd a4 2d 9c be c9 16 34 3f
       0.0070557045 -0.11374089 -0.3050357 0.7034727
000090 50 cd 9f be a5 dd d7 3d 2f f4 dd bd b8 08 fb 3a
       -0.31211329 0.10540322 -0.1083759 0.0019152379
0000a0 42 65 c8 be 31 c3 34 be 3b 7e 50 be bc dd 60 be
       -0.39139754 -0.17652585 -0.20360653 -0.21959585
0000b0 c5 33 ac 3d f0 88 df 3d 17 c5 0d bf 34 e1 67 3f
       0.08408312 0.10914791 -0.5537886 0.9057801
0000c0 37 f4 22 3d e0 8d 53 3f 92 e6 5b 3d 4d 5f ae be
       0.039783683 0.8263836 0.053686686 -0.34057084
0000d0 7a 97 fe bd 4d 80 10 3e a7 ae 06 bd 52 45 19 3f
       -0.124312356 0.14111443 -0.032881405 0.598714
0000e0 7e 4c 3c bf cf 97 40 bd fa 86 a3 3e d3 7d 96 3d
       -0.7355422 -0.047019776 0.31938916 0.07348218
0000f0 76 00 95 bd f0 d8 b1 be 54 9d 43 3d be d4 e4 be
       -0.072754785 -0.34735823 0.04775746 -0.4469356
000100 55 a3 fd be ff 6b 02 bf 89 9d 97 bd bc 6c a2 be
       -0.49538675 -0.5094604 -0.07403094 -0.31723583
000110 b0 b5 d9 3e aa 5c d9 3d fc 5a 02 3d 48 a1 7e 3d
       0.4252143 0.106133774 0.03182505 0.06216553
000120 9f a2 d0 3e ed 78 a5 3e 6b 8f 0b be 27 b1 32 be
       0.4074907 0.32318822 -0.13628928 -0.17450391
000130 77 35 46 be 78 93 4f bd 9d 24 77 3d 9e 85 85 bd
       -0.19356333 -0.050677747 0.06033765 -0.06519626
000140 b1 e1 d1 bd 22 0d b0 be b5 da f1 bc cd aa 6b be
       -0.10248125 -0.3438502 -0.029523233 -0.23014374
000150 85 ae c9 bd 34 e0 73 3d 18 76 c3 be 13 38 c1 be
       -0.0984774 0.05953999 -0.38176036 -0.37738094
000160 fc 30 b3 3d 04 06 32 3e fc 77 de 3e 07 8e 09 be
       0.087495774 0.17385107 0.43450916 -0.13433085
000170 3b c6 62 3e 39 bb 83 3e 0a bd aa be 62 1b 72 3e
       0.22145931 0.25728777 -0.3334735 0.23643258
000180 88 03 ee be 55 d0 21 3f b4 09 b0 be 5d a3 8a be
       -0.4648707 0.63208514 -0.34382403 -0.2707776
000190 3c 9d f2 3c 91 87 67 3e 27 be 14 3e f7 d8 22 3e
       0.02961599 0.22610308 0.14525662 0.15903078
0001a0 ce 40 15 bd 31 de d4 bd 9a 88 c7 bd 3c ef 4b 3e
       -0.036438756 -0.10393942 -0.097428516 0.1991548
0001b0 99 7c c4 bd 5b 0a 09 bf 80 9f 09 3e c3 83 33 be
       -0.095940776 -0.53531426 0.1343975 -0.17530732
0001c0 96 32 8c 3e d0 51 4b be c7 b3 db be 75 9b cd be
       0.27382344 -0.19855428 -0.42910597 -0.40157667
0001d0 a8 51 ef 3d ab ad 80 3e d9 46 93 be 28 21 ae be
       0.116854966 0.25132498 -0.2876499 -0.3400967
0001e0 82 e5 92 3e 81 d5 93 be 22 29 58 3e 01 b8 bc 3d
       0.28690726 -0.28873828 0.21109441 0.092147835
0001f0 39 65 d0 3e b8 d7 60 3e ef f4 11 3e d7 cc a2 3d
       0.40702227 0.2195729 0.14253591 0.07949226
000200 ac d7 0e be f7 0b 2e bf a2 6a 95 be 79 03 97 be
       -0.1394946 -0.67987007 -0.29182917 -0.29494837
000210 50 10 bc 3e 08 84 2a 3f c5 ba cf bd c1 54 99 3c
       0.36731195 0.66607714 -0.10143045 0.018717172
000220 9f d1 28 3e e1 33 df 3d 71 69 04 bd 8b 08 d9 bd
       0.16486214 0.10898567 -0.03232712 -0.105973326
000230 9f b1 47 be 8e c9 92 bc 85 7a 2b 3e c7 4a 2c be
       -0.19501351 -0.017918374 0.16745956 -0.168254
000240 0d 0a 1d 3e 44 2f 9b be 5f d6 3a be 5b 5e be be
       0.15335865 -0.30309498 -0.18245839 -0.37181363
000250 07 ec 44 be de 64 11 3c e4 ec e4 be 59 83 87 be
       -0.19230662 0.008874146 -0.44711983 -0.26467398
000260 47 40 69 3e 93 70 c8 be ae 6e de bc 38 1c e1 be
       0.22778426 -0.39148387 -0.027152386 -0.43966842
000270 42 79 5d 3e bf 05 bc 3e d5 7d 69 be bc 19 82 3d
       0.21628287 0.36723134 -0.22801907 0.06352565
000280 81 44 7c 3f f8 8e bd 3e 06 a9 94 bf b4 32 b6 3d
       0.9854203 0.3702314 -1.1614082 0.088963896
000290 7c f8 40 bf c3 10 e0 3e a7 45 a7 3e bf b6 1b 3e
       -0.7537916 0.43762788 0.32670328 0.15206431
0002a0 f3 6f 2a 3e 1c 36 98 bf 2a 76 1a be 40 14 e7 be
       0.16644268 -1.1891513 -0.15084139 -0.45132637
0002b0 ed bf b2 3f 27 34 6b 3e 61 72 33 bf 32 19 28 bf
       1.3964821 0.22969113 -0.70096403 -0.65663445
0002c0 91 46 3b be 0a d4 55 3f 02 2e f3 be 17 40 3e 3e
       -0.18288638 0.8352667 -0.4749604 0.18579136
0002d0 63 96 77 3f 79 79 1d bd 09 4f 47 3f c9 f9 8b b9
       0.96713847 -0.038445923 0.77854973 -0.0002669825
0002e0 09 fd 55 bf 6f 96 74 3e 3f 8a d0 3e 18 1a f1 3e
       -0.83589226 0.23885511 0.40730473 0.4709022
0002f0 4c c2 47 bf 26 d1 2c 3e 02 09 1d 3f b4 36 9c bc
       -0.7803085 0.16876659 0.6134187 -0.019069053
000300 e1 01 25 be 5b f4 9c 3e 17 4e 88 3d 24 6a 82 bd
       -0.16113998 0.30655178 0.066555195 -0.06367901
000310 71 86 9c be 89 95 e4 3d b3 eb 9b bd 5d d5 49 be
       -0.3057132 0.11161334 -0.076133154 -0.19710298
000320 6c 23 3d be 93 f9 7c 3d f7 e4 00 3e 98 9a f1 3d
       -0.18470544 0.06176145 0.12587343 0.117970645
000330 a0 46 a7 3d 67 a5 08 3d ec 54 68 3e c1 0a ab be
       0.081677675 0.033360865 0.22688645 -0.33406642
000340 90 91 14 3e f5 43 17 be 3f e4 33 3e 37 c8 3c 3e
       0.14508653 -0.14772017 0.17567538 0.18435751
000350 25 8a 74 bb aa 40 e5 bd e8 72 3c bc 90 79 f2 bc
       -0.0037313786 -0.11193974 -0.011502005 -0.029598981
000360 99 5b fd bc 20 dc 35 3e 18 0d 5e be 1c fe ca bd
       -0.030927466 0.17759752 -0.21684682 -0.09911749
000370 38 b1 ac bd a2 82 32 bd ff 59 ec be a8 90 f0 be
       -0.08432239 -0.043581612 -0.46162412 -0.46985364
000380 0e da 3c be d8 a8 0e 3f ca 21 31 3c 1d 8e 91 bd
       -0.18442556 0.55726385 0.010811279 -0.07107184
000390 ab ac 5b 3e f8 d6 39 3e 03 1a dd bd ae 4a 26 3e
       0.21452586 0.1814841 -0.10795977 0.16239426
0003a0 e2 3e 8d 3e 48 0c 84 3e 4c c8 19 bf 8c 5d 03 3d
       0.27587038 0.2579062 -0.60071254 0.032071635
0003b0 02 01 3d be 6b 55 8d be a4 89 0c bd 02 de de bd
       -0.18457416 -0.2760423 -0.03431095 -0.108821884
0003c0 5f 82 7b 3e 95 41 a4 be 9c 22 1f bf 79 8c a4 be
       0.24561451 -0.32081285 -0.62162185 -0.32138422
0003d0 fb f5 ad bd 7a f8 9b 3e ab 8d 31 be 29 43 67 3d
       -0.08494183 0.3046301 -0.17339198 0.056460533
0003e0 8c 9f 0a 3e 11 30 d1 bd a1 79 1f 3e f4 e1 3c be
       0.13537425 -0.10214246 0.15573741 -0.1844557
0003f0 fc c0 49 3e ec 8f 16 3f 8e 58 12 bd d3 23 86 3e
       0.19702524 0.5881336 -0.035728984 0.26199207

value_head.0.bias f4 [64]
000000 da 96 fd 3c 58 21 3b 3c 3d 75 d0 3d de 63 48 3e
       0.03095572 0.011421524 0.101786114 0.19569346
000010 8f 8f 37 3d 12 37 63 3e da 76 72 bc 19 b4 4c 3e
       0.044814643 0.22188976 -0.014798844 0.19990577
000020 0b a6 5c 3d e1 01 94 bd 39 04 7a 3d c7 13 46 3e
       0.05386929 -0.07226921 0.061039183 0.19343482
000030 2d 46 1e 3d 9e d4 23 3d dd 0d aa bd 3a 4a 2e 3d
       0.038641144 0.03999769 -0.083034255 0.042551257
000040 95 36 e4 3d 7b 4c d2 bc 3a e1 df 3b 00 00 00 00
       0.11143223 -0.025671234 0.006832269 0.0
000050 99 e2 23 3d 20 38 59 bb b8 46 52 3d 4f a9 1a 3e
       0.040011022 -0.0033145025 0.051336974 0.15103649
000060 00 00 00 00 33 53 c4 3c 00 00 00 00 0f 63 53 3e
       0.0 0.023965454 0.0 0.20643257
000070 71 f4 45 bc be 4a 6b 3e d4 c1 11 bd 81 98 e0 bd
       -0.012082205 0.2297773 -0.03558524 -0.10966588
000080 c3 cd f7 3c 83 81 51 3e 58 bb 22 bd 61 45 73 3e
       0.030249482 0.20459561 -0.039729446 0.23756935
000090 df 6e 63 3e 38 80 19 bd 10 b2 24 bd 26 e2 a4 3d
       0.22210263 -0.037475795 -0.040208876 0.08050947
0000a0 6b 6e 46 3e 52 25 3d 3e a6 fd 77 3d d2 6b 93 3d
       0.19378059 0.18471268 0.060544632 0.071982995
0000b0 a7 f2 7b 3d 39 ef 4f 3e 53 fa d3 3b c6 79 c6 3c
       0.06151071 0.203061 0.00646905 0.024227988
0000c0 45 2a 20 3e 9b 2b 8d bc 13 b4 d9 ba 67 73 90 bc
       0.15641125 -0.017232707 -0.0016609452 -0.017633153
0000d0 96 7d 24 be 9a 83 ab bc 9f cb 5c bc 64 21 d7 bc
       -0.16063532 -0.020936776 -0.013476281 -0.02626104
0000e0 d9 7a 22 3e cb 1b 1d 3d e2 e7 e6 3d 3e 3d 56 3e
       0.15867175 0.038356584 0.11274697 0.209218
0000f0 00 00 00 00 82 69 f6 bd 67 ff 7d 3d 5f 05 20 bd
       0.0 -0.12031843 0.06201115 -0.039067622

value_head.2.weight f4 [1, 64]
000000 f0 21 4d bf 5f da 29 bf 14 32 b7 3e e4 1f ad 3e
       -0.8012991 -0.6634883 0.35780394 0.33813393
000010 0d c5 d9 3e 3c f8 86 3f 93 e3 70 3d 62 c2 c2 3e
       0.4253315 1.0544505 0.05881078 0.38038927
000020 8e c6 04 3f ac b7 a7 be 2c 1e b1 3e a7 38 a8 3f
       0.5186547 -0.32757318 0.34593332 1.3142289
000030 04 8b d3 3e a5 7f ac 3e 9e 31 7d bf 8c d5 f1 bf
       0.41316998 0.33691135 -0.98903835 -1.8893294
000040 24 d5 6a c0 2e 76 cf 3d 6b 2b ab bd 9c 13 0a be
       -3.669259 0.10129963 -0.08357891 -0.13484043
000050 c6 c5 c0 3e aa 6b 8d 3e 9b 5b f2 bf 62 82 b6 3e
       0.3765089 0.27621204 -1.8934206 0.3564635
000060 a4 c1 ea 3b d4 8b 86 3f b1 16 17 be ca 0e b0 3f
       0.007164197 1.0511422 -0.1475475 1.3754513
000070 be 7a 6c be 99 1f a0 3f f0 9d a2 bf f1 8e 45 bf
       -0.23093697 1.2509643 -1.2704449 -0.77171236
000080 04 d8 bd 3e 1d 83 96 3e b8 01 65 be 38 01 8e 3f
       0.3707887 0.29396906 -0.22363937 1.1094122
000090 32 25 ac 3f ac 8c fb bd cc fa 52 3e 62 6e b0 3e
       1.3448851 -0.122826904 0.20603484 0.34459215
0000a0 35 9d 90 3f eb 27 6c 3f 94 a7 30 c0 68 f9 21 3e
       1.1297976 0.9224841 -2.7602282 0.15817797
0000b0 71 52 56 3e 7f 90 02 3f 48 72 45 3e 45 e7 d4 bf
       0.20929886 0.51001734 0.19281876 -1.6633078
0000c0 47 5a 78 3f 6d 86 dc 3f fb 94 15 bf c5 c7 01 bf
       0.9701275 1.7228523 -0.5843045 -0.5069545
0000d0 5d c2 b1 bf 1f 53 8a 3e 9a dc b4 bb aa 83 35 3e
       -1.388744 0.2701654 -0.005519462 0.17726007
0000e0 37 55 4f 3e d9 58 9c 3e c8 bc 41 bf 37 82 f4 3e
       0.2024735 0.30536535 -0.7567868 0.47755596
0000f0 87 74 90 3e 6b a3 3b bf f3 99 15 c0 94 7f 4a 3f
       0.28213903 -0.7329623 -2.3375213 0.7910092

exp_avg f4 [30]
000000 04 00 00 80 04 00 00 80 04 00 00 80 04 00 00 80
       -6e-45 -6e-45 -6e-45 -6e-45
000010 04 00 00 80 04 00 00 80 04 00 00 80 04 00 00 80
       -6e-45 -6e-45 -6e-45 -6e-45
000020 04 00 00 80 04 00 00 80 04 00 00 80 04 00 00 80
       -6e-45 -6e-45 -6e-45 -6e-45
000030 04 00 00 80 04 00 00 80 04 00 00 80 04 00 00 80
       -6e-45 -6e-45 -6e-45 -6e-45
000040 04 00 00 80 04 00 00 80 04 00 00 80 04 00 00 80
       -6e-45 -6e-45 -6e-45 -6e-45
000050 04 00 00 80 04 00 00 80 04 00 00 80 04 00 00 80
       -6e-45 -6e-45 -6e-45 -6e-45
000060 04 00 00 80 04 00 00 80 04 00 00 80 04 00 00 80
       -6e-45 -6e-45 -6e-45 -6e-45
000070 04 00 00 80 04 00 00 80
       -6e-45 -6e-45

exp_avg_sq f4 [30]
000000 f4 01 00 00 f4 01 00 00 f4 01 00 00 f4 01 00 00
       7e-43 7e-43 7e-43 7e-43
000010 f4 01 00 00 f4 01 00 00 f4 01 00 00 f4 01 00 00
       7e-43 7e-43 7e-43 7e-43
000020 f4 01 00 00 f4 01 00 00 f4 01 00 00 f4 01 00 00
       7e-43 7e-43 7e-43 7e-43
000030 f4 01 00 00 f4 01 00 00 f4 01 00 00 f4 01 00 00
       7e-43 7e-43 7e-43 7e-43
000040 f4 01 00 00 f4 01 00 00 f4 01 00 00 f4 01 00 00
       7e-43 7e-43 7e-43 7e-43
000050 f4 01 00 00 f4 01 00 00 f4 01 00 00 f4 01 00 00
       7e-43 7e-43 7e-43 7e-43
000060 f4 01 00 00 f4 01 00 00 f4 01 00 00 f4 01 00 00
       7e-43 7e-43 7e-43 7e-43
000070 f4 01 00 00 f4 01 00 00
       7e-43 7e-43

exp_avg f4 [32, 4]
000000 1c 77 29 ba 1d 0d 08 3b ad 16 32 3b 67 b6 0c bb
       -0.0006464587 0.002075977 0.002717416 -0.0021471025
000010 85 6d dc 3a 42 c8 05 3b 6b 70 f6 3a c2 7d 5c ba
       0.0016817307 0.0020413552 0.0018801814 -0.00084110734
000020 90 85 f3 b9 70 83 9d b9 b3 ee f8 b8 a0 25 b4 ba
       -0.00046448084 -0.00030043302 -0.00011870023 -0.0013744123
000030 37 7d db b9 a6 0e 56 3a d0 d9 33 3a 13 ad ca b9
       -0.00041864227 0.0008165635 0.00068607647 -0.00038657393
000040 b3 c5 cf bb 06 b9 30 bb d5 0b e5 bb 41 18 c3 bb
       -0.0063407063 -0.0026965751 -0.006989936 -0.005953819
000050 9f 5f 8b 3b c0 b4 4d 3b 58 da b0 3a bc b9 b4 ba
       0.0042533423 0.0031388253 0.0013492806 -0.0013788263
000060 00 00 00 00 00 00 00 00 04 00 00 00 04 00 00 00
       0.0 0.0 6e-45 6e-45
000070 04 00 00 00 04 00 00 00 04 00 00 00 04 00 00 00
       6e-45 6e-45 6e-45 6e-45
000080 9d a3 55 bb 28 9f 1f b9 27 1d 70 ba 1a 52 00 bb
       -0.0032598742 -0.00015222712 -0.00091596175 -0.0019580186
000090 00 00 00 00 00 00 00 00 00 00 00 00 00 00 00 00
       0.0 0.0 0.0 0.0
0000a0 47 8a 1b 3a eb 71 a8 3a 1a 9b ad 3b fe 21 c2 ba
       0.00059333857 0.0012851333 0.0052980306 -0.0014811156
0000b0 3a 3c 15 ba 2e cd 1d b9 66 da 89 ba 68 7a 97 ba
       -0.00056928734 -0.00015049122 -0.0010517358 -0.0011556866
0000c0 00 00 00 00 00 00 00 00 00 00 00 00 00 00 00 00
       0.0 0.0 0.0 0.0
0000d0 04 00 00 80 04 00 00 80 04 00 00 00 04 00 00 00
       -6e-45 -6e-45 6e-45 6e-45
0000e0 ff 52 d8 3b f3 03 00 3c 76 cc 74 3b 7a 89 73 39
       0.006601691 0.007813442 0.0037353314 0.000232255
0000f0 00 00 00 00 00 00 00 00 00 00 00 00 00 00 00 00
       0.0 0.0 0.0 0.0
000100 94 02 64 37 61 9a 31 b9 ee 1f 56 3b 0b a8 78 3a
       1.3590459e-05 -0.00016937546 0.003267284 0.00094854896
000110 ce 95 d6 39 e6 3d cf 3a 64 c5 44 3b 65 01 2e bb
       0.00040928874 0.0015811294 0.003002488 -0.0026551124
000120 00 00 00 00 00 00 00 00 00 00 00 00 00 00 00 00
       0.0 0.0 0.0 0.0
000130 7f 70 a5 3b a9 d0 b3 3b 37 f4 6b 3b 0a 8e d3 39
       0.005048811 0.0054875207 0.0036003718 0.00040350884
000140 1e 63 b7 b7 07 12 79 ba 00 f3 2d 3b b7 33 d7 b8
       -2.1861455e-05 -0.00095012825 0.0026542544 -0.000102616315
000150 e1 c4 81 39 f5 8b c1 3a 8f 15 eb ba 5e 4d 0e bb
       0.00024751484 0.0014766442 -0.0017935502 -0.0021713595
000160 9a 08 4c ba dc ea fd 3a 82 b8 cc 38 92 61 82 bb
       -0.0007783264 0.0019372362 9.761845e-05 -0.0039789164
000170 aa de 87 b9 13 33 cd 39 d2 62 87 3b 39 02 da 39
       -0.00025915104 0.000391387 0.0041316533 0.00041581856
000180 c5 a7 15 3c df bf 91 3b 21 80 03 3c 1e cc 21 3c
       0.009134238 0.0044479216 0.008026154 0.0098753255
000190 00 00 00 00 00 00 00 00 00 00 00 00 00 00 00 00
       0.0 0.0 0.0 0.0
0001a0 e7 2a 1c bc 9b dd 2f bc 16 7e 79 bc bc a4 56 bb
       -0.009531713 -0.010733987 -0.015227815 -0.0032751998
0001b0 d2 7c 93 3a 71 74 05 3b ec d0 23 3c ab 23 9d 3a
       0.0011252409 0.0020363594 0.009998541 0.0011988779
0001c0 12 e6 2b bb 21 07 03 bb 92 d2 94 bb b6 01 90 bb
       -0.0026229662 -0.0019993263 -0.0045417035 -0.004394735
0001d0 3a ab 97 3b 4e c5 24 3c 7a 37 57 b9 50 6a cc b9
       0.004628566 0.010056807 -0.00020524664 -0.0003898912
0001e0 f6 fc 35 3a ca 14 1f 39 7b 38 b1 38 9f a6 78 ba
       0.0006942296 0.00015171166 8.450538e-05 -0.00094852777
0001f0 be 89 80 3a b2 16 04 ba 97 20 0a 3c 1f cc 14 3b
       0.0009806675 -0.0005038782 0.008430622 0.0022704673

exp_avg_sq f4 [32, 4]
000000 b0 8f 79 3a 75 56 f9 38 69 be 19 3a 0b dc 5b 3a
       0.00095200073 0.00011889349 0.000586486 0.0008386976
000010 6e eb ca 3a 0b 76 df 39 ba b3 97 3a 21 8c 95 3a
       0.001548154 0.00042621823 0.0011573948 0.001140956
000020 52 ec 84 38 a7 f9 22 37 62 be 3b 38 42 a4 8a 38
       6.3382686e-05 9.714079e-06 4.4761582e-05 6.610948e-05
000030 61 d1 42 39 ff 33 ad 38 92 02 1e 39 4b 37 f3 38
       0.00018579281 8.258968e-05 0.00015069012 0.00011597442
000040 77 4e 99 3a 17 18 e1 39 22 24 5b 3a 21 49 e9 39
       0.0011696358 0.00042933293 0.0008359571 0.00044495708
000050 40 2a 0f 3b b6 e8 58 39 22 1c a4 3a 6f 4c 01 3b
       0.0021845251 0.00020686057 0.0012520591 0.0019729396
000060 00 00 00 00 00 00 00 00 f4 01 00 00 f4 01 00 00
       0.0 0.0 7e-43 7e-43
000070 f4 01 00 00 f4 01 00 00 f4 01 00 00 f4 01 00 00
       7e-43 7e-43 7e-43 7e-43
000080 0f f2 32 3b ce e3 98 3a 8a 20 13 3b c3 b2 cf 3a
       0.0027304923 0.0011664571 0.0022449815 0.0015846122
000090 00 00 00 00 00 00 00 00 00 00 00 00 00 00 00 00
       0.0 0.0 0.0 0.0
0000a0 00 c5 57 38 10 af de 37 d9 48 6d 38 e5 81 92 38
       5.1443465e-05 2.6545982e-05 5.6573048e-05 6.986017e-05
0000b0 a1 26 d3 37 be 37 17 36 2b 18 28 39 70 94 42 39
       2.5171148e-05 2.25332e-06 0.00016030732 0.00018556579
0000c0 00 00 00 00 00 00 00 00 00 00 00 00 00 00 00 00
       0.0 0.0 0.0 0.0
0000d0 f4 01 00 00 f4 01 00 00 f4 01 00 00 f4 01 00 00
       7e-43 7e-43 7e-43 7e-43
0000e0 37 5b 1f 3a 12 c1 95 38 59 7a 83 39 ac 83 e9 39
       0.0006078961 7.140836e-05 0.00025077423 0.00044539326
0000f0 00 00 00 00 00 00 00 00 00 00 00 00 00 00 00 00
       0.0 0.0 0.0 0.0
000100 f4 b9 28 3a 70 47 e4 38 6c 17 b4 39 94 d3 b7 39
       0.00064364006 0.000108851935 0.00034349726 0.00035062118
000110 98 fe f9 3a 67 87 ab 39 4f 60 9f 3a 44 5d c1 3a
       0.0019073067 0.00032716544 0.001215944 0.0014752527
000120 00 00 00 00 00 00 00 00 00 00 00 00 00 00 00 00
       0.0 0.0 0.0 0.0
000130 09 01 17 3a c3 19 7f 38 a9 db ad 39 ae 68 e2 39
       0.0005760347 6.082073e-05 0.0003316079 0.00043184072
000140 37 61 85 37 dc 22 01 38 7f ae 16 38 e9 d9 9e 37
       1.5900105e-05 3.0788462e-05 3.59253e-05 1.893654e-05
000150 79 e0 04 3b f5 a3 cb 39 9b 57 a5 3a 45 e0 af 3a
       0.0020275398 0.00038841335 0.001261461 0.0013418278
000160 e4 3f 79 3b 44 f9 09 3a 91 c3 16 3b d1 5e 3a 3b
       0.0038032467 0.0005263279 0.002300475 0.0028437863
000170 83 50 c8 39 61 e7 97 38 31 bd 6b 39 7b 10 54 39
       0.0003820696 7.243339e-05 0.00022481826 0.00020224035
000180 5a 22 82 3b 94 48 d5 3a 87 c5 59 3b b6 34 13 3b
       0.00397138 0.001627224 0.0033229308 0.0022461838
000190 00 00 00 00 00 00 00 00 00 00 00 00 00 00 00 00
       0.0 0.0 0.0 0.0
0001a0 b7 32 5c 3a e6 cc 0e 3a a3 78 4b 3a 0f c9 c9 39
       0.0008399891 0.00054474024 0.0007761812 0.00038487508
0001b0 28 84 8e 3b 28 d7 c3 3a 8a 4c 4c 3b 0b 17 1f 3b
       0.0043492503 0.0014941441 0.003117355 0.002427521
0001c0 e6 45 68 3c a4 a4 85 3b 57 a6 0d 3c a7 23 e4 3b
       0.014176821 0.0040784646 0.008645616 0.006962258
0001d0 8b c2 99 3a 8e c5 1f 39 61 1a de 39 d8 d4 14 3a
       0.0011730952 0.00015237016 0.00042362793 0.0005677468
0001e0 01 71 5b 3a 6e b3 5a 39 6a 29 1f 3a 00 0f 21 3a
       0.0008371026 0.00020856943 0.000607154 0.0006143898
0001f0 3d aa 11 3b 58 5d b7 39 4d b8 9f 3a c9 c5 96 3a
       0.0022226714 0.00034974026 0.0012185663 0.0011503036

exp_avg f4 [32]
000000 50 82 3c bb 69 d9 96 b9 52 6c 8a ba a0 fb 3a b9
       -0.0028764196 -0.00028772213 -0.0010560846 -0.0001783208
000010 cd f2 e5 bb d3 b0 55 3a 04 00 00 00 04 00 00 00
       -0.0070174695 0.0008151654 6e-45 6e-45
000020 24 1e 17 bb 00 00 00 00 89 62 52 ba 42 2f 83 ba
       -0.0023058737 0.0 -0.0008025547 -0.0010008591
000030 00 00 00 00 04 00 00 00 45 67 9e 3b 00 00 00 00
       0.0 6e-45 0.004834088 0.0
000040 79 10 74 3a bd 09 22 bb 00 00 00 00 cd be 67 3b
       0.0009310316 -0.0024725043 0.0 0.003536153
000050 4d 74 9b b9 d5 b6 01 bb d8 cc 8d bb 5d 11 c1 39
       -0.00029650555 -0.0019792814 -0.004327398 0.00036824765
000060 2b f2 03 3c 00 00 00 00 13 9a 0e bc 24 2b 22 3b
       0.008053343 0.0 -0.008703726 0.0024744952
000070 78 1a a9 bb 3f d4 58 3b ea e7 32 ba 05 0d 14 3b
       -0.005160626 0.0033085493 -0.0006824719 0.0022590768

exp_avg_sq f4 [32]
000000 3c e0 86 3a cf cc db 3a 76 2a 9d 38 bd fd 4d 39
       0.0010290216 0.0016769412 7.494252e-05 0.00019644848
000010 6a ed a1 3a 0e 91 1b 3b f4 01 00 00 f4 01 00 00
       0.001235408 0.0023737582 7e-43 7e-43
000020 28 ed 3a 3b 00 00 00 00 4a 69 3e 38 72 54 4a 39
       0.0028522704 0.0 4.5397588e-05 0.0001929568
000030 00 00 00 00 f4 01 00 00 f8 71 28 3a 00 00 00 00
       0.0 7e-43 0.0006425674 0.0
000040 7a 03 2d 3a fc 2c 06 3b 00 00 00 00 a7 9f 22 3a
       0.00065999443 0.002047359 0.0 0.00062035996
000050 a2 9b fc 36 10 cb 0c 3b 79 d7 85 3b f1 ab cd 39
       7.5283033e-06 0.002148334 0.0040845242 0.00039228753
000060 e4 b2 88 3b 00 00 00 00 f5 86 57 3a e3 f7 91 3b
       0.004171716 0.0 0.0008221709 0.004454599
000070 c7 a7 6e 3c e2 f1 96 3a cb e1 68 3a 44 ee 13 3b
       0.014566368 0.0011516178 0.00088837434 0.0022572437

exp_avg f4 [32, 2]
000000 23 8b a0 b7 94 32 55 b7 c0 3f 1f 39 89 4e 40 b9
       -1.9138277e-05 -1.27075655e-05 0.0001518717 -0.00018339804
000010 19 7c 51 39 94 2f 66 b8 0d 85 18 ba 3c 35 9f 38
       0.00019978023 -5.4880584e-05 -0.0005818166 7.5916265e-05
000020 00 00 00 00 00 00 00 00 df 97 9d b9 92 49 bf b8
       0.0 0.0 -0.00030058526 -9.121293e-05
000030 15 bf 8f b9 60 9b 38 39 00 00 00 00 00 00 00 00
       -0.00027417453 0.00017605489 0.0 0.0
000040 ad aa a1 39 16 e4 9a b8 00 00 00 00 00 00 00 00
       0.00030835476 -7.3857766e-05 0.0 0.0
000050 e9 63 8d b9 a1 7a ac b8 3f ec b2 36 7d 4c 3c b9
       -0.00026968055 -8.2244405e-05 5.332316e-06 -0.00017957571
000060 ea 0f 69 38 8c 4c 24 b9 18 ce af 39 56 f5 35 b9
       5.556635e-05 -0.00015668775 0.00033532153 -0.000173529
000070 37 95 01 39 b6 2a 02 39 00 00 00 00 00 00 00 00
       0.00012357986 0.00012413677 0.0 0.0
000080 00 00 00 00 00 00 00 00 08 e0 d1 b8 17 30 6f 38
       0.0 0.0 -0.00010007626 5.7026828e-05
000090 00 00 00 00 00 00 00 00 00 00 00 00 00 00 00 00
       0.0 0.0 0.0 0.0
0000a0 00 00 00 00 00 00 00 00 00 00 00 00 00 00 00 00
       0.0 0.0 0.0 0.0
0000b0 04 00 00 00 04 00 00 00 cb 70 56 38 15 6d 0e 39
       6e-45 6e-45 5.1126623e-05 0.00013582812
0000c0 00 00 00 00 00 00 00 00 80 f1 8c 38 40 36 4e b8
       0.0 0.0 6.720703e-05 -4.916475e-05
0000d0 f7 d8 8c b9 ab 47 ff b7 00 00 00 00 00 00 00 00
       -0.00026864532 -3.0431742e-05 0.0 0.0
0000e0 00 00 00 00 00 00 00 00 00 00 00 00 00 00 00 00
       0.0 0.0 0.0 0.0
0000f0 04 00 00 00 04 00 00 00 73 9b 61 b9 c8 68 53 38
       6e-45 6e-45 -0.00021515581 5.0403905e-05

exp_avg_sq f4 [32, 2]
000000 ab 97 34 33 c2 63 d4 32 99 4f 41 35 0e 7b 1a 35
       4.2047457e-08 2.4725413e-08 7.201393e-07 5.754854e-07
000010 1f e1 95 34 da 8c 58 34 75 d7 de 35 08 4e 99 35
       2.791721e-07 2.0167809e-07 1.6602995e-06 1.1422098e-06
000020 00 00 00 00 00 00 00 00 bf 5c 42 35 8a d7 d3 34
       0.0 0.0 7.2405595e-07 3.9458638e-07
000030 6d 98 7d 35 77 5c 54 35 00 00 00 00 00 00 00 00
       9.4471653e-07 7.911071e-07 0.0 0.0
000040 e7 4d 5a 35 39 c7 0b 35 00 00 00 00 00 00 00 00
       8.132469e-07 5.207144e-07 0.0 0.0
000050 f4 04 3f 35 30 33 ca 34 6c 86 4d 35 ac 65 0f 35
       7.116025e-07 3.7662676e-07 7.656406e-07 5.3419603e-07
000060 b5 3a 17 35 10 a3 e1 34 2d b2 65 35 da f7 43 35
       5.6337313e-07 4.202816e-07 8.556843e-07 7.300383e-07
000070 55 e9 6e 35 6c d8 0c 35 00 00 00 00 00 00 00 00
       8.900145e-07 5.2469e-07 0.0 0.0
000080 00 00 00 00 00 00 00 00 82 73 04 34 a6 59 df 33
       0.0 0.0 1.233548e-07 1.0400554e-07
000090 00 00 00 00 00 00 00 00 00 00 00 00 00 00 00 00
       0.0 0.0 0.0 0.0
0000a0 00 00 00 00 00 00 00 00 00 00 00 00 00 00 00 00
       0.0 0.0 0.0 0.0
0000b0 f4 01 00 00 f4 01 00 00 ad 4c 5d 35 4f b9 10 35
       7e-43 7e-43 8.2440494e-07 5.391384e-07
0000c0 00 00 00 00 00 00 00 00 94 c6 a0 33 a3 23 7d 33
       0.0 0.0 7.486702e-08 5.8938564e-08
0000d0 1b 7a c9 34 73 4e 68 34 00 00 00 00 00 00 00 00
       3.752801e-07 2.1635223e-07 0.0 0.0
0000e0 00 00 00 00 00 00 00 00 00 00 00 00 00 00 00 00
       0.0 0.0 0.0 0.0
0000f0 f4 01 00 00 f4 01 00 00 d2 11 98 34 c0 b4 68 34
       7e-43 7e-43 2.8325172e-07 2.167244e-07

exp_avg f4 [32]
000000 be 54 7b 39 0f 8d e9 39 5b 61 27 3a ab ce 52 ba
       0.00023968794 0.0004454632 0.00063850515 -0.000804166
000010 00 00 00 00 85 77 a1 b9 e1 85 4d b9 00 00 00 00
       0.0 -0.00030797362 -0.00019600197 0.0
000020 7c d7 54 3a 00 00 00 00 ce 2b 92 b9 38 3e 37 39
       0.0008119268 0.0 -0.00027879927 0.00017475418
000030 f5 e4 9c 39 1b 70 4b 3a 01 d8 16 3a 00 00 00 00
       0.00029925225 0.00077605405 0.0005754233 0.0
000040 00 00 00 00 1d ce ec 38 00 00 00 00 00 00 00 00
       0.0 0.000112917485 0.0 0.0
000050 00 00 00 00 00 00 00 00 04 00 00 00 2c 00 df 39
       0.0 0.0 6e-45 0.00042534003
000060 00 00 00 00 2a e8 a7 39 33 69 84 b9 00 00 00 00
       0.0 0.00032025698 -0.00025255381 0.0
000070 00 00 00 00 00 00 00 00 04 00 00 00 3e 83 d1 b8
       0.0 0.0 6e-45 -9.9903424e-05
