src/training/latest.pt (torch, 377325 bytes, 51 tensors)

policy_log_std f4 [30]
00000000: c579 fa3d 7e1f a53d c731 5d3b 10ea d03d
00000010: 8f3d ef3d 9859 e83d fd13 4a3d 728a 9f3c
00000020: f514 e03d 2864 613d 640f 9f3d 2205 a83b
00000030: 361e ba3c fb4c 873c 06e2 2e3e 2108 213d
00000040: e3b2 0f3e 56c4 bc3c 0835 013e 411d 643d
00000050: 8cea 923d e5a9 bb3d 05e5 2c3d 70a4 973d
00000060: 9016 d73d 32fb 513d 50dc 533d a121 073e
00000070: e3da df3d eaba f73d
0.12230257 0.08062647 0.0033751593 0.10200894 0.11681663 0.11345214 0.04933547 0.019475196
0.10941497 0.055027157 0.077666074 0.005127565 0.022719484 0.0165162 0.17078409 0.039314393
0.14033084 0.023042839 0.12617886 0.05569196 0.071736425 0.09163264 0.042210598 0.07404411
0.1050235 0.05126495 0.05172378 0.13196422 0.10930421 0.12096198

host_encoder.0.weight f4 [64, 4]
00000000: b2d3 263e 4710 f73d f252 9bbd a406 79be
00000010: 09d1 b23e 7c3c 6f3d 7e24 b63d 3079 903e
00000020: 66bd a23d 82fc d93d 293d f7bd 8b63 b03e
00000030: 325c ddbd 918c 07be 23d5 0a3e 2e92 d33c
00000040: 90c8 d0bb ce19 f33c e08e a93e 2641 453e
00000050: 060b 5b3e 307e f8bc 25f0 273e 5308 32be
00000060: 8df1 75be 2bad a53b 7e84 0e3e da60 02be
00000070: 51e0 bf3d 80b8 67be ff79 c33d 1bb1 723d
00000080: bd69 7bbd dd0f 04be ebc9 96bd 18f7 8abd
00000090: 2253 0e3f 074b c4bd fcce c63d d0c4 693e
000000a0: b5c5 fabd 4114 c9be 0176 8b3e 845e 873e
000000b0: b178 86bb 3014 973d ca85 803d 460e b8be
000000c0: 7b31 e5bd 5274 e1bd a8a1 9a3d fb63 993d
000000d0: ac8a 52be acab 563e bf72 e3bd 2534 823e
000000e0: 870c 9b3e 525c 203d 283d ac3d 8b0d 113e
000000f0: d5f3 643d ab02 e1bd 1bf0 f93d 11fd a93e
00000100: 473e 5fbe db48 a63e dc4d 0d3c fe23 0fbc
00000110: d667 70be d8c7 b03d dc1d 44bd 1d07 f63d
00000120: 2954 813e 23aa 22bd 66e9 2cbe 2b7a ad3d
00000130: 4329 733e 5713 71be 1946 abbe bc3e fa3c
00000140: e780 003d 505a 54be 9798 00be adf9 1ebe
00000150: 1bf5 483d 8ab1 f7be fa10 a8bd 0867 d53c
00000160: ee47 95be d25e eb3d 97f1 b9be c55b fe3d
00000170: bd31 3fbe 5cb9 633d 08ca 2c3d c2d5 73bc
00000180: 6cd7 e2bd d2f2 d93d d0d6 c43d 484a 9ebe
00000190: 8053 d9bd 1dd5 483d b407 09bf 117a 67be
000001a0: a744 36bd 681b 313d 7267 52be 2a56 ab3d
000001b0: 5e34 1cbe 80aa d3bc 3453 753e e51e 393e
000001c0: 230e 9ebe 4689 07be 54c6 86be 4216 a2bc
000001d0: c2ea 553e b42e d13d 37f6 213e c8b3 fe3e
000001e0: 7d5d bf3e f0ba 943e 5318 eb3e 44db 123d
000001f0: 291e 3c3e 1031 7c3d eb0b c53d 94ba 663d
00000200: 381d 933d bcaa 90bb 2b84 c13e fa49 e7be
00000210: a711 9dbe 3b63 18bc 81ae c63e c10f 20be
00000220: c0d5 fa3d 23d3 62bd 3bed 83be 7fc0 89be
00000230: 25f8 33be a6b3 213e d35d 133e 660f a0be
00000240: 721e 39be 6d8c 56be f7f6 64bd cd18 90bd
00000250: bcb0 a93d 7cda a33e 61ad 45be 6076 19bf
00000260: 4ea3 d13e 322b 353e cd7f 53bd 8223 c4be
00000270: 01d3 09be a79e a93e 51ba 853e 03d2 a4be
00000280: 6840 0fbf fe2d 35be b30b 323e 94d7 883e
00000290: a210 a0bd 3db2 8a3e af87 a2be 1835 5fbd
000002a0: a84c 8b3d f26d 67bd 09f0 863d 801e bdbe
000002b0: d0ea 2e3e d9d7 823e 2adc 3a3e c7d1 963e
000002c0: 4eea f03c ac73 a7bd 5c72 08bd ac8e dfbd
000002d0: e0a4 a53d 932b 36bd abd6 34be 1120 af3e
000002e0: c18f 5d3d 1497 2abe 8db0 11be 21ca afbd
000002f0: d231 85be 92cb 4dbe e57e e3bd 70d5 a73e
00000300: 5d95 353c 624d 063e 6136 303e f064 b3be
00000310: 3705 a63c b18c 243d 5201 a2bd 6639 763e
00000320: b743 87be 96a8 eabd 9fb2 40ba 2a6d a93e
00000330: 03f3 103e 2590 9dbc a3d8 123e f150 2e3e
00000340: 7da2 b5be 35a4 66be d228 5e3d d189 453e
00000350: 4f17 05bf 523c 2bbe c33f 01bf 7729 cdbe
00000360: 6b63 0c3e 172d c13e f56e a73d 0015 9c3e
00000370: ca24 f4bc d042 bebe 525a babe fa07 0bbd
00000380: 0005 fe3e f2a1 4a3d ca3b f9bd 1e18 023c
00000390: b07c 9dbd 4382 fc3d 6c87 aa3d 127d bcbe
000003a0: 6bbe 983e 727f a0bd f163 f2be 424c 11be
000003b0: 6740 cbbd 4b18 c8bd 6c19 713d 873c 1e3d
000003c0: 9883 acbd 3b17 72be 844d b93e 9eff fbbd
000003d0: 911c b43d 16f1 20bf 5b1f 35be 5ed4 ecbd
000003e0: f094 fabc 5625 833e a4a2 efbd 86c0 983e
000003f0: a611 a13e 8c58 ff3d b583 093e 0ce8 0e3e
0.16291693 0.120636515 -0.0758418 -0.2431894 0.34925106 0.05840729 0.08893679 0.2821746
0.07946281 0.10643865 -0.12072212 0.34450945 -0.108086005 -0.13237216 0.13557868 0.02582654
-0.006371565 0.02967539 0.33116817 0.19263133 0.21390924 -0.030333608 0.16400202 -0.17385988
-0.24017926 0.0050560436 0.1391773 -0.12732258 0.09368957 -0.22628975 0.09544753 0.059250932
-0.061380137 -0.12896676 -0.073627315 -0.06785411 0.555956 -0.09584623 0.09707448 0.22828984
-0.12244741 -0.39273265 0.27238467 0.26439297 -0.004103743 0.07376897 0.06275518 -0.3594839
-0.11191078 -0.110085145 0.07550365 0.07489773 -0.20560712 0.20963925 -0.111058705 0.25430408
0.30282995 0.039150544 0.08410102 0.14165322 0.0558966 -0.10986837 0.122039996 0.33200887
-0.218011 0.3247746 0.00862452 -0.008736609 -0.2347711 0.08631867 -0.04788004 0.120130755
0.25259522 -0.039713036 -0.1688591 0.08470567 0.23746209 -0.23542534 -0.33451918 0.030547492
0.03137293 -0.20737576 -0.12558208 -0.15524931 0.049061876 -0.4837764 -0.08206363 0.026050106
-0.2915644 0.11492695 -0.3631713 0.124198474 -0.18671317 0.055596694 0.04218486 -0.014882507
-0.11076245 0.106420174 0.09611285 -0.30916047 -0.106116295 0.049031366 -0.5352738 -0.22605158
-0.044499066 0.043239027 -0.20547274 0.08366044 -0.15254351 -0.025838137 0.2395752 0.18078192
-0.3087016 -0.1323596 -0.26323187 -0.019786004 0.20890334 0.10213986 0.1581658 0.49746537
0.37376013 0.29048872 0.45916995 0.03585364 0.1837088 0.061570227 0.09621414 0.05633028
0.071833074 -0.0044148844 0.3779615 -0.45173627 -0.3067753 -0.009301002 0.3880501 -0.1563101
0.12247801 -0.055377137 -0.2576693 -0.26904675 -0.17575128 0.15791187 0.1439126 -0.31261748
-0.1807802 -0.20952006 -0.055899587 -0.070359804 0.082856625 0.32002628 -0.1930442 -0.5994625
0.40944904 0.17692259 -0.051635552 -0.3830834 -0.13459398 0.33128855 0.2611871 -0.32191476
-0.5595765 -0.17693326 0.17387275 0.26726973 -0.078156725 0.2708911 -0.31744143 -0.054493994
0.068017304 -0.056501336 0.06588752 -0.36937332 0.17081761 0.25555304 0.18248048 0.29456922
0.0294086 -0.081763595 -0.033312187 -0.109158844 0.08088088 -0.04447515 -0.17660014 0.34204152
0.054092173 -0.16659194 -0.14227505 -0.08583475 -0.26014572 -0.20097187 -0.111081876 0.32780027
0.011082974 0.13115457 0.17208244 -0.35037947 0.020266159 0.040173236 -0.07910408 0.24045333
-0.2641885 -0.114579365 -0.00073508354 0.33091098 0.14155202 -0.019233773 0.14340453 0.17023064
-0.3547553 -0.22523578 0.054238148 0.19290854 -0.5198869 -0.16722229 -0.5048792 -0.40070698
0.137098 0.37729713 0.0817546 0.30484772 -0.029802699 -0.3716035 -0.36397034 -0.033943154
0.4961319 0.04947085 -0.12169607 0.00794032 -0.07689798 0.12329533 0.08326611 -0.3681417
0.29832777 -0.07836808 -0.47341874 -0.14189246 -0.09924393 -0.097702585 0.058862135 0.038631942
-0.08423537 -0.23641674 0.36191952 -0.123046145 0.08794511 -0.6286787 -0.17687742 -0.11563943
-0.030588597 0.25614423 -0.11700943 0.29834384 0.31458777 0.12468061 0.13429148 0.13955706

host_encoder.0.bias f4 [64]
00000000: 304e 05be 1370 93bc 17f2 6f3d ec68 493e
00000010: 36c1 763d d318 13be cc5c 613e 7987 d9bd
00000020: 223a 743e 286c 5e3c 622b 9e3d 4992 51bc
00000030: 573c 3e3e 1f30 f63d b581 8dbd 5790 eb3c
00000040: 93c1 fd3d 4c19 8e3e 05bc 863d 1f16 43be
00000050: 9842 8abd cbae 673e cd20 2a3e 018b 4a3e
00000060: 3d56 0a3e ee79 0bbe eb6b 40bd b6d6 bc3d
00000070: d813 84bd 70f3 03bc b34b b0bd 8484 15be
00000080: 8720 1a3e 7589 4f3e b28a ddbd 60c5 c03d
00000090: 694f 4d3e a988 26bc f09d 863c e5d3 b93c
000000a0: 2ecc 8c3e 0213 34be 13cb 4e3d 917e 00bd
000000b0: 3baa 43be 677c 59bc f9f7 2abe f196 843e
000000c0: 665c 153e 088c 7cbb bf84 673e 0068 413d
000000d0: 0718 783e 0dc5 96be 62fe 933c 10ab 50be
000000e0: 1639 a6bd 92f7 42bd e1b1 03be 14a7 5a3e
000000f0: 34ca 573e a932 1dbe 61ba ce3c da79 62bc
-0.13018107 -0.017997777 0.058580484 0.19668931 0.060242854 -0.14364938 0.22008055 -0.106215425
0.23850301 0.013575591 0.07723118 -0.012791225 0.18577705 0.12020897 -0.06909505 0.02875535
0.12390437 0.27753675 0.06578831 -0.19051407 -0.06750983 0.22625272 0.16614075 0.19779588
0.1350946 -0.13620731 -0.04697792 0.0922064 -0.064490974 -0.0080536455 -0.086081885 -0.14601332
0.1505147 0.2026728 -0.1081747 0.09412646 0.20049824 -0.010164418 0.016432732 0.022684047
0.27499527 -0.17585376 0.050486635 -0.031370703 -0.19107907 -0.013274289 -0.16696157 0.2589641
0.14586028 -0.0038535614 0.22609232 0.047218323 0.24227916 -0.29447213 0.018065635 -0.20377755
-0.08116357 -0.047599383 -0.12860824 0.21352798 0.21073228 -0.15351357 0.025235357 -0.013822997

host_encoder.2.weight f4 [64, 64]
00000000: 559d 713e 7aa1 663c 2f1e 6dbe ad02 58bc
00000010: eae5 9cbd 26da 8ebd 868c e33e 359f 083b
00000020: b671 b03e 8370 43be e7ae 253e ab75 963d
00000030: 1f05 573e 21ff bb3d 3b9a e33d e52d 88be
00000040: b5ee 333e 1881 6e3e 6c98 88be 51bb 97bc
00000050: 6df1 293c 875b 363c be3f 71be 1c0c 6b3e
00000060: 2f1c 5c3e 416e 11be dfd5 a1be 8d44 673e
00000070: 1353 0c3f 0abf c4bd d30a cfbe 6d2a 4dbd
00000080: a6f5 223e 97bf 293e c1a2 713e 17de c53e
00000090: 32a5 473d 4d6c 373e 008c ed3e 5be2 413e
000000a0: 512c 5d3d c4a8 f63d 959b 4a3e 327f 6cbe
000000b0: d5cc 34be 14ba bcbe 45e1 83bd 7183 9e39
000000c0: 9e47 173d e5f9 cabc 6490 ac3e 71b7 ddbd
000000d0: 13f0 9b3e bcaa 07be ccd9 0f3e 15ec 73be
000000e0: 9d1b 73be d5ba 24be 30fe 48bc 996c 803e
000000f0: dbb1 8e3e 2396 2abe b172 c3bd 0736 8dbe
00000100: 5091 d93d c655 b33d a984 873d d94d 8f3e
00000110: 145e a5be f94b a0be c1b2 15be 1d81 43be
00000120: d3ee c33d 3856 363e b06f 833e 7b4c efbe
00000130: d726 2a3e 80ea 0d3e 4bb9 c0be f256 2e3e
00000140: 2003 e83d 843f 6abd 340e 8cbd 28bc f2bd
00000150: ec76 e63c ffc3 ee3c eae9 c53d f653 17be
00000160: 45e7 9abe 844c 5dbd beb4 0fbe a41f 0abd
00000170: 3dfc 5bbd 9996 9a3d a874 11be 67ee 1c3e
00000180: 3690 04bf da51 b4bd 5dad e8be cd54 4e3e
00000190: 25cb 0c3e 6873 01be a1b2 c3be 94c5 32be
000001a0: de35 a13d 83d4 f83c b04e bfbe bfdf 61bd
000001b0: b02a a3bc 0a9a 293d 5579 85bc 4bda 3f3d
000001c0: 64b2 3fbe 06a5 c53e 450f 623e 1af5 56bd
000001d0: 20ed 01be 073f 00bf 6aa4 d83d 32fb 873e
000001e0: 4f51 ffbd 533c 50be 29ed 8bbe b296 173e
000001f0: c2f2 143e 028f 5fbe 1119 963e 5c1c aebc
00000200: 1343 c23d 683c 1abe a347 d13d 1e92 c03d
00000210: 041b 283e 0206 53be b1ab f93b 4d45 7cbe
00000220: ad9d 1d3e 59f9 ccbc cb4a 84b8 cdf4 c7be
00000230: 5888 e2be 0bfd c93d cd29 86bc b597 06bb
00000240: 8e07 663e f46a f23d 5f9e e3bb d569 b3be
00000250: 88d9 8abe 0024 94bd 2b50 f3bd 14f2 d23d
00000260: e992 c0be 30f0 cf3d 6825 fabd d492 533e
00000270: 2d8e 813d e362 9fbb d73a 60be b479 63be
00000280: c98b a13d 127f 713e a80b bf3d 8284 b8be
00000290: 798e fe3d 3621 09be a8e4 883d 6d4a 2dbe
000002a0: 9720 223e 19e3 54be 4dbb 803d e51a 513e
000002b0: 8d1e 38be c4e4 8a3e 9937 8bbe 765b e83c
000002c0: 28d4 68be e354 9a3e 6ae1 9b3e d064 9a3d
000002d0: 09dc 153e c9c2 85be bc6c 793e 9061 8ebc
000002e0: 99f9 d1bc eece 38bd 6c70 d5bc 6e80 62bd
000002f0: a312 e43e d991 373e 3fac 293e 1418 dd3e
00000300: 8d55 e13d f0b0 f83c f247 423d fe34 38bd
00000310: c92b c7bd c128 f03e f4d2 a9bb 1289 adbe
00000320: 9180 34bd 2328 593d 6b30 4bbd f9a0 623e
00000330: 330f b53e 5fec 37be 088e 21bd d841 60bd
00000340: 889c ad3e f380 b3be 4bca 1abe 51e2 05bd
00000350: d309 97bd b019 b6be 7032 8fbe f631 933e
00000360: 79c1 443e e8ab bd3e 008b 4ebd 4f5f adbe
00000370: a5f5 133e f855 9c3d d1f9 923d 0537 ce3c
00000380: 5046 b23e 0750 0dbe 25db 9f3d 5f24 6a3e
00000390: 98e8 c73d 89fe 893c f067 07be d2dc 2f3e
000003a0: 6bda bbbe 0f1f aabd 5364 343e a88b bf3d
000003b0: 08d0 0a3e 73af 773e da6e 363c 7055 993c
000003c0: c626 273e 1ad0 79be 643d 3abe 1b3d a23d
000003d0: 9d7e a4be 3ab7 fb3d 843e 3dbe 69f0 cbbd
000003e0: bf96 f5bd d80f 8c3d ff3b f5ba ec92 19be
000003f0: 871f 743e beb2 743e 2446 063e e7dd b6bc
0.23595174 0.014076585 -0.23156045 -0.013184232 -0.0766104 -0.06975202 0.44443148 0.0020846848
0.34461755 -0.19085889 0.16180001 0.07346662 0.20998047 0.09179521 0.111134015 -0.26597515
0.17571528 0.23291433 -0.2667879 -0.018521937 0.010372502 0.01113022 -0.23559472 0.22953838
0.21495126 -0.14202215 -0.31608483 0.22584744 0.5481426 -0.0960675 -0.40437946 -0.05008929
0.1591402 0.16576992 0.23597242 0.38646004 0.048741527 0.17912407 0.46395874 0.18934004
0.05399734 0.12043908 0.19785912 -0.23095396 -0.17656262 -0.36860716 -0.06439451 0.0003023404
0.036933534 -0.024777362 0.3370391 -0.10826004 0.304566 -0.13248724 0.14047927 -0.23820527
-0.23741002 -0.16086896 -0.012267634 0.25082853 0.27870068 -0.16658835 -0.0954336 -0.27580282
0.10623419 0.08756594 0.066171 0.2798908 -0.32298338 -0.31307963 -0.1461897 -0.19092222
0.095670365 0.17806327 0.25671148 -0.46738037 0.16616379 0.13858986 -0.37641367 0.17025355
0.11328721 -0.05718948 -0.068386465 -0.11852294 0.028132878 0.029146193 0.09663756 -0.14778122
-0.3025457 -0.05402805 -0.14033791 -0.03372158 -0.05370735 0.075482555 -0.14204657 0.15325318
-0.5178255 -0.088046744 -0.45444766 0.20149536 0.13749368 -0.1264168 -0.3822222 -0.17458183
0.078716025 0.030374771 -0.3736472 -0.05514502 -0.019917816 0.04140667 -0.016293207 0.04683904
-0.18720394 0.38602465 0.22076137 -0.05247984 -0.12688112 -0.5009617 0.105782345 0.26558834
-0.1246668 -0.20335512 -0.27329376 0.1480358 0.1454573 -0.21831897 0.29316 -0.021253757
0.0948545 -0.15062106 0.10218742 0.0940287 0.16416556 -0.2060776 0.007619344 -0.24635811
0.1539218 -0.025021242 -6.308182e-05 -0.39053956 -0.44244647 0.09862717 -0.016377354 -0.0020537202
0.2246382 0.11836806 -0.0069463695 -0.3504168 -0.27119088 -0.07233429 -0.11880525 0.10300079
-0.37612084 0.10153234 -0.12214166 0.20661479 0.06325946 -0.004864083 -0.21897446 -0.22214395
0.0788799 0.2358363 0.09328395 -0.36038595 0.12429518 -0.13391575 0.06684238 -0.16922922
0.15832745 -0.20789756 0.06285725 0.20420416 -0.17980404 0.2712766 -0.27190855 0.028363924
-0.22737181 0.30142888 0.30445415 0.0753876 0.14634718 -0.26125172 0.24357885 -0.017380506
-0.025631713 -0.04511922 -0.026054583 -0.05529826 0.4454547 0.1792673 0.16569613 0.43182433
0.11002646 0.030357808 0.047431894 -0.044972412 -0.09725148 0.46906093 -0.0051826183 -0.3389364
-0.044067923 0.053016793 -0.04960672 0.22131719 0.3536316 -0.17961262 -0.039442092 -0.054750293
0.33908486 -0.35059318 -0.15116231 -0.032686535 -0.07374921 -0.35566473 -0.27968168 0.28749055
0.19214429 0.37045217 -0.05042553 -0.33861777 0.14449175 0.07633585 0.07176555 0.02517272
0.3481927 -0.1380006 0.078054704 0.22865437 0.097611606 0.016845005 -0.13223243 0.1717408
-0.36690077 -0.08306705 0.17616396 0.09352809 0.1355592 0.24188022 0.0111348275 0.018717498
0.16323385 -0.2439579 -0.18187481 0.07921811 -0.32127848 0.12290807 -0.18480879 -0.09957964
-0.11991643 0.068389595 -0.0018709897 -0.14997452 0.23840152 0.2389631 0.13112694 -0.022322608

host_encoder.2.bias f4 [64]
00000000: a0cb 943d c70f 793d 667b 943d 18b1 adbd
00000010: df5e 47bd 64bf 11be 70fe b63c cc55 0bbe
00000020: bf1a 1a3e 2bfc 013e dad9 033e 0799 0a3e
00000030: efa1 f7bd 49e9 10be a318 bdbd 4420 973d
00000040: 777e b8bc b4ef f33c dbdf 2e3e 0c8d 8d3b
00000050: b363 a7bd 7a96 85bd 7468 f3bd 0809 5ebc
00000060: 36e5 093d d842 5dbd 9d7e f73d a43b f2ba
00000070: 6962 d5bd 9cd1 9c3d bac2 e33d 3723 783d
00000080: fbd1 f33d 4a4a 52be 00c4 3bbd 0dae 103e
00000090: 5586 afbd 0c95 19bd d1b6 0e3e a427 b2bd
000000a0: 1307 ecbd 41b7 8fbc 7176 60bd 08c6 b53c
000000b0: 4c2b 48bd 9c71 553d 46ef 11bc 59a5 27be
000000c0: 37a6 0d3e 4b4d 6bbd f913 11be 36fb ea3d
000000d0: 9b71 9e3b 6024 babd 01b0 db3c fcd7 d1bd
000000e0: 36b2 09be 935f f7bd 6d74 dd3c c991 f4bd
000000f0: a70e f33d 6ded 57bd d8e8 0c3e d399 783d
0.07265401 0.060806062 0.07250099 -0.084810436 -0.04867446 -0.14233166 0.022338122 -0.13606948
0.15049265 0.1269385 0.12876073 0.13534938 -0.12091433 -0.14151491 -0.09233215 0.07379201
-0.02252124 0.029777385 0.17077582 0.0043197926 -0.08173313 -0.06522842 -0.11885157 -0.013551958
0.03366586 -0.054018825 0.120846964 -0.0018480909 -0.10419161 0.07657167 0.111211255 0.06058046
0.11905285 -0.20536152 -0.045841217 0.14128895 -0.08570544 -0.037495658 0.13936926 -0.08698967
-0.11524787 -0.017543437 -0.054800455 0.022189155 -0.048869416 0.0521103 -0.008907145 -0.16371669
0.13832937 -0.05744676 -0.14167775 0.11473696 0.00483532 -0.09088969 0.026817324 -0.10246274
-0.13446888 -0.12078776 0.027033055 -0.11941869 0.11868029 -0.05271666 0.13760698 0.060693573

job_encoder.0.weight f4 [64, 2]
00000000: 83d8 9ebe 66ea a2be 8654 a1be 9353 03bf
00000010: 4158 70be 8ce7 31bd 82f6 04bf 288e ccb8
00000020: ccd5 213e 5b3f 9a3e 8a2d 8dbe 5094 043e
00000030: 6bbc 9bbe 366d 0bbc ba00 423e 2fc6 c53c
00000040: 7a4f 0a3e 050f 323e 0d93 01be 3fa3 293d
00000050: 1d7b bebd 8035 c5be 9898 d3be 23eb afbe
00000060: 2cd9 2dbe acfc 18be 31c0 283e 6fa1 683e
00000070: 923d ed3d 9f77 9a3d 9f80 59be 4ed6 babe
00000080: 83a7 c63d dfea 773e f628 30be 2256 cebe
00000090: 13c0 8dbc 2cf9 043e ab4d 0bbf 0b11 d0be
000000a0: cd5d 65be 82ce 643d bab1 8d3e f986 49bd
000000b0: c9bb 8abf 0a4f b2be dc3a 373d 72e2 b3bd
000000c0: a67d 13bf 16a3 2c3e b336 e13e 3931 0cbe
000000d0: 3d76 2bbe e577 afbe 5a8e 05bf ca90 83be
000000e0: e67f e3be 6810 4ebe 1ba6 693e b17c 5f3d
000000f0: 141d 2abe 4311 8dbe 73e4 653e 10ff 2c3e
00000100: d25b 6a3c b498 6c3e daf2 503e aba2 38be
00000110: ee7f 053e 12fb 313e c03b f33d 72e3 6fbd
00000120: 41ec 613e 7552 3f3d a17d 1c3e 1d8f 3b3d
00000130: e6fa 48be 4f9a d8be b993 283e 71f5 4dbd
00000140: a7f7 a3be a1a4 0d3d 7d80 0cbd 5f45 c33e
00000150: fdbc 423d 53b4 103e 262e d13d e6cd b73e
00000160: c1ac 04bf dede 88be 8377 993e 460d 84bd
00000170: d1b5 9f3d deb4 933e 56b8 81bf 6680 4bbf
00000180: dd41 8bbc f467 7d3e 09b4 44bd 5ad3 b73e
00000190: 7c5e eebd bf6b 34be ce56 ae3d 6fe6 543c
000001a0: f6cd b33b 1b39 083e d88a 8cbd e8a5 d13e
000001b0: e738 62be 9985 0bbf 5235 a5bf 80c8 3fbf
000001c0: e919 e63d e309 6b3d 0650 a03e 2017 423d
000001d0: 5395 36bf 815e 24be 41ab 4c3e 2b32 443e
000001e0: 6e4e da3e da49 b6bd fc24 40be 9fd2 f8be
000001f0: 9d23 b2be 085b 57bd f9c8 f3bd edbf 67be
-0.3102456 -0.31819457 -0.315098 -0.512994 -0.23471166 -0.04343371 -0.5193864 -9.753957e-05
0.15804213 0.3012646 -0.27573806 0.12947202 -0.3041719 -0.008509925 0.1894559 0.024142353
0.1350688 0.17388542 -0.12653752 0.04141545 -0.09300826 -0.3851738 -0.41327357 -0.34359083
-0.16977376 -0.14940137 0.16479565 0.22717832 0.11584009 0.07542347 -0.21240471 -0.36491627
0.09699919 0.2421069 -0.17203125 -0.4030009 -0.017303502 0.12985677 -0.54415387 -0.40638003
-0.22399063 0.055861004 0.27674657 -0.049200986 -1.0838557 -0.34825927 0.044733867 -0.087834254
-0.576136 0.16859087 0.43987045 -0.13690652 -0.16744323 -0.3427116 -0.52170336 -0.25696403
-0.44433516 -0.20123446 0.2281727 0.054562274 -0.16612655 -0.27552232 0.22450428 0.16894174
0.014304118 0.23105127 0.2040514 -0.18030803 0.13037083 0.17380932 0.11876631 -0.058566518
0.2206278 0.046709497 0.15282299 0.04579078 -0.1962696 -0.42305228 0.16462602 -0.0502829
-0.3202488 0.03458083 -0.034302223 0.38138863 0.047543515 0.14131288 0.1021388 0.35899276
-0.518261 -0.26732534 0.29973993 -0.06447844 0.077983506 0.28848928 -1.013438 -0.79492795
-0.01699918 0.24746686 -0.048023257 0.35903436 -0.11639115 -0.17619227 0.085126504 0.012994393
0.005487199 0.13303034 -0.0686242 0.4094689 -0.22092019 -0.5450073 -1.2906897 -0.74915314
0.11235411 0.057382476 0.31311053 0.047385335 -0.713216 -0.16051675 0.19987203 0.19159763
0.42637962 -0.08900805 -0.18764108 -0.4859819 -0.34792796 -0.05257705 -0.11903567 -0.22631808

job_encoder.0.bias f4 [64]
00000000: 0040 fc3c 2385 bb3c ba10 743d 7d95 353d
00000010: 8e22 27bc ab3d a83d 0381 293d 52ff 32bd
00000020: 0178 cfbc 6d09 cc3d 25ee 5a3d 0dbb 263d
00000030: 4c84 993d 8e21 26bd 4710 2dbd da09 1d3d
00000040: 84e9 4ebd e8a0 2f3d 3297 90bc 8fea f33c
00000050: 5046 af3d f75d bfbc e04d c23c 676b d9bb
00000060: b44f f73c 8e63 2abd a6d0 263d e1c1 163d
00000070: 7737 163d 870b 5cbc d394 1a3d ec32 07bd
00000080: 7689 3ebd 0f88 2dbd 3d7f 16bd 8881 0ebd
00000090: eccf c0bd 1837 94bc e29b 8d3c 6f85 88bc
000000a0: ba0f 3f3d 7ed5 debc 55db d6bc 04cc aebc
000000b0: d702 fa3c d555 59bd 4e44 22bd c1e9 6b3c
000000c0: 5c58 88bd 0193 e0bb adc1 a43d 3c17 99bd
000000d0: d4f0 06bd 018f 6abc 99c9 b63c 4ed3 913c
000000e0: cea8 70bd 3c9a 74bc 58c9 bf3c 011f b4bc
000000f0: 8108 0bbd 548e c13c af12 233d e3cf 1e3d
0.030792236 0.022890633 0.059586264 0.044332016 -0.01020111 0.08214887 0.0413828 -0.043700524
-0.025325777 0.09962735 0.05344977 0.04070573 0.07495937 -0.040559344 -0.04225185 0.038339473
-0.050515667 0.04287806 -0.01765022 0.029774932 0.08558333 -0.023360236 0.023718774 -0.006635118
0.030189373 -0.04159885 0.040726326 0.03680599 0.03667399 -0.013430483 0.037739586 -0.033007547
-0.04651781 -0.042366084 -0.036742438 -0.0347915 -0.09414658 -0.018092677 0.017286245 -0.016665189
0.046645857 -0.02720141 -0.026227633 -0.021337517 0.030518932 -0.05306037 -0.03961592 0.014398993
-0.06657478 -0.0068534617 0.08044753 -0.07475135 -0.032944515 -0.014316321 0.022312926 0.017800953
-0.058754735 -0.01492935 0.023411438 -0.02198744 -0.033943657 0.023627438 0.03981274 0.038772475

job_encoder.2.weight f4 [64, 64]
00000000: 7962 163c fa02 64bc 832e a93d 298f eabc
00000010: e98e be3d 4cae f1bd 1f22 58bd 21f0 29bc
00000020: 2444 9c3d f1d5 1ebe 6154 623e f9af e0bd
00000030: 7288 a1bd 4ec1 883c 397e 45be 2154 b5bc
00000040: 020b c63d cde0 7d3c 470c a23d 8d0f 7dbe
00000050: 6c13 dbbd c043 d43d 1d55 0cbf 4abd afbe
00000060: 5b2d c5bd 1566 a3be eef7 4a3e a05c 053e
00000070: 2825 32be 44f8 68bb 0e44 3339 6275 aa3e
00000080: 9bce 383d 8980 a3bc e7bc c6bd f457 0f3e
00000090: 25cc 093f a318 a13d 5b38 58bb 1271 9ebd
000000a0: fcdd dcbd eca9 a63e a35a 04be 9b3d c2bc
000000b0: 0df7 ae3d 4c8f dc3d f58b 80be 2bbc 7dbd
000000c0: ef2c 4a3e 36f7 b0bd ec59 99bd 3def 06be
000000d0: 0604 b8be fef3 0c3e cac9 d8bd 7e3f 0dbf
000000e0: ebcf 42be 190b 9fbe cdab 98be bc5b 173e
000000f0: b09d 3fbe 6164 84be c1f1 56be e468 efbd
00000100: 0c62 7dbe 8d30 963e e94b f93d 9895 ad3e
00000110: 39fd 92be f5dc 6d3d d816 6f3e 5a2c 48bc
00000120: f949 c53d d8ac 24be 5931 253e 509d b33e
00000130: 3e66 333e 6d5a 5bbd 226c b4bd 6f5c 3c3d
00000140: d316 1ebb 861b 1b3f b939 50be 2942 b33d
00000150: 1dfc 5a3d f2ab 67be 12f6 ea3c ed52 c33c
00000160: dd8e 04be e94e 703e 8e98 20be cb98 2a3e
00000170: fb7f b03d 5baa aabd e329 9dbd 0038 903d
00000180: 63cc a53d 4177 60bd ed63 a9be c76c 38bd
00000190: fee3 e8bd 2310 6c3d 0ff0 e33e ec99 1ebe
000001a0: d970 523c f9d9 b73d 0dad 9e3e 2337 49be
000001b0: b8d6 cbbd 0aa4 26be abae 933e 2440 873e
000001c0: 84ec 5fbe 9a3e a63d 1e1f 42bc 0b63 41be
000001d0: 50e3 40be bb50 99bd 4011 913d d714 713e
000001e0: 359d 023d 559b 353c e95e dd3c dce3 d83e
000001f0: c250 34bd ba3d ca3d 6c90 cdbd 3287 0f3e
00000200: 7cf8 c43e eb0c 103e cc59 d2be 4b21 2c3e
00000210: ddfa bc3e d687 91be d6ac b6bd 1d51 633e
00000220: da73 903d d00e 573e ea94 adbd 1494 473e
00000230: 49b7 ba3b a74a 42bd 44e2 ea3d d901 edb9
00000240: 3dda 4b3d a170 653e aa36 893e 5530 a83e
00000250: e903 fcbd 389f 1d3e 3dd3 abbd 44ad a5be
00000260: 82df b33c 505e c23e 68b6 b2bc f366 823e
00000270: c131 823e d3b9 c3bd e1a8 9ebe 3d14 8fbc
00000280: 3539 ab3d 413f 5bbe 87eb ac3e da4a 26be
00000290: cccb 133d 7c22 75bd dda1 163d 41a3 fd3d
000002a0: 66d1 223d 2949 303e 56de fbbd 5fcd b1bc
000002b0: e83c 8c3d 4f50 213e e0f4 283e a534 a13e
000002c0: a4cd 48bd a35d 773e 0912 5dbe 33eb 883d
000002d0: 3836 e13d ea19 08be c591 0dbc d44f 8cbb
000002e0: bfc3 853e 03a0 033e c118 a03e e52a bb3d
000002f0: 910b 823e 5480 193e ed66 81be 0869 663e
00000300: 3425 0d3d 6f29 c83b cb0f 90bd 5842 8cbe
00000310: 413b cb3e 2595 8dbe ff6e 013f 3fd8 493e
00000320: 63ab c13c a760 4cb9 eaba 64be 6762 8f3d
00000330: ba98 a73d 77f5 3ebe ba20 0e3e ced7 d83e
00000340: 2294 bb3a 7c1a 6a3d c49c 63bd b530 85be
00000350: 8c1b 10be d55c c5bd de52 673e d806 5f3e
00000360: 66c3 163e 6a80 8dbd d1ae 803c 3e29 b93d
00000370: a0f4 1fbe 52e1 573e 6971 6e3e c6d8 db3d
00000380: 9380 03be 9d7a 27bd db05 073e b3b0 dc3d
00000390: 832d 2c3e 45ed 2fbd 0fab 453e a6fa 263d
000003a0: 5496 0db8 ce71 16be cd1a 923d ef75 55bd
000003b0: a562 cbbd d109 9f3d f0a3 313e 40a7 a33e
000003c0: 3fe2 003e 28ef 6f3e e96c 56be 4957 2b3e
000003d0: 8632 853e 9d55 c6bd b01e 1b3e bb6a 1d3e
000003e0: 8b0f 583e 8e58 933d 5de9 88bd bdd8 4d3d
000003f0: d025 0dbc ee9c e2be f655 b2be a44b 04be
0.009178751 -0.013916725 0.082608245 -0.028632717 0.09304602 -0.118008226 -0.052766915 -0.010372193
0.07630184 -0.155113 0.221025 -0.10971064 -0.07887353 0.016693737 -0.19286431 -0.022134842
0.09670068 0.015495491 0.07912498 -0.24712963 -0.10697064 0.10364485 -0.5481737 -0.34324104
-0.096277915 -0.3191382 0.1982114 0.13023615 -0.17396986 -0.0035548368 0.00017096123 0.3329268
0.04511891 -0.019958751 -0.09703999 0.13998395 0.53827125 0.07866027 -0.0032992575 -0.0773641
-0.10784528 0.32551515 -0.129252 -0.023711016 0.08543215 0.10769519 -0.2510678 -0.06194703
0.19743703 -0.08640902 -0.07487854 -0.131772 -0.3594057 0.1376495 -0.10585363 -0.55175006
-0.19024627 -0.31063154 -0.29818574 0.14781088 -0.18712497 -0.25857833 -0.2099066 -0.11689928
-0.24744433 0.29333916 0.12172682 0.33903193 -0.2870882 0.05807205 0.23348558 -0.0122176055
0.0963325 -0.1608156 0.16132106 0.35080957 0.17519471 -0.053553034 -0.08809687 0.04598659
-0.002412249 0.6058887 -0.2033452 0.087528534 0.05346309 -0.22624186 0.028681789 0.023843253
-0.12945123 0.23467602 -0.15683195 0.16659848 0.0861816 -0.08333274 -0.07674005 0.07041931
0.08095624 -0.05480123 -0.3308405 -0.045025613 -0.11371611 0.057632577 0.44519088 -0.15488404
0.012844288 0.08977122 0.30991402 -0.19649939 -0.09953064 -0.16273513 0.288442 0.26416123
-0.21867567 0.08117409 -0.011848239 -0.18885438 -0.18836713 -0.07486101 0.07083368 0.23543106
0.031888206 0.011084397 0.027022796 0.42361343 -0.04402233 0.09875055 -0.10037312 0.14016417
0.3847083 0.14067428 -0.41084135 0.16809575 0.36910143 -0.28423947 -0.089196846 0.22198911
0.07053347 0.21001744 -0.08475669 0.19490081 0.005698119 -0.047434475 0.11468938 -0.0004520554
0.049768675 0.22406246 0.26799518 0.32849374 -0.12305433 0.15392768 -0.083899 -0.32358754
0.021957163 0.3796258 -0.021815494 0.2546917 0.25428584 -0.095569275 -0.3098822 -0.017465705
0.08360521 -0.21410848 0.33773443 -0.16239491 0.036083028 -0.05984734 0.03677546 0.12384654
0.03975048 0.17215408 -0.122982666 -0.021704374 0.068475544 0.15753292 0.16499662 0.31485477
-0.04902424 0.24156813 -0.21588911 0.06685486 0.109966695 -0.13291135 -0.008640711 -0.004281977
0.26125905 0.12854008 0.31268886 0.09139041 0.2539945 0.1499036 -0.2527384 0.22501004
0.034459308 0.006108455 -0.07034262 -0.27394366 0.39693645 -0.2765285 0.5055999 0.19711398
0.023641294 -0.00019490962 -0.22336927 0.07001191 0.08183427 -0.18648325 0.13879672 0.42352146
0.0014311115 0.057154164 -0.055569425 -0.26013723 -0.14073008 -0.09636847 0.22590205 0.21779954
0.14722976 -0.06909259 0.015708359 0.090410694 -0.15620661 0.21082047 0.2328545 0.107347056
-0.12842016 -0.040888418 0.13185827 0.1077589 0.16814236 -0.042950887 0.19303535 0.04076638
-3.3757024e-05 -0.1469185 0.07134018 -0.052114423 -0.09930924 0.07765544 0.17347693 0.3196354
0.12586306 0.23431075 -0.20939983 0.16732515 0.2601511 -0.09684298 0.15148425 0.15372746
0.21099679 0.07194625 -0.066851355 0.050255526 -0.008614972 -0.44260353 -0.34831208 -0.1291948

job_encoder.2.bias f4 [64]
00000000: e53c 3fbc 1618 cc3c eefe 053c 373a 403c
00000010: a097 20bd e9a4 8abc 8eb3 853c 9e32 253d
00000020: bbd6 cdbc 7cf6 ff3b 1c5b f13c f75b efbc
00000030: 344c b33c 0fca bcbc 040e 0dbd 1111 4ebc
00000040: b9d3 2c3d e0af 903c 1b24 6a3c 492a b9bb
00000050: f82f 8f3c 079f c23a 9e58 d3bc 746e c43d
00000060: db81 153c 2d54 babb 7e0b 593c 55b9 15bd
00000070: 8e6a 0abb 9a5c 813c 9f2e 9a3c 45ea e53b
00000080: a1d5 0ebd 7472 d5ba e636 943c 02fd 9bbc
00000090: 9524 07bd a724 e5bc 060c 6d3b d67b a8bc
000000a0: 5600 64bc 7531 00bd 56b5 adbd 2b5c 6d3c
000000b0: 6682 0d3d 505b 923d 88f5 b3bb 8cb5 ee3c
000000c0: 1e62 eb3c b3c1 353d 4a80 243d 0466 02bd
000000d0: 3b50 eebc 9fb6 063d 3ce3 163d 9a10 5ebc
000000e0: a4f8 4d3c 6a24 e63c a19d e5bc b290 5c38
000000f0: 6779 473c 4000 d5ba 9083 673c 1717 733b
-0.011672233 0.024913829 0.008178456 0.0117326295 -0.0392071 -0.016924338 0.01632097 0.040331475
-0.025126806 0.0078113656 0.02946239 -0.029218657 0.021886922 -0.023045568 -0.034437194 -0.012577311
0.042194102 0.017661989 0.014290835 -0.0056507927 0.017478928 0.0014848419 -0.025799092 0.0959138
0.009125198 -0.005686304 0.013247369 -0.0365537 -0.002112064 0.015791226 0.018821059 0.0070164525
-0.0348717 -0.001628472 0.018092584 -0.019041542 -0.03299387 -0.027971579 0.0036170497 -0.020566862
-0.013916096 -0.031297166 -0.08481853 0.014487307 0.034548186 0.07146323 -0.005491916 0.029139303
0.02873331 0.04437418 0.04016141 -0.03183557 -0.029090991 0.032889005 0.0368378 -0.013553763
0.012571488 0.028093535 -0.028029265 5.2586845e-05 0.012174941 -0.0016250685 0.014130488 0.003709262

attention.in_proj_weight f4 [192, 64]
00000000: 5153 4abe fda2 5a3d 5992 ae3d b71a 4cbd
00000010: 02dc 76bd d7be 60be a633 573e 7c60 d83d
00000020: e258 f9bd 950d 073e 5f2c 0a3e 94b2 44bd
00000030: 4af9 cb3d 21b0 dabd 5bb3 eebd 4477 32be
00000040: bdb7 463e 54ab 113e 36a7 3e3e a4fc 4c3d
00000050: 8346 023d 3597 19be 8e08 3cbe 3c0f 0d3e
00000060: df06 113e b060 2bbe 67fb 5c3e 17c2 3bbe
00000070: b7b7 94bd ef20 703e 7a0b d33d d929 523e
00000080: 4bb3 253d 345b b2bc 50f2 183e fd26 48be
00000090: c595 59be c402 dcbc b455 163e e3ed b7bd
000000a0: 0a3c 07be 5296 40be 61be 97be d71c 213e
000000b0: 19a8 e0bc f317 e33d 8db5 e43a a29f 233e
000000c0: 1a6b 623e 2a98 2b3e 81e2 d23d 8ef8 56bd
000000d0: 6e32 c2bc f809 373e 7c66 7d3e f63d 86be
000000e0: 4c76 f3ba f749 d13d db4c 46bd a63b 5e3e
000000f0: 9203 d33d 49aa 41be 85ff 5a3e 4b0a e2bd
00000100: b6c8 d53d 43f1 70be c1ad 44be a2db a0bd
00000110: 38b9 7d3e 72ce e03d bedc d2bc 0e6f c8bd
00000120: f152 813b 01b7 a1bd 5e46 1dbe 9e11 553d
00000130: 94f5 33be d198 853e 5f9f 32bd 350f 233d
00000140: 521d 09be 6764 d83c ff3b 2dbe aaa0 14be
00000150: a1ae a1bd a590 bc3e 9755 083d 0fed 05bd
00000160: 271e b2be 17d6 f13d 0512 96be 26b8 993c
00000170: abf4 8f3e e779 8bbe 7d15 12bd efd3 35bd
00000180: 422e 02be a96e 673e f196 73be ac6a 2c3d
00000190: 7452 f0b9 0843 b53b e3b0 60bd 56ee 323e
000001a0: d2ea 873e a542 ba3d 6498 9cbc a941 7fbe
000001b0: aa2f fdbd 20c5 33be 8669 263e 254b 6fbd
000001c0: d03b cebb fdc7 00be 3fc4 4abe c1cd 883c
000001d0: bc5e 483e 1837 02bd 674a 13be 1079 b1bc
000001e0: 9406 56bd 6644 97bc 082f 453e 751a 22be
000001f0: 7520 40be 5eb7 cb3d 0777 debd 8d19 253e
00000200: 53b8 253d 57d2 db3d ab0a f9bd a81f e3bd
00000210: 7150 7ebd aa6b b1bc 4ece 0ebd fc22 3abe
00000220: f648 0b3e eb89 123c 6f9d 26be 525b 563d
00000230: 80d4 e7bd 6e7f 903e f296 87bc b955 783e
00000240: b341 b93d 7138 ddbd 2bb2 b8bd 4c63 89be
00000250: 8fa9 85bd 95dc af3e a7bc 913c 2b84 cf3d
00000260: 3ffe dbbe 8e40 703d 681a 15be bc05 f6bc
00000270: eff4 cb3e c409 0bbe 7271 7e3d 1ff6 39be
00000280: 31b2 25be 4763 cf3d 0f7b fcbd 3823 d43c
00000290: 039f 3f3e 9a7d 8f3e c4fc 22bd b45f 723e
000002a0: 07c8 183e ea64 e73d d13d a0bd 2a56 44bd
000002b0: 3a38 41be a77a 12bc f67a 393c e577 26be
000002c0: 5c69 17be 7489 42be 04b9 54be 79cd 513e
000002d0: bb12 563d 6237 2fbe 33ad c7bd 43de b33d
000002e0: c66c c83c eb30 a03d 16e3 1b3e edc5 39be
000002f0: 7c06 24be c335 a93b 130a 2abe d129 663e
00000300: 98ee 013e ab8c 07be 8a53 473d 934b e0bc
00000310: d7e0 953e 02d5 ba3e 8749 fdbd 8764 c6bd
00000320: 1480 7c3d 9016 67be 9227 63be c036 b43e
00000330: 0223 eabd 9629 3d3e 7056 ba3e 8389 563d
00000340: 1a6f 5dbe 7627 93bd 290f dcbd 922a 803d
00000350: 6d2e dd3c 975c 92b9 bc77 833e 0897 babe
00000360: 8927 173e 1c46 393e 473e 5a39 20a2 ae3d
00000370: f22a 21be c36b 04be a9c5 75be f2af 69be
00000380: 10a2 bf3c e91a 603d d8d3 b7bd 6a46 5c3d
00000390: 61d2 603e 5cd9 9e3d f92c 12be 246c 5c3e
000003a0: 4825 193e d503 603e ac81 2e3e 33a0 8cbe
000003b0: e5a7 8abe 92f7 d7bd bd43 233e ee7a 74bd
000003c0: 3d43 b0be 3b5d babe 64f3 bebe b74a 073e
000003d0: 0048 653e 4c60 79be f9a8 ecbd d650 ec3d
000003e0: e0d9 50bd 6a45 97be 4e3c 82bd 178b 8fbd
000003f0: 73c6 aabe 311b 683e 2ac0 50be 063d 123e
-0.19758345 0.053378094 0.08524007 -0.049830165 -0.06026841 -0.219478 0.21015796 0.10565278
-0.12175156 0.13188775 0.13493489 -0.048021868 0.099596575 -0.10678125 -0.11655303 -0.17428309
0.19406028 0.14225513 0.18618473 0.050045624 0.031805526 -0.14999087 -0.18362638 0.13775343
0.14162777 -0.16736102 0.21580277 -0.18335758 -0.07261603 0.23450063 0.10304923 0.20523776
0.04045419 -0.021772005 0.14936185 -0.19546123 -0.21248539 -0.026856788 0.1468113 -0.0898092
-0.13206497 -0.18807343 -0.29637435 0.15733658 -0.027423905 0.11088552 0.0017449126 0.15978864
0.22111169 0.16757265 0.102971084 -0.052483134 -0.023705687 0.17874897 0.24746126 -0.26219147
-0.0018574684 0.10219186 -0.04841314 0.21702442 0.10303415 -0.18912615 0.21386535 -0.110371195
0.10438673 -0.23529534 -0.19206907 -0.07854392 0.24777687 0.10976876 -0.025740024 -0.09786807
0.003946655 -0.07896233 -0.15358874 0.052018754 -0.1757415 0.26093152 -0.04360902 0.039809424
-0.13390091 0.026415063 -0.16917418 -0.14514413 -0.07894636 0.36829105 0.03328475 -0.03269678
-0.3478863 0.118084125 -0.29310623 0.018764567 0.28116354 -0.27241442 -0.035665024 -0.04439157
-0.12712958 0.22600807 -0.23788048 0.042093918 -0.000458378 0.0055316724 -0.054856192 0.1747373
0.2654634 0.09094743 -0.019115634 -0.24927391 -0.12362607 -0.17555666 0.16251191 -0.058421273
-0.0062937513 -0.1257629 -0.19801424 0.016699674 0.19567388 -0.031790823 -0.14383851 -0.021664172
-0.052252367 -0.018465232 0.19256222 -0.15830405 -0.18762381 0.09947084 -0.108625464 0.16123028
0.04045899 0.107334785 -0.12160238 -0.11090022 -0.062088434 -0.021657784 -0.034864716 -0.18177408
0.13602051 0.008944015 -0.16270994 0.052333184 -0.11319828 0.2822222 -0.016551469 0.2425145
0.09045734 -0.10801781 -0.09018358 -0.2683357 -0.06526481 0.34347978 0.017790152 0.10132631
-0.42967412 0.058655314 -0.14560854 -0.030032031 0.39835307 -0.13577944 0.06211991 -0.18160294
-0.16181256 0.101263575 -0.12328159 0.0258957 0.18713002 0.28025514 -0.039791837 0.2366932
0.14920054 0.11298545 -0.078242905 -0.047933735 -0.18869105 -0.008940375 0.01132082 -0.16256674
-0.14786285 -0.18997747 -0.20773703 0.20488538 0.052263957 -0.1711097 -0.09749832 0.087826274
0.02446593 0.0782183 0.15223345 -0.18141909 -0.16018099 0.0051638796 -0.16605406 0.22476889
0.12688673 -0.13237254 0.048663653 -0.027379787 0.29273102 0.36490637 -0.1236754 -0.09687143
0.061645582 -0.225672 -0.22183064 0.3519802 -0.114324585 0.18472895 0.36394072 0.052377235
-0.21624413 -0.07185261 -0.10745079 0.0625812 0.026999677 -0.00027916275 0.25677288 -0.36443353
0.14761175 0.18093151 0.000208133 0.08527017 -0.15739039 -0.12931733 -0.24001183 -0.22821024
0.023392707 0.054713164 -0.08975953 0.05377809 0.21955253 0.07756302 -0.14274968 0.21525627
0.14955628 0.21876462 0.17041653 -0.27465972 -0.27081218 -0.10545267 0.15943809 -0.059687547
-0.344263 -0.36399254 -0.37295067 0.13212095 0.22390747 -0.2435314 -0.115556665 0.11538856
-0.05098903 -0.29545146 -0.063591585 -0.07008951 -0.3335453 0.22666623 -0.20385805 0.14281091

attention.in_proj_bias f4 [192]
00000000: be5b 023e de53 6bbd 9fae a1bd 27b8 12be
00000010: da00 e2bd e243 bdbd 6e61 933d d78d 04be
00000020: 4aa5 95bc 06f1 02bd ef85 df3d ab82 d03d
00000030: ce9c 0e3e 1a92 acbd 3ba6 f2bd 15ad e1bd
00000040: 3249 86bc 271b 53bd d97c 9aba 6c5b 81bc
00000050: 9b68 2a3d be78 703d 31c4 e0bc 5edc 213d
00000060: 909c cd3c 93d4 19bd d59e 8abc de44 86bc
00000070: 145c afba 2867 a7bc 335c 27be e4cd a23d
00000080: afc9 b73d cef0 e93d 40ea cabd a621 ddbd
00000090: e0c4 00be 7a83 bc3d b08c 5dbd 9995 f7bd
000000a0: 2ea3 a63d 2ac7 02be 58d1 85bd ae2f 503d
000000b0: 1371 f0bd 6aac d2bd 5686 b0bd 1d0c f93d
000000c0: 8b44 bdbc f5be 1d3d 607c ef3c 2116 903c
000000d0: 4b08 ba3b 9c0d a7bc 0896 343d d9bf 24bc
000000e0: 7ab2 8d3c fe24 d33a ddd0 4cbd 3496 573c
000000f0: 2d71 6abc 70af 973c 14d5 df3c fd7d 03bc
00000100: 510c 14bc 7921 063c 34a5 033c f905 273c
00000110: 758d 103c c679 0f3c 0368 21bc fbd9 173c
00000120: 0577 f53b b9e5 fe3b feec 23bc 92c3 24bc
00000130: 4b46 15bc c611 0e3c 318f 1b3c 09b0 143c
00000140: d845 c63b bc62 8c3b 6620 823b 3887 a23b
00000150: ce0e 9d3b 2590 a0bb 6f1e 833b 0e22 bebb
00000160: cf3f bdbb f575 863b 10d5 973b 166f 91bb
00000170: cc54 7abb 0ffa a33b ffd1 8e3b 6ffc 94bb
00000180: c863 b3bb 6d5f a7bb 0d63 bc3b 7a0e c23b
00000190: eb70 c43b c31b babb 6285 cc3b bf81 bc3b
000001a0: fa18 e0bb 6f65 c03b 96c5 b43b 3c15 d9bb
000001b0: 4044 c83b 887c d03b cd82 d33b 37d9 b9bb
000001c0: c581 adbb 9194 753b 4eca 983b 50b8 9cbb
000001d0: 189b 743b 6cb9 be3b 2ed3 583b 5ef8 d03b
000001e0: d331 dcbb 96f1 acbb 3431 83bb ba50 ccbb
000001f0: f811 a83b 8b61 c1bb 6658 ee3b e103 e73b
00000200: 1aea 1e3b 9916 cc3c a707 2a3b ffb7 dbbc
00000210: f847 96bc 99e6 de3d 2b04 293c 4814 debc
00000220: 17e1 fdbb 1560 b83c 303c 423c 53a2 cdbc
00000230: 8335 34ba 5719 88bc 40e5 9dbc 89d8 793c
00000240: e848 053c dca4 5f3c 68bd 053c b8cb b83c
00000250: be47 c53b bbd0 03bd e4eb 7a3c 4daa 4a3c
00000260: 75a7 7b3c 4133 623c 6e6d a43c d3a3 afbc
00000270: 8556 c0bc c31a 86bc 9e18 473c cf02 c83b
00000280: 541e 123c 4a20 1a3c 3f69 463c 984d 453c
00000290: 393a 03bb 92bc 88bb 93b0 283d 37ce 833c
000002a0: ee35 843c 81d8 c83c 7ebd 8abb e5e2 a63c
000002b0: a721 ac3c eb9b 41bc fb60 11bb 4b8e 1c3c
000002c0: 11fd db3c cbd5 6c3c 779b a5bc 515a a9bb
000002d0: 53c8 9abc d265 c13b a362 d63c 7f48 a2bc
000002e0: d79c ba3c dc5c 073c 5a09 903c 4565 ebbc
000002f0: c06c a03c 8403 af3c e66d 2c3b 52ab b7bc
0.1273031 -0.05745303 -0.078946345 -0.14328061 -0.11035319 -0.09241463 0.071963176 -0.12944733
-0.018267293 -0.03196814 0.10914218 0.10181173 0.13927004 -0.08426304 -0.11848112 -0.11019341
-0.016392324 -0.051539566 -0.0011786475 -0.015790664 0.041603666 0.0587089 -0.027437301 0.0395168
0.025099069 -0.037556242 -0.01692144 -0.01639026 -0.0013378882 -0.02043493 -0.16343765 0.07949427
0.08974015 0.11422883 -0.09907961 -0.107974336 -0.12575102 0.09204765 -0.05408925 -0.1208908
0.08136593 -0.12771288 -0.0653407 0.05082672 -0.11740317 -0.102867916 -0.086193725 0.121605136
-0.023103973 0.03851219 0.029234111 0.017588677 0.005677258 -0.020392232 0.044088393 -0.010055506
0.017297018 0.0016109047 -0.050003875 0.01315837 -0.01430921 0.018516272 0.027323283 -0.008025643
-0.00903614 0.008186691 0.008034993 0.010194295 0.0088227885 0.00875706 -0.0098514585 0.009268279
0.007490995 0.00777885 -0.010005234 -0.010056393 -0.009110997 0.00867123 0.009494589 0.009075173
0.0060508065 0.004284231 0.0039711474 0.004959967 0.0047930246 -0.004899996 0.0040014307 -0.0058023995
-0.005775429 0.004103417 0.0046335533 -0.0044382913 -0.0038197516 0.0050041745 0.0043585296 -0.004546694
-0.0054745413 -0.005107811 0.0057491125 0.005922136 0.005994906 -0.005679579 0.0062414864 0.0057527716
-0.006838915 0.005871467 0.005516718 -0.006624846 0.0061116517 0.0063625015 0.0064548017 -0.005671646
-0.0052950107 0.0037472586 0.0046627885 -0.004782714 0.0037323888 0.005820444 0.0033084857 0.006377264
-0.0067198067 -0.0052778227 -0.004003668 -0.0062352093 0.005129095 -0.0059015206 0.0072737215 0.007050023
0.0024248422 0.02491312 0.0025944503 -0.026821135 -0.018344864 0.10883827 0.010315935 -0.02710928
-0.00774778 0.022506753 0.01185517 -0.025101816 -0.0006874429 -0.016613645 -0.019274354 0.01524938
0.008135058 0.013650145 0.008162834 0.022558078 0.006020515 -0.032181483 0.01531503 0.012369704
0.015359749 0.013806165 0.020071711 -0.021440422 -0.023478756 -0.016370183 0.012151865 0.0061038504
0.008918364 0.009407112 0.012110054 0.012042426 -0.0020023717 -0.00417287 0.04118402 0.016089542
0.016138997 0.0245173 -0.004234015 0.020371864 0.02101214 -0.011816959 -0.002218305 0.00955541
0.02685407 0.014455269 -0.020215733 -0.0051682373 -0.01889435 0.0059020305 0.02617008 -0.01980996
0.022779865 0.0082618855 0.017582584 -0.028734813 0.019583106 0.021363981 0.0026310622 -0.02242056

attention.out_proj.weight f4 [64, 64]
00000000: 53c3 6abe 2b7b 643e 6caf 9fbe 8a4b 8cbe
00000010: 4f43 44be 8413 07be d438 82be 22f8 c1bd
00000020: 66ef 27be d47f 833e ac30 d93d c777 8ebd
00000030: b929 df3e 655d 97bd 239f a9be c16c 7e3e
00000040: 5307 493c 1d4e 01be 2e5e 1cbe ca6c 29be
00000050: dd84 343e 3d69 263e da85 8d3e 4039 f63c
00000060: 91ac 2a3e a697 be3d 68e4 a73d a4e3 0abe
00000070: c330 72bd 0ece 85bc 60da a1bc 6966 fe3d
00000080: 3909 283e 2685 123e e063 8bbb edb1 963e
00000090: b43b 8b3d eab8 d03d e3ed 00bc 09e5 11be
000000a0: fd4f 2dbe d78c a6be 872e 82be 9c6a 633d
000000b0: 6cec 4abd 987d 12be 9b90 b9bd fce8 b7be
000000c0: 0986 ed3d eaa0 2abe 6f58 5a3e 31c7 8bbd
000000d0: e3bf 89be b27f 663e 1f1c b0bd 6a47 50be
000000e0: bd16 8d3c 680e 393d 7685 f0bd e4b9 3d3e
000000f0: 16e2 d03e 6e83 c4bc 406e a7be fd61 193d
00000100: d025 123e dd59 c6bb d8d6 1c3e 210e 6b3c
00000110: e310 89bc 2724 aaba 8381 dc3d a15e 53be
00000120: 6f5b 0f3c 808d 84be a3f2 853e bec9 2cbd
00000130: 0e58 3f3e d17b 05bd efc4 213d dc7c 10be
00000140: dbcc dd3d f8e3 d63e e299 2cbe d2a1 33be
00000150: c49e 55bd 7c0a 75bd edc4 f93d eec9 a13e
00000160: 7984 623e 1eb6 533e e755 78be e2e0 f3bc
00000170: bb7c 12be a3f0 48be 988b eb3d f7aa a7bd
00000180: 4ef9 82bd 2db0 cabb 4874 48be eb65 77be
00000190: fd0b c13e 72db 75be 521f fe3b d635 5b3e
000001a0: 97c0 78bd e493 24be 0dda bbbd 1de8 d03c
000001b0: 8905 cebd 1d8c 223e d9ce c3bc 5f35 983a
000001c0: fd70 803d af9b 043d 8cd3 80be 8ec6 95be
000001d0: 45ed 363e 9851 b53e 26bc 02bf 2455 74be
000001e0: 4826 573d 32ee 8ebe 398e cfbc d034 2b3e
000001f0: 4ecf be3d 251e 88be e56f 5d3d 0876 db3c
00000200: d7d3 28bd e437 6cbe e0fe a93c 6692 9ebd
00000210: 4481 98bc 025e 2cbe 3fcd 83bd 5b36 efbd
00000220: fb92 d23d 60a0 c0bc aaf7 a2be 5568 cc3d
00000230: a9ea 033e cc11 36be 1e2b d03d 55aa 313e
00000240: 26fd 993d 0800 e93d 1461 4f3c 2409 153e
00000250: 4424 193e 8ec7 963e fb65 aa3d 4705 e43e
00000260: dfc3 8b3e 35cc 4e3e 02e9 bdbd fc82 3b3e
00000270: a056 d23e 103d babd ca5a 403d 3249 64be
00000280: 6222 21be d921 723d 76f7 2b3e f585 603e
00000290: 9bfe dbbd bcae a23d 4cab afbd f6d5 153e
000002a0: 5eee 73be 85f6 903e 15f3 4cbd c1ef 073f
000002b0: d919 6bbe ed19 5fbe e90c 5dbe 0448 96bd
000002c0: dfe7 d2bc 4d84 cc3c b425 a7bd 9cfb 2d3d
000002d0: bce3 78be d111 c5be db91 b3bd 1344 80be
000002e0: c333 19be 9fb3 2a3e a814 843e e92b a93d
000002f0: 6d67 c13d 5164 47bc 8689 e03b d258 853e
00000300: 4953 ee3d 677f 93bd 1faa ae3d 7d16 cebe
00000310: ff64 953e 1794 0bbf 620f 04be b85c 33be
00000320: 7458 18be 010a 53be a204 473e f63f 15bb
00000330: c6b9 103e 3513 03bc e2fe a3be 76b7 d63e
00000340: bdfe dabd 8003 47bd ee72 f8bd 74d8 c8bd
00000350: 35f0 013e 6672 353e 9f53 5c3d c0fc bf3d
00000360: e339 3d3d 0293 6d3e ca3f b3bd 5885 813e
00000370: e09e b3bd 208d 45be c0f2 083e 3371 ab3d
00000380: fe35 7c3d a187 273e b42a 84be e0d4 0e3e
00000390: 8813 cabe 733a b2be effc 483d 5e1a 053d
000003a0: 0688 18be d5ff 1c3e 1e38 7c3e 0558 a1be
000003b0: 151c b9bd 6698 8fbc e36b 63be 3e5e 6d3e
000003c0: b8d8 9c3d 39df 453e c1d2 d8bd 353a 53be
000003d0: d852 e2bd c63f 3fbe 1d70 9dbe ca92 af3d
000003e0: be39 8abe 4b77 3b3e e455 ebbc 16f3 a03d
000003f0: 1470 bfbd 9b30 bf3e 2a08 16be 15eb 35be
-0.22926073 0.2231261 -0.31188524 -0.27401382 -0.19166301 -0.13191038 -0.2543398 -0.09471156
-0.16399917 0.25683463 0.106049865 -0.069564395 0.4358652 -0.073908605 -0.33129224 0.24846174
0.012269813 -0.12627454 -0.15270302 -0.16545406 0.17628808 0.16251083 0.27641183 0.030056596
0.16667391 0.093062684 0.08197862 -0.135634 -0.059128534 -0.016333606 -0.01975745 0.12421877
0.16409768 0.14308605 -0.0042538494 0.29432622 0.06798497 0.101915196 -0.007869217 -0.14247526
-0.16925044 -0.32529327 -0.25426123 0.055521592 -0.049541876 -0.14305723 -0.090607844 -0.3591994
0.11597831 -0.16662946 0.21322797 -0.06825102 -0.2690421 0.2250965 -0.08599114 -0.20339742
0.017222757 0.045179754 -0.11744206 0.18527943 0.4079749 -0.023988452 -0.32701302 0.037446965
0.14272237 -0.006053193 0.15316331 0.01434663 -0.016731685 -0.0012980745 0.1076689 -0.20641567
0.008749827 -0.25889206 0.2616168 -0.042184584 0.18685934 -0.032588784 0.03949445 -0.1411013
0.10830089 0.419708 -0.16855577 -0.17542198 -0.052153364 -0.05982445 0.12195764 0.31599373
0.22120847 0.20674941 -0.24251519 -0.029770318 -0.14305393 -0.19623046 0.11501235 -0.08186906
-0.06395207 -0.0061855526 -0.19575608 -0.24159972 0.3770446 -0.24009493 0.0077551985 0.21407256
-0.060730543 -0.16072041 -0.09172449 0.025501305 -0.100596495 0.15873761 -0.023902344 0.0011612586
0.06271551 0.032375034 -0.25161397 -0.29253048 0.17863949 0.35413814 -0.5106834 -0.23860604
0.052526742 -0.27916104 -0.025336372 0.16719365 0.09316884 -0.26585498 0.05406179 0.02678968
-0.04121765 -0.23068196 0.020751417 -0.07742767 -0.018616326 -0.16832736 -0.06435632 -0.11680289
0.102819405 -0.023513973 -0.31829578 0.09980837 0.12882484 -0.17780226 0.10164474 0.17350133
0.07518987 0.11376959 0.012657423 0.14554268 0.1495524 0.29449123 0.083202325 0.44535276
0.27297875 0.20195086 -0.09272958 0.18311685 0.41081715 -0.09093678 0.046961583 -0.22293547
-0.15735772 0.05911431 0.16793618 0.219261 -0.107419215 0.07943484 -0.08577594 0.14632401
-0.23821399 0.2831308 -0.05003651 0.5310021 -0.22959079 -0.21787234 -0.21586956 -0.07337955
-0.02574533 0.02496543 -0.08161488 0.04247628 -0.24305624 -0.38490155 -0.08768054 -0.25051937
-0.14961152 0.16670083 0.2579701 0.08260328 0.09443555 -0.012169913 0.0068523316 0.26044327
0.11636979 -0.072020344 0.08528542 -0.40251532 0.29178616 -0.5452284 -0.12896493 -0.17515838
-0.14877492 -0.20609285 0.19435361 -0.002277372 0.14133367 -0.008000185 -0.32030398 0.41936845
-0.10693119 -0.048587322 -0.12131296 -0.0980691 0.12689288 0.17719421 0.053790685 0.0937438
0.046197783 0.2320061 -0.08752401 0.25297046 -0.087705374 -0.19292116 0.13373852 0.083712004
0.06157493 0.16360332 -0.2581383 0.13948393 -0.39468026 -0.34810218 0.04906934 0.03249585
-0.14895639 0.15331967 0.24630782 -0.31512466 -0.09038559 -0.017528724 -0.22209124 0.23180482
0.07658523 0.19323434 -0.10587073 -0.20627673 -0.110509574 -0.18676671 -0.30749598 0.0857292
-0.2699718 0.18307225 -0.02872748 0.07858865 -0.09347549 0.3734177 -0.14651552 -0.17765458

attention.out_proj.bias f4 [64]
00000000: fe9e 8d3c 0e94 babc f0e3 a03c ed81 2dbd
00000010: 8910 b4bc d8b7 54bc a0c8 b8bc f1c1 fd3c
00000020: 4afc 77bc d571 043d 9c5e 043d 4334 f0bc
00000030: eb04 0ebd 86d7 8e3d 0536 253d 263c d23c
00000040: 9b41 17bd 6d81 ea3c 2f95 0fbb 2ce7 00bd
00000050: fa3f abbc 4bba 43bc 90cd 383c 238a 0bbd
00000060: 87be bc3c c286 c43c d944 b23c 758f 133d
00000070: aebb 3ebb aff2 64bc 89bb babc 071e d5bc
00000080: eefe 3c3d bc4d 0ebd 322e 993c ce96 fdbc
00000090: 7464 123d aa1b bb3c dde6 08bc 7faa a2bc
000000a0: 25f2 0c3d 507b 483c a70e 05ba 8825 2a3d
000000b0: 1884 b4bc ea8e 5cbc d077 43bd 1adf cbbc
000000c0: 63b1 e7bb 61b8 4ebc 2b02 653d 3a2a 85bc
000000d0: d482 bb3c dbcb 273b 1ea0 d6bc a4dd 9abc
000000e0: 5a26 f8bc f094 81bc 0474 f2b9 dbc5 dc3c
000000f0: 7741 97bd e2dd 483c 300d c8bc 9cb5 41bc
0.017287727 -0.022775676 0.01963994 -0.042360235 -0.02198054 -0.012983285 -0.022556603 0.030976268
-0.015135834 0.03233512 0.03231679 -0.029321795 -0.03467266 0.069747016 0.04033472 0.025663447
-0.0369278 0.028626168 -0.0021908989 -0.031470463 -0.02090453 -0.011946271 0.011279479 -0.034067284
0.02304007 0.023990039 0.021761345 0.036025483 -0.0029103565 -0.013973876 -0.022794502 -0.026015295
0.046141557 -0.034742102 0.018698785 -0.030955698 0.03574033 0.02284034 -0.008355823 -0.01985669
0.034410615 0.012236431 -0.0005075731 0.0415397 -0.022035643 -0.013461808 -0.047721684 -0.024886657
-0.0070707067 -0.012617202 0.05591027 -0.016255487 0.022889532 0.0025603685 -0.026199397 -0.018904515
-0.030291725 -0.01581809 -0.00046244275 0.026949814 -0.07385533 0.012259932 -0.02442035 -0.011823084

priority_head.weight f4 [1, 64]
00000000: dbf8 3d3d fd49 97be 86a5 e6be 159d 0c3f
00000010: e650 7d3e a72a 4c3f 8d97 89be e1ca 863e
00000020: 798f 75bf 8f6f 0fbe f434 26bf abc2 aebd
00000030: afb3 373e eae0 c53e daba 133f 3a18 c9be
00000040: 6089 873e 8d1c 1fbe 5271 a3be 492b 97be
00000050: c2a8 0d3d 09b5 8abd 184b 9a3e 318c 3bbd
00000060: 10ac 28bf 6d86 1bbe c1a9 2ebf 961c f93d
00000070: 2232 153f bce0 34bd 2330 03bf 4dd5 7d3e
00000080: a368 19bf 5e52 ed3e 3ed4 8f3e 6c3b 50bf
00000090: 9c0b 01be 3a2b 8a3e 3eb4 5abf 4bbe f63e
000000a0: b83b 143e 073a 09be c968 45be eb14 333c
000000b0: 08d4 a83e c796 80bd bbee 883e e1c8 df3e
000000c0: 725e 1bbf e496 203f bede 1f3f 5957 0dbf
000000d0: 4528 533e 29eb ac3e 96d7 843d 8b24 503a
000000e0: 2fc2 ee3e 9e3c 6e3e 341b 9b3e 34c0 3bbe
000000f0: 4875 79be 0f91 953e 0a7e a2be 8d59 3fbc
0.046379905 -0.29548636 -0.4504816 0.5492719 0.24737892 0.7975258 -0.26873437 0.2632666
-0.95922047 -0.140074 -0.6492455 -0.08533224 0.17939638 0.38648158 0.5770699 -0.39276296
0.26471996 -0.15538235 -0.31922394 -0.2952521 0.034584768 -0.06772811 0.30135417 -0.045787994
-0.65887547 -0.15187998 -0.68227774 0.121636555 0.5827962 -0.044159636 -0.51245326 0.24788399
-0.5992529 0.46351904 0.28091615 -0.8134067 -0.12602085 0.26986104 -0.8543128 0.48192057
0.14475906 -0.13401042 -0.19278254 0.01093028 0.32974267 -0.062787585 0.26744637 0.43707946
-0.6069099 0.6273024 0.6244925 -0.55211407 0.2062083 0.33773163 0.06486432 0.00079400156
0.46632525 0.23265311 0.30294192 -0.18335038 -0.24361145 0.29212233 -0.31736785 -0.011679065
