src/training/latest.pt (torch, 45037 bytes, 39 tensors)

policy_log_std f4 [30]
0	0x40000179	2.00009
1	0x3ff63b74	1.9236894
2	0x3ff6e5a8	1.9288836
3	0x3ff79cc7	1.934472
4	0x4000036b	2.0002086
5	0x4000013c	2.0000753
6	0x40000246	2.0001388
7	0x3fe7cd98	1.8109617
8	0x3ffbb7dd	1.9665486
9	0x4000075a	2.0004487
10	0x4000002b	2.0000103
11	0x40001a40	2.0016022
12	0x4000030e	2.0001864
13	0x4000014f	2.0000799
14	0x3fd66710	1.6750202
15	0x400001bc	2.0001059
16	0x3fdc897a	1.7229455
17	0x400006c7	2.0004137
18	0x4000019c	2.0000982
19	0x3ff07a7d	1.878738
20	0x400001d1	2.0001109
21	0x400003f4	2.0002413
22	0x3ff2151d	1.8912693
23	0x3ff472f5	1.9097582
24	0x400001c5	2.000108
25	0x3ffb2f97	1.9623898
26	0x3ffec8b6	1.9905002
27	0x40000069	2.000025
28	0x3ff0270c	1.8761916
29	0x400002e4	2.0001764

host_encoder.weight f4 [16, 4]
0	0xbec8db59	-0.3922985
1	0xbec4c667	-0.3843262
2	0xbe5bac0f	-0.21452354
3	0xbe3f11b4	-0.18659097
4	0x3e88a145	0.2668554
5	0xbf5d124b	-0.8635604
6	0xbe83294f	-0.25617453
7	0x3f65a4a9	0.89704376
8	0x3e7d26d1	0.24721839
9	0x3f8b9695	1.0905329
10	0x3ef123f7	0.47097751
11	0x3f115e49	0.5678449
12	0x3e5ec8ca	0.21756282
13	0xbe91d698	-0.28484035
14	0xbedb4865	-0.4282867
15	0xbe907580	-0.28214645
16	0xbf181cd9	-0.5941902
17	0x3f0a9c97	0.5414519
18	0x3f7bf446	0.98419607
19	0x3ec8e7e4	0.39239419
20	0xbe879a3e	-0.26484865
21	0x3f7ac3a6	0.97954786
22	0x3e50e2e7	0.20399056
23	0x3f6318fe	0.8871001
24	0x3e8551a7	0.26038858
25	0x3f7852e5	0.97001487
26	0xbdbbb759	-0.0916583
27	0x3de88044	0.1135259
28	0xbe8bbf43	-0.2729436
29	0x3e23a66c	0.15981454
30	0x3f594f05	0.848862
31	0xbf839f13	-1.0282921
32	0xbe53b2ab	-0.20673625
33	0xbe988a83	-0.29793176
34	0x3d5ccb34	0.053904727
35	0xbee86732	-0.45391232
36	0x3f123cc0	0.5712395
37	0xbeccd2db	-0.4000462
38	0xbcd90a06	-0.026494037
39	0x3f127ba7	0.5721993
40	0x3f8c6719	1.0968963
41	0xbeaeafba	-0.34118444
42	0xbd24fa67	-0.040277865
43	0x3eaf8d1f	0.34287354
44	0x3ea5daef	0.32393596
45	0x3f9d66ac	1.2296958
46	0xbe59c305	-0.212658
47	0xbafdcc31	-0.0019363222
48	0x3f9ea675	1.2394549
49	0xbec6d486	-0.38834018
50	0x3eb7520d	0.35804787
51	0xbe057525	-0.13032968
52	0x3e85d8fb	0.26142105
53	0xbd8530b6	-0.065034315
54	0x3dc28b96	0.0949928
55	0x3d8ee81d	0.06977866
56	0x3e1e1038	0.15435874
57	0x3df3dfcc	0.1190792
58	0xbead6512	-0.33866173
59	0xbe30fabe	-0.1728315
60	0x3eeee241	0.46656993
61	0x3cd68b51	0.026189478
62	0x3dc59b5d	0.09648774
63	0x3e68769f	0.227015

host_encoder.bias f4 [16]
0	0x00000000	0.0
1	0x3e203970	0.1564691
2	0xbd6d7d8a	-0.05798105
3	0x00000000	0.0
4	0xbd9afd6a	-0.07567866
5	0xbda9e4a2	-0.082955614
6	0xbdf68ad4	-0.12038198
7	0xbd2f5da8	-0.042813927
8	0x00000000	0.0
9	0x3e0b8b1a	0.13627282
10	0x3debdb76	0.11516468
11	0x3e305eea	0.17223707
12	0x3e395d15	0.18101914
13	0x3e11ce17	0.14238773
14	0xbca0aeea	-0.019614656
15	0x3e1ad90b	0.15121858

job_encoder.weight f4 [16, 2]
0	0x3e0a2669	0.13491215
1	0xbe4dd166	-0.2009941
2	0x3f219819	0.6312271
3	0x3e832fe2	0.2562247
4	0x3ef0b538	0.4701326
5	0xbb60e79e	-0.0034317742
6	0x3f43f719	0.76548916
7	0x3f7686e8	0.962996
8	0x3ee12134	0.43970644
9	0xbe867032	-0.26257473
10	0xbea8bb64	-0.32955468
11	0x3e6fe037	0.23425375
12	0x3f0a8fbe	0.54125583
13	0xbd3f69a9	-0.046731625
14	0x3d08d6b2	0.033407874
15	0xbe2a0ea3	-0.16607146
16	0xbe972077	-0.29516956
17	0xbf1a11b0	-0.6018324
18	0xbe1e6a21	-0.15470172
19	0xbe4371a5	-0.1908632
20	0xbea6ebaf	-0.32601687
21	0x3f034060	0.51270103
22	0x3f0117bf	0.5042686
23	0x3f0743c1	0.5283776
24	0x3e6c905c	0.23101944
25	0x3eb706d8	0.3574741
26	0xc0370712	-2.8598065
27	0xc0314ec9	-2.7704337
28	0xbd9cbae7	-0.07652836
29	0x3d28794b	0.0411313
30	0x3f1de9bf	0.61684793
31	0xbe6a8459	-0.22902049

job_encoder.bias f4 [16]
0	0x3e2e5a22	0.1702657
1	0x3def4f32	0.11685027
2	0x3e2f748f	0.17134307
3	0x3dff968f	0.12479889
4	0x3e232dfc	0.1593551
5	0x3e9b07e0	0.30279446
6	0x3e0cc3d7	0.13746582
7	0xbc888c4f	-0.016668467
8	0x00000000	0.0
9	0x00000000	0.0
10	0x3e8799e4	0.26484597
11	0x3d90ad13	0.07064261
12	0x3e654539	0.22389688
13	0x3f343efc	0.70408607
14	0xbd0e37b5	-0.034721095
15	0x3e097268	0.13422549

attention.in_proj_weight f4 [48, 16]
0	0xbfa92f1f	-1.3217505
1	0xbf90c820	-1.1311073
2	0xbfab639e	-1.3389776
3	0xbfc686c2	-1.5509875
4	0xbf9fb4dd	-1.247707
5	0xbfb2d593	-1.3971428
6	0xbfc7f307	-1.5621041
7	0xbe150caf	-0.1455562
8	0xbe1f605c	-0.15564102
9	0x3dc35da0	0.09539342
10	0xbfb1bd78	-1.3885946
11	0xbfcbbcb3	-1.5916961
12	0xbf87b2fe	-1.0601499
13	0x40447f58	3.0702724
14	0x3e5000ac	0.20312756
15	0xbfd3ca99	-1.6546203
16	0xbf7572c1	-0.95878226
17	0xbf3d1765	-0.7386382
18	0xbf8966f2	-1.0734541
19	0xbf96cc0b	-1.1781019
20	0xbf4e324d	-0.805455
21	0xbf5c9d5e	-0.86177623
22	0xbf859b6a	-1.0438054
23	0x3e2ce809	0.1688539
24	0x3e7c220a	0.2462236
25	0x3d4b7359	0.04967055
26	0xbf636e01	-0.8883973
27	0xbf9a44d4	-1.2052255
28	0xbf767dac	-0.9628551
29	0x4032c518	2.7932796
30	0x3df3f979	0.119128175
31	0xbf8a170d	-1.0788285
32	0x3f44ecdb	0.7692391
33	0x3f90a4f8	1.1300344
34	0x3f3add0c	0.7299354
35	0x3fa63abd	1.2986676
36	0x3f3c8abd	0.736492
37	0x3f534c1f	0.82538027
38	0x3f5abb9d	0.85442525
39	0x3d492509	0.049107585
40	0xbdbd7fd7	-0.09252899
41	0x3e63fac3	0.22263627
42	0x3f6b98c5	0.9202998
43	0x3fa3c283	1.2793735
44	0x3fa0e1a6	1.2568862
45	0xc03a14e4	-2.907525
46	0xbe4dd93e	-0.20102403
47	0x3fae59d8	1.3621168
48	0xbf79b27c	-0.9753797
49	0xbfc8fec5	-1.570275
50	0xbfb1cee9	-1.3891269
51	0xbff7f0be	-1.9370344
52	0xbfb244c4	-1.3927236
53	0xbf7e1c45	-0.99261886
54	0xbf963b46	-1.1736839
55	0x3d934b15	0.07192055
56	0xbdaaaa89	-0.08333308
57	0x3e90a14c	0.2824806
58	0xbf97c980	-1.1858368
59	0xbfd5a237	-1.6690129
60	0xbfb37895	-1.4021174
61	0x404aa334	3.1662111
62	0x3dd55a20	0.104175806
63	0xbfde9776	-1.7389972
64	0x3f82d852	1.0222266
65	0x3f451118	0.7697921
66	0x3f320951	0.69545466
67	0x3f8303f5	1.0235583
68	0x3f8d59eb	1.1043066
69	0x3f819230	1.0122738
70	0x3f905fe4	1.1279263
71	0x3e3305c9	0.17482676
72	0x3e6cdc11	0.23130824
73	0xbd27ddbc	-0.040982947
74	0x3f39c05b	0.72559136
75	0x3f97ba97	1.1853818
76	0x3f520c6d	0.8205021
77	0xc04ecc87	-3.2312334
78	0xbdd000e4	-0.1015642
79	0x3f91dcb4	1.1395478
80	0x3f8f007a	1.117202
81	0x3f5c222c	0.8598964
82	0x3f525bcf	0.8217134
83	0x3f92ec15	1.1478297
84	0x3f3ad25b	0.72977227
85	0x3f23056d	0.63680154
86	0x3f8ddd34	1.1083131
87	0xbd21faa7	-0.03954568
88	0x3e8f406c	0.27978837
89	0x3e988024	0.29785264
90	0x3f83d2c1	1.0298692
91	0x3f940052	1.1562598
92	0x3f85ceca	1.0453732
93	0xc03308be	-2.7974086
94	0xb9ab7b9b	-0.00032707755
95	0x3f9673a6	1.1754043
96	0xbe68f4cb	-0.22749631
97	0x3d94330e	0.072363004
98	0xbea58894	-0.32330763
99	0xbf08c574	-0.5342629
100	0xbe9cdd5c	-0.30637634
101	0xbe980098	-0.29687953
102	0xbe02aff8	-0.12762439
103	0x3e7209e9	0.23636593
104	0x3e752d53	0.23943071
105	0x3e0ff3a8	0.14057791
106	0xbedf32ab	-0.43593344
107	0xbee441cf	-0.44581458
108	0xbe98e20d	-0.29859963
109	0x402e9f6c	2.7284803
110	0x3d134d62	0.03596247
111	0xbf37fce1	-0.7187024
112	0x3f51d609	0.81967217
113	0x3efe2451	0.49637082
114	0x3f0f6041	0.56006247
115	0x3f3396bc	0.7015188
116	0x3f671dc1	0.90279776
117	0x3e6fc5b4	0.23415262
118	0x3f66767c	0.9002454
119	0xbc9b2e30	-0.018942922
120	0xbd11dad6	-0.03560909
121	0x3e441bf6	0.19151291
122	0x3f265faa	0.6498972
123	0x3f8140e1	1.0097924
124	0x3f7d4b95	0.98943454
125	0xc0502c20	-3.2526932
126	0x3dde2687	0.10847192
127	0x3f73bcac	0.95209765
128	0x3eed11d6	0.4630267
129	0xbda1a717	-0.07893198
130	0x3bcbc95d	0.0062190727
131	0xbe96206e	-0.29321617
132	0x3e414c0e	0.18876669
133	0x3f448bad	0.7677563
134	0x3e0f0b19	0.13969077
135	0xbcb08156	-0.021546047
136	0xbe9371cd	-0.2879776
137	0x3c5bdd4c	0.0134194605
138	0x3e381f53	0.17980699
139	0x3d9712b6	0.07376616
140	0xbe838be3	-0.25692663
141	0xc020747b	-2.5071094
142	0xbdacf5f4	-0.08445349
143	0x3d80aaaa	0.062825516
144	0xbe54c0c5	-0.2077666
145	0xbd1eb5d3	-0.03874762
146	0x3d828d43	0.063746
147	0x3e49058e	0.19631025
148	0xbe18eca3	-0.1493402
149	0xbf3798b8	-0.71717405
150	0xbe4696a7	-0.19393407
151	0x3e1eee99	0.15520705
152	0xbdab1b62	-0.08354832
153	0x3e12d127	0.14337598
154	0xbf16f1ed	-0.589629
155	0xbe6048b1	-0.2190273
156	0x3cae41f6	0.021271687
157	0x40281f86	2.626924
158	0x3e08dad8	0.13364732
159	0x3ddc99fc	0.10771558
160	0xbda033c1	-0.07822371
161	0x3ec1d9a7	0.37861368
162	0x3da30ef6	0.07961838
163	0xbe370edb	-0.1787676
164	0xbecf1d49	-0.4045203
165	0xbee87839	-0.45404223
166	0xbe5668e1	-0.20938446
167	0xbe128b2a	-0.143109
168	0xbe9050a2	-0.28186518
169	0xbe90a2ce	-0.2824921
170	0xbed3c852	-0.4136377
171	0xbe3052ad	-0.17219038
172	0xbdfd599a	-0.12370606
173	0x402f6e62	2.7411122
174	0x3e8bcf5f	0.2730665
175	0xbe174703	-0.14773183
176	0xbf150516	-0.58210886
177	0x3ddff1dc	0.10934803
178	0xbe819026	-0.2530529
179	0xbe16005a	-0.14648572
180	0xbe5dec0b	-0.21672074
181	0xbf6432bf	-0.8913993
182	0xbdae598c	-0.085131735
183	0x3e8613b0	0.26186895
184	0x3d571160	0.052506804
185	0x3daa8713	0.083265446
186	0xbf328cb3	-0.6974594
187	0x3b9cc086	0.004783693
188	0xbd81e619	-0.06342716
189	0x40205502	2.5051885
190	0x3dd1b2f5	0.102392115
191	0x3dd80e35	0.10549585
192	0x3dd9525c	0.10611412
193	0x3d1d7b62	0.038447745
194	0xbdc308c2	-0.09523155
195	0xbe832da8	-0.2562077
196	0x3ea13a55	0.31489816
197	0x3cc68929	0.024235325
198	0x3e958261	0.29201034
199	0x3d28bfc5	0.04119851
200	0xbe28fb68	-0.16502154
201	0x3e23d8c0	0.16000652
202	0xbd530174	-0.051515058
203	0xbe24e52e	-0.1610305
204	0xbd453d79	-0.048154328
205	0xc02d219d	-2.7051766
206	0xbe401321	-0.18757297
207	0x3e2a8aed	0.16654558
208	0x3f422d2a	0.75850165
209	0x3ed06591	0.4070249
210	0x3eb16132	0.34644467
211	0xbded74c8	-0.1159454
212	0x3e632791	0.22183062
213	0x3f5be84d	0.8590134
214	0x3e8f2fd5	0.2796618
215	0x3c8fbf0d	0.017547155
216	0x3d29b9aa	0.04143683
217	0xbe7bfca0	-0.24608088
218	0x3ed6542f	0.41861102
219	0x3eb231c2	0.34803587
220	0x3d809c46	0.06279807
221	0xc029d63d	-2.653701
222	0xbe794a6b	-0.24344794
223	0x3d675b8d	0.056483794
224	0xbedff17e	-0.4373893
225	0xbe8f92f4	-0.28041804
226	0xbe1b934b	-0.15192907
227	0x3caf09fa	0.021367062
228	0xbf23186f	-0.6370916
229	0xbe89a927	-0.26886865
230	0xbe9fba53	-0.31196842
231	0xbe0e8861	-0.13919212
232	0x3df0bcef	0.11754786
233	0x3e794c3c	0.24345487
234	0xbee0e82d	-0.43927136
235	0xbe31d27e	-0.17365453
236	0xbec7d723	-0.39031324
237	0x401f4957	2.4888513
238	0xbe7ebd1a	-0.24876824
239	0xbea1b4e3	-0.31583318
240	0xbe125395	-0.14289697
241	0xbe496cd5	-0.19670422
242	0x3eaba894	0.33527052
243	0x3e9963a2	0.29958826
244	0xbef5d3d9	-0.4801319
245	0xbe735e14	-0.23766357
246	0x3e22241d	0.15834089
247	0xbd70c461	-0.05878103
248	0xbd08abf0	-0.033367097
249	0xbe0d90da	-0.13824788
250	0x3e295922	0.16537908
251	0xbc89a19e	-0.016800698
252	0x3eb6d5d7	0.35710022
253	0x4022c611	2.543339
254	0x3d8cc7f6	0.06874077
255	0x3e0f7779	0.14010419

attention.in_proj_bias f4 [48]
0	0x3f8cf4f8	1.1012259
1	0x3f636314	0.88823056
2	0xbf597dae	-0.84957397
3	0x3f8ba81b	1.0910677
4	0xbf769017	-0.96313614
5	0xbf622ac6	-0.8834652
6	0x3fa17f81	1.2617036
7	0xbf9156d4	-1.1354623
8	0xbda99d0e	-0.08281909
9	0xbdd8a625	-0.105785646
10	0x3e71eccb	0.23625486
11	0xbeb9ee21	-0.3631449
12	0x3dd5486d	0.10414205
13	0xbcae8935	-0.02130566
14	0x3e86c590	0.26322603
15	0x3e0c3cfb	0.13695137
16	0x3b1ac607	0.0023616569
17	0x3b4f7864	0.0031657452
18	0xbb1ef0de	-0.0024252455
19	0x3ab562bb	0.0013838628
20	0xbb5eec36	-0.0034015304
21	0xbb92f65e	-0.0044849357
22	0x3c7126ff	0.01471877
23	0xbbc9f689	-0.0061634225
24	0x3d4efc1a	0.05053339
25	0xbda088b8	-0.07838577
26	0xbd22b463	-0.03972281
27	0xbe3273b9	-0.17426957
28	0x3d02a672	0.031897016
29	0x3df9c796	0.12196271
30	0xbd985dae	-0.07439743
31	0xbc3b3c4b	-0.011427949
32	0x3e402ba2	0.18766645
33	0x3e3f001e	0.18652388
34	0xbe789e34	-0.242791
35	0x3ddd736e	0.10813032
36	0x3e473ec3	0.19457535
37	0xbe25f9b4	-0.16208535
38	0xbe2f2af0	-0.17106223
39	0xbe277748	-0.16354096
40	0x3e2b5bb8	0.16734207
41	0x3d854e7c	0.0650911
42	0x3e02b5db	0.12764685
43	0x3de46918	0.111528575
44	0x3dfef87c	0.124497384
45	0xbdda4a7b	-0.10658737
46	0x3e3786b6	0.17922482
47	0x3dfd7d3e	0.12377404

attention.out_proj.weight f4 [16, 16]
0	0xbe2e6fe9	-0.17034878
1	0x3ef52f92	0.47887856
2	0xbe3010a3	-0.17193846
3	0xbd85cbaf	-0.0653299
4	0xbeea7700	-0.45793915
5	0x3f090f39	0.5353885
6	0x3ca97a3f	0.020688174
7	0x3d445dfe	0.0479412
8	0xbf5e71fb	-0.8689267
9	0xbf371dcf	-0.7152986
10	0xbf5d6f17	-0.86497635
11	0x3bcff35e	0.0063461503
12	0xbf82be63	-1.0214351
13	0x3f6a6faa	0.91576636
14	0xbf98fbe3	-1.195187
15	0xbea2bf62	-0.31786638
16	0x3e4d83db	0.2006983
17	0x3f51d779	0.8196941
18	0x3ee2bcea	0.44284755
19	0xbe7d9c68	-0.24766695
20	0x3eae40ad	0.3403372
21	0x3cd2569c	0.025676064
22	0xbed7cda8	-0.4214909
23	0xbe8e8f36	-0.27843636
24	0x3f44b97f	0.76845545
25	0x3f7b8fa6	0.98266065
26	0x3f1dd891	0.6165858
27	0x3f7e6a92	0.99381363
28	0x3f57e768	0.8433747
29	0xbed712a1	-0.420064
30	0x3fc0f3c7	1.5074395
31	0xbda4e2cc	-0.080510706
32	0x3f2531a2	0.6452886
33	0x3f076138	0.5288272
34	0x3e9aa3bc	0.30203044
35	0x3ecb96cb	0.39763483
36	0x3e935925	0.2877895
37	0xbea5d490	-0.32388735
38	0xbec32d71	-0.38120607
39	0xbea11541	-0.31461528
40	0x3fa39e7b	1.2782739
41	0x3f727231	0.9470549
42	0xbe82417c	-0.25440586
43	0xbdf3c9f6	-0.11903755
44	0x3e765de3	0.24059252
45	0xbf00b86f	-0.50281423
46	0x3fbcd419	1.4752227
47	0x3edefdca	0.43553
48	0xbe00618d	-0.12537213
49	0x3edb0b4f	0.42782065
50	0xbe87673f	-0.26445958
51	0xbe455b48	-0.19273102
52	0xbdfd3df5	-0.12365333
53	0xbf2016a0	-0.62534523
54	0xbefffa0a	-0.49995452
55	0xbf2015f0	-0.62533474
56	0x3fd09cb4	1.6297822
57	0x3f003128	0.50075006
58	0x3e74b501	0.23897173
59	0x3ea23e0e	0.3168797
60	0x3f34a41c	0.7056291
61	0xbe8ee13d	-0.27906218
62	0x3ed55d96	0.41672963
63	0x3d5c06f3	0.053717565
64	0x3f3db963	0.74111
65	0xbdc92bd5	-0.098228134
66	0xbf63860a	-0.888764
67	0xbed510f5	-0.416145
68	0x3be7938f	0.007067151
69	0x3e32932c	0.17438954
70	0xbeb7f5fa	-0.35929853
71	0xbf24c9d8	-0.6437049
72	0x3ea45780	0.32098007
73	0x3fa464bb	1.284324
74	0xbe749604	-0.23885351
75	0x3e8f9da2	0.28049952
76	0x3efd512c	0.49475992
77	0x3e1f6dde	0.15569255
78	0x3f015066	0.50513303
79	0x3e68cfe4	0.22735554
80	0x3e9b0396	0.30276173
81	0x3ec8ad2c	0.3919462
82	0xbe9282bd	-0.2861537
83	0x3f78e627	0.97226185
84	0xbe937f49	-0.28808048
85	0xbe8891e9	-0.2667382
86	0x3eb13d1c	0.34616935
87	0xbd42c162	-0.047547705
88	0x3f6f9108	0.93580675
89	0x3fa14c49	1.2601405
90	0x3ee2ccb6	0.44296807
91	0x3f0732a3	0.5281164
92	0x3f2f8cfa	0.6857449
93	0xbea160f1	-0.31519273
94	0x3f63f767	0.8904938
95	0xbe287885	-0.16452225
96	0xbea627eb	-0.3245233
97	0xbcd1bbce	-0.025602248
98	0x3f07f146	0.5310253
99	0x3edbed7e	0.4295463
100	0x3e98e868	0.29864812
101	0x3eb2f8b6	0.34955376
102	0x3de42b3a	0.11141057
103	0xbf34e658	-0.70663977
104	0xbeded113	-0.43518886
105	0xbf4b1bce	-0.793393
106	0x3ec2ed28	0.3807156
107	0xbf84d728	-1.037816
108	0x3e019592	0.12654713
109	0xbf1416dd	-0.57847387
110	0x3e89caed	0.26912633
111	0xbf556ecb	-0.8337218
112	0xbe824317	-0.2544181
113	0xba023e6e	-0.0004968409
114	0x3cbc0e06	0.022955906
115	0xbec5220a	-0.38502532
116	0xbee544d3	-0.4477907
117	0xbd773361	-0.060351733
118	0x3da39aef	0.079885356
119	0x3f221465	0.6331237
120	0xbf256bbb	-0.6461751
121	0xbf21df0d	-0.63230973
122	0x3ee4a4e2	0.44657046
123	0xbf9e3048	-1.2358484
124	0xbed4c88f	-0.41559264
125	0x3df749b0	0.12074602
126	0xbd412d2c	-0.04716222
127	0xbf816029	-1.0107471
128	0xbf2ccba4	-0.6749823
129	0xbe91768a	-0.2841075
130	0xbe475a02	-0.19467929
131	0x3e3dccd8	0.18535173
132	0x3dcb321a	0.099216655
133	0x3f83968f	1.0280322
134	0x3dd193d1	0.10233272
135	0x3f23729c	0.63846755
136	0xbeece5be	-0.4626903
137	0xbf7b3072	-0.98120797
138	0xbde0c737	-0.10975497
139	0xbf1dc44d	-0.61627656
140	0x3ce9727d	0.028496975
141	0x3f60a683	0.87754077
142	0xbf37c78f	-0.7178888
143	0xbdae6027	-0.08514433
144	0xbe988549	-0.29789189
145	0xbf2b6330	-0.66948223
146	0x3f052ab7	0.520183
147	0xbd746e37	-0.05967542
148	0xbf02905e	-0.51001537
149	0xbdebc027	-0.115112595
150	0x3e764cbc	0.2405271
151	0x3e974736	0.29546517
152	0xbf425efd	-0.7592619
153	0xbf419584	-0.7561877
154	0xbf5b2b3b	-0.8561284
155	0xbd9b4bf1	-0.07582844
156	0x3eaba29d	0.33522502
157	0x3f2452e8	0.64189005
158	0xbed70849	-0.4199851
159	0xbefb9e0d	-0.4914402
160	0xbe0dc2bc	-0.13843817
161	0x3ee82ecc	0.45348203
162	0xbe7a4a8c	-0.244425
163	0x3f35a7fd	0.70959455
164	0xbdac4b1c	-0.084127635
165	0xbf189440	-0.5960121
166	0xbf4392cc	-0.7639587
167	0xbf345240	-0.70438004
168	0x3e1a9c4a	0.15098682
169	0x3edb7c23	0.42868146
170	0x3ef2ece6	0.47446364
171	0x3e9dc029	0.3081067
172	0x3f21063f	0.62900156
173	0xbf5d8ec5	-0.86545974
174	0x3fada89b	1.3567079
175	0x3e3eb5bb	0.18624012
176	0xbf142616	-0.57870615
177	0x3f0201d3	0.50784034
178	0xbf09d1f5	-0.53835994
179	0xbe765afd	-0.24058147
180	0x3e4d0791	0.20022418
181	0xbed2a52b	-0.41141638
182	0x3e171c78	0.14756954
183	0xbe907147	-0.28211424
184	0x3f62cf8f	0.8859796
185	0x3fb29207	1.3950814
186	0xbeb9626b	-0.362079
187	0x3f17fe80	0.5937271
188	0x3edd717d	0.43250647
189	0xbf66c447	-0.90143245
190	0x3f949ee0	1.1610985
191	0x3f16747b	0.58771485
192	0xbe3d116c	-0.18463677
193	0xbe9952d1	-0.29945996
194	0x3f13719e	0.5759524
195	0xbcb82ad9	-0.022481369
196	0xbf8827c4	-1.0637136
197	0x3f171ada	0.5902535
198	0x3ef0a4cc	0.4700073
199	0xbe561030	-0.20904613
200	0xbe5f8760	-0.21828985
201	0xbf71560b	-0.94271916
202	0x3f2a3d14	0.6649945
203	0xbf1c425d	-0.6103876
204	0xbdbe9393	-0.09305491
205	0xbec0bbe5	-0.37643352
206	0x3e878805	0.26470962
207	0x3e17f59a	0.14839783
208	0x3d19d623	0.037557732
209	0xbea6bcb1	-0.32565835
210	0xbda80e5a	-0.08205862
211	0x3ea8b0f0	0.32947493
212	0xbdc1ac78	-0.09456724
213	0x3de0fd4a	0.10985811
214	0xbf3f4c60	-0.74725914
215	0xbe53a44d	-0.20668145
216	0x3fa7b9f3	1.3103622
217	0x3f639f62	0.88915074
218	0x3e995cb4	0.2995354
219	0x3f575718	0.8411727
220	0x3e08aaf4	0.13346463
221	0xbf9add1e	-1.209873
222	0x3faaec49	1.3353359
223	0xbeaec611	-0.34135488
224	0x3ee79244	0.4522878
225	0x3f0d5bfb	0.55218476
226	0xbe44f718	-0.19234884
227	0x3e08786a	0.13327184
228	0x3e04792b	0.12936847
229	0xbb8842e4	-0.0041583646
230	0x3eccb824	0.39984238
231	0xbef4ceb2	-0.47813946
232	0x3f629eaa	0.8852335
233	0xbdf8eb67	-0.121542744
234	0x3e5a5d8a	0.21324745
235	0x3eab02c3	0.33400545
236	0x3f3faaa1	0.74869734
237	0xbfaad834	-1.334723
238	0x3fb008fd	1.3752743
239	0xbed23ca7	-0.410619
240	0xbd8f1c02	-0.06987764
241	0xbdf7ebb3	-0.12105503
242	0xbdaf9cb5	-0.08574811
243	0x3e8dbcff	0.27683255
244	0x3ed0bcf8	0.40769172
245	0xbeeb9f9a	-0.46020204
246	0x3eab58fe	0.33466333
247	0xbf781590	-0.969079
248	0x3f77001d	0.9648455
249	0x3f0963e9	0.53668076
250	0x3f239108	0.63893175
251	0x3f0249ce	0.50893867
252	0xbd9ffb26	-0.07811575
253	0xbe5f880e	-0.21829244
254	0x3fdb3d27	1.7128037
255	0xbe950ddd	-0.2911214

attention.out_proj.bias f4 [16]
0	0xbdcfcf7e	-0.10146998
1	0x3e066e44	0.13128
2	0x3e207979	0.15671338
3	0x3e472049	0.1944591
4	0x3e5c94dd	0.21541162
5	0x3d93eb89	0.07222659
6	0xbe6fd05e	-0.2341933
7	0xbe10362c	-0.14083165
8	0xbe04e15c	-0.12976593
9	0xbe6c9c82	-0.23106578
10	0x3e2a0e09	0.16606916
11	0x3e2e8092	0.17041233
12	0xbe68f0e1	-0.22748138
13	0x3d412e64	0.047163382
14	0x3df92d8a	0.12166889
15	0x3e20fdb8	0.15721786

priority_head.weight f4 [1, 16]
0	0xbd8be3f4	-0.06830588
1	0x3eb000da	0.3437565
2	0x3e2b8a20	0.1675191
3	0xbe32db4b	-0.17466466
4	0x3f6f9290	0.9358301
5	0xbf353897	-0.70789474
6	0xbee1b61b	-0.44084248
7	0x3ef48be8	0.4776299
8	0x3f1a5b49	0.6029554
9	0xbd116065	-0.03549232
10	0xbf009384	-0.5022509
11	0xbf0c8ea3	-0.54905146
12	0x3e6694d3	0.2251771
13	0xbee0e790	-0.43926668
14	0x3efc7b28	0.4931271
15	0xbec78014	-0.38964903

value_head.0.weight f4 [64, 16]
0	0x3f7e8e39	0.99435765
1	0xbf27bd59	-0.65523297
2	0xbe8e0f69	-0.27746132
3	0xbf3eab80	-0.7448044
4	0x3cc87a07	0.02447225
5	0xbea629d0	-0.32453775
6	0xbf1f21c7	-0.62160915
7	0x3e108158	0.1411184
8	0x3f13c2ac	0.5771892
9	0x3e6010fa	0.21881476
10	0xbf7bdf00	-0.98387146
11	0xbeecd5c9	-0.46256855
12	0xbf0092d3	-0.50224036
13	0xbed451cb	-0.41468653
14	0xbf5ec5b2	-0.8702041
15	0xbf220e15	-0.6330274
16	0xbecd9e9f	-0.4016008
17	0x3d18ebc2	0.03733421
18	0xbcd6ac4e	-0.026205208
19	0x3d8fdeb5	0.070249
20	0xbc8a1da3	-0.016859835
21	0x3e377fe0	0.17919874
22	0x3ee97941	0.45600322
23	0x3e9ec784	0.31011593
24	0xbebf39ca	-0.37348777
25	0xbe7301e1	-0.23731185
26	0x3e49b373	0.1969736
27	0xbf01bade	-0.5067576
28	0xbdf67fc5	-0.12036089
29	0xbd25cc1c	-0.040477857
30	0x3eb47fc9	0.35253742
31	0x3ec83d24	0.39109147
32	0x3f33e47f	0.7027053
33	0xbe7677f0	-0.2406919
34	0xbd412e2b	-0.04716317
35	0x3d324e8b	0.043531936
36	0x3dd2933c	0.10281989
37	0xbe881bb0	-0.26583624
38	0x3e1652e5	0.14680059
39	0xbdbf1171	-0.093294986
40	0x3e67177d	0.22567554
41	0xbd7a0537	-0.06104013
42	0xbe0c8b17	-0.13724934
43	0xbc88340f	-0.016626386
44	0xbea30dbc	-0.31846416
45	0xbee20d66	-0.44150847
46	0xbeed3716	-0.4633109
47	0xbf514032	-0.8173858
48	0xbe965745	-0.29363456
49	0x3f2d379d	0.67662984
50	0x3eff4911	0.49860433
51	0x3ed7a5cf	0.4211869
52	0x3e984aa1	0.29744437
53	0x3eac1d50	0.33616114
54	0x3e800d86	0.25010318
55	0xbeb1121b	-0.34584126
56	0xbdef4e00	-0.11684799
57	0xbe5d71f3	-0.216255
58	0x3f400a44	0.75015664
59	0x3efc9775	0.49334303
60	0xbc11a7d6	-0.008890113
61	0x3f13fba7	0.57805866
62	0x3f337273	0.7009651
63	0x3f9d4455	1.2286478
64	0x3ef5cc79	0.48007563
65	0xbe2a96a5	-0.16659029
66	0xbd0fe7bc	-0.03513311
67	0xbcfa104c	-0.03052535
68	0x3d873d4f	0.066034906
69	0xbe11b444	-0.14228922
70	0xbe9d20bd	-0.3068904
71	0xbda42c8b	-0.080163084
72	0x3ea693cb	0.32534632
73	0x3e678fac	0.226134
74	0xbe61d701	-0.22054674
75	0x3e119ca6	0.14219913
76	0xbe90fe67	-0.28319094
77	0xbdefe46d	-0.11713491
78	0xbed147e0	-0.4087515
79	0xbf978893	-1.1838554
80	0xbe992d2c	-0.29917276
81	0x3c8ddee7	0.017318202
82	0x3ecaad60	0.395854
83	0x3e9ca9fe	0.30598444
84	0x3eb3416e	0.35010856
85	0x3e6b463e	0.22976014
86	0xbe98ca62	-0.29841906
87	0xbdfe1e02	-0.12408067
88	0xbec3c032	-0.3823257
89	0xbe7999ad	-0.24375029
90	0x3ebb32d2	0.3656221
91	0x3e09dbea	0.13462797
92	0xbe4c23fc	-0.19935602
93	0x3daaf0ce	0.08346711
94	0x3ddeaa32	0.10872306
95	0x3ed36c57	0.41293594
96	0xbebacd46	-0.36484736
97	0x3dfe06a8	0.12403613
98	0x3de4651d	0.11152098
99	0x3d23bd4e	0.039975457
100	0x3dce2ab6	0.1006674
101	0xbd39cc0b	-0.045360606
102	0x3e84e92e	0.25959152
103	0x3dc4d44b	0.09610804
104	0x3d6cc256	0.05780252
105	0x3dc8ed93	0.09810939
106	0x3dc3fbf8	0.095695436
107	0xbd91c411	-0.07117475
108	0x3eba9418	0.36441112
109	0x3d29896c	0.04139082
110	0xbe8cf810	-0.27533007
111	0x3e5e5e07	0.21715556
112	0x3e8430af	0.25818393
113	0xbf2d0683	-0.6758806
114	0x3e664800	0.22488403
115	0xbdbbad98	-0.0916397
116	0x3e03afb0	0.12859988
117	0xbd5a02d6	-0.05322536
118	0xbe40bb78	-0.18821514
119	0x3e1ddb41	0.1541567
120	0x3db417e9	0.08793623
121	0x3e1eb12e	0.15497276
122	0xbe8a05a7	-0.26957437
123	0x3d8a9d35	0.06768266
124	0xbe7b57b6	-0.24545178
125	0xbd9cd4e5	-0.07657794
126	0xbed65305	-0.41860214
127	0xbf6870a8	-0.907969
128	0x3ee54ded	0.44786015
129	0xbec8ca45	-0.3921682
130	0xbe3c3850	-0.18380857
131	0xbd67b65b	-0.056570392
132	0x3df70759	0.12061948
133	0xbe01b313	-0.12665968
134	0xbf1be8d2	-0.6090213
135	0x3d132d5e	0.035931937
136	0x3db5c7f2	0.08876027
137	0xbe76105e	-0.24029681
138	0xbef593e0	-0.47964382
139	0x3da94b10	0.0826627
140	0xbd72d145	-0.059281606
141	0xbf0b93b7	-0.5452227
142	0xbf27a786	-0.65489995
143	0xbf67ef76	-0.90599763
144	0x3ed00408	0.40628076
145	0xbf1014dd	-0.56281835
146	0xbe28e17b	-0.16492264
147	0x3d90467a	0.07044692
148	0x3e9311b9	0.2872446
149	0xbe96b174	-0.2943226
150	0xbddc5579	-0.1075849
151	0xbd863206	-0.0655251
152	0x3e5e2a30	0.21695781
153	0xbcdd8dd5	-0.02704517
154	0xbe8db9ce	-0.2768082
155	0x3dd2be8e	0.10290252
156	0xbdfa1d27	-0.122125916
157	0xbee1b14f	-0.44080588
158	0xbea8218b	-0.3283809
159	0xbf345c10	-0.70452976
160	0x3ee00092	0.43750435
161	0xbf13a0d2	-0.5766727
162	0xbf0abb22	-0.5419179
163	0xbf556824	-0.8336203
164	0x3dfe9c48	0.12432152
165	0xbf55ad68	-0.8346772
166	0xbef3f1ab	-0.47645316
167	0xbf01d3fc	-0.5071409
168	0x3f1f8a79	0.6232067
169	0x3d6015b9	0.054708216
170	0xbf97f830	-1.1872616
171	0xbeb76d70	-0.35825682
172	0xbe395177	-0.18097483
173	0xbf250897	-0.6446623
174	0xbf089320	-0.53349495
175	0xbe9a4c8a	-0.3013652
176	0xbd99a8b7	-0.07502883
177	0x3b65b58f	0.0035050844
178	0xbcc4338d	-0.023950363
179	0xbecc8c00	-0.39950562
180	0xbe57fa7a	-0.21091643
181	0xbe170b42	-0.14750388
182	0x3e538003	0.20654301
183	0x3d7462b3	0.05966444
184	0xbcd59693	-0.026072776
185	0x3d9207e3	0.071304105
186	0x3e780730	0.24221492
187	0x3ec5c4b6	0.3862664
188	0x3cb3a359	0.021928476
189	0x3d96d1e5	0.07364253
190	0xbe6454dc	-0.22297996
191	0xbc16eaff	-0.009211301
192	0x3f2b0a03	0.6681215
193	0xbead9702	-0.33904272
194	0x3d2b3b7c	0.041804776
195	0x3db43dd0	0.08800852
196	0xbdaa70a9	-0.083222695
197	0xbe78f2ca	-0.24311367
198	0xbeb14fc6	-0.34631175
199	0xbda8a24f	-0.08234083
200	0x3eae50fb	0.34046158
201	0xbdf9d8ca	-0.12199552
202	0xbecb0af3	-0.3965679
203	0x3dc8746e	0.09787832
204	0xbe4d19a3	-0.20029311
205	0xbe9ec264	-0.31007683
206	0xbf07695f	-0.5289516
207	0xbec55e70	-0.38548613
208	0xbd27adcf	-0.04093724
209	0x3d264c60	0.04060018
210	0xbcade71e	-0.02122837
211	0x3d83c086	0.06433205
212	0xbe650406	-0.22364816
213	0x3d3636a6	0.04448571
214	0x3e826db8	0.25474334
215	0x3e3de1b7	0.18543135
216	0xbd85230b	-0.065008245
217	0xbe91abc7	-0.28451368
218	0x3d269051	0.040664975
219	0x3e67bf18	0.2263149
220	0x3e4de867	0.20108186
221	0xbe406f26	-0.187924
222	0xbe9415cf	-0.2892289
223	0xbe1ca508	-0.1529733
224	0xbf14a54b	-0.5806472
225	0x3f36a4a8	0.71344995
226	0x3eb3b39a	0.35097963
227	0x3f2baa27	0.67056507
228	0x3e610f91	0.21978594
229	0x3f278b2e	0.65446746
230	0x3e719525	0.2359205
231	0xbece10d8	-0.40247226
232	0xbe29f68b	-0.16597955
233	0x3c44df3e	0.012016116
234	0x3e9f9ce0	0.31174374
235	0x3e843d0b	0.25827822
236	0xbe4ce3f3	-0.2000883
237	0x3f36bd56	0.71382654
238	0x3e68ef73	0.22747593
239	0x3f5ab812	0.8543712
240	0x3e24c73b	0.16091625
241	0xbda2d4de	-0.079507574
242	0xbd1c48d1	-0.03815538
243	0x3d826ab8	0.06368011
244	0xbef6eb05	-0.4822618
245	0xbde84109	-0.113405295
246	0xbb8ef2d3	-0.004362443
247	0x3e250869	0.1611649
248	0x3e828648	0.25493073
249	0xbe74014e	-0.23828623
250	0x3eb954aa	0.36197406
251	0x3e54dab7	0.20786558
252	0xbd474b1b	-0.04865561
253	0x3d2d8098	0.042358965
254	0x3dfdef45	0.12399153
255	0x3e8c892b	0.274484

value_head.0.bias f4 [64]
0	0x3e00f659	0.12593974
1	0x3d3a99aa	0.0455567
2	0x3d015e3e	0.031584017
3	0x3da7edaf	0.081996314
4	0xbc0bdf6c	-0.008537155
5	0x3e953a5b	0.29146084
6	0xbc6de224	-0.014519248
7	0xb9502b75	-0.00019852615
8	0x3bfa4d5c	0.0076386165
9	0x3a9e22cc	0.0012064814
10	0x3e0b82af	0.1362407
11	0xbd00f19e	-0.031480424
12	0x3c4fd85d	0.012685862
13	0xbc07d383	-0.008290174
14	0x3e170907	0.14749537
15	0xbd17afe1	-0.037032966
16	0x3e0983ff	0.13429259
17	0xbd078ee1	-0.033095244
18	0x3e7b919d	0.24567266
19	0x3eab7b40	0.3349247
20	0x3d2d9392	0.042377062
21	0x3e009c6a	0.12559667
22	0xbc4a87f6	-0.012361517
23	0x3e2b6abd	0.16739936
24	0x3e0e7911	0.1391337
25	0xbcccc876	-0.024997931
26	0x3e0e5529	0.13899674
27	0x00000000	0.0
28	0xbcdbf66b	-0.0268509
29	0xbd934e9e	-0.071927294
30	0x3ea7ee8e	0.3279919
31	0x3e093d79	0.13402356
32	0x00000000	0.0
33	0x3de431dc	0.111423224
34	0xbc0af94f	-0.008482291
35	0x3e15fdc1	0.1464758
36	0x3e2058e3	0.15658908
37	0x3e63076f	0.22170804
38	0x00000000	0.0
39	0x3d2e4878	0.04254958
40	0x3e77df71	0.2420633
41	0xbc86217e	-0.016373392
42	0x3dbec4eb	0.09314903
43	0xbc97c677	-0.018527253
44	0x3de6a755	0.11262385
45	0x3d3ea4cb	0.046543878
46	0xbb4c3a26	-0.003116259
47	0x3d23b5f2	0.03996844
48	0x3dfcd2ff	0.12344932
49	0xbd495444	-0.049152628
50	0x3dca28cb	0.09871062
51	0x3ea1975f	0.315608
52	0xbe0b35dc	-0.13594764
53	0x3d6e705c	0.058212623
54	0xbc9f5ed0	-0.01945439
55	0xbcd21d92	-0.025648866
56	0x3cf7e1f3	0.030259108
57	0xbbdeadb6	-0.0067956103
58	0x3e308c0a	0.1724092
59	0x3e4b4dd8	0.19853914
60	0xbc62854a	-0.013825724
61	0xbc08e58b	-0.008355509
62	0xbdc9c853	-0.09852662
63	0x3c0de855	0.008661349

value_head.2.weight f4 [1, 64]
0	0x3f745e99	0.95456845
1	0xbf454780	-0.77062225
2	0xbee2d7d4	-0.4430529
3	0x3f002384	0.5005419
4	0xbf3cbbf7	-0.7372431
5	0x3ef18f70	0.47179747
6	0xbe85df07	-0.2614672
7	0xbf22a56e	-0.63533676
8	0xbf604727	-0.8760857
9	0xbeb17dc7	-0.34666273
10	0x3f25e3da	0.648008
11	0x3d51ca12	0.0512181
12	0xbefc17f2	-0.4923702
13	0x3d279c0c	0.040920302
14	0x3ebd6d82	0.3699761
15	0xbe575482	-0.21028331
16	0x3eefd09f	0.46838853
17	0xbf4ea421	-0.8071919
18	0x3f0cf45d	0.5506037
19	0x3f028099	0.50977474
20	0xbe6de117	-0.23230396
21	0x3ecf84ac	0.40530908
22	0xbed90a75	-0.4239079
23	0x3ee1aad9	0.4407566
24	0x3f321d0e	0.69575584
25	0xbf8260d3	-1.0185798
26	0x3f163948	0.58681154
27	0x3e65c1ee	0.2243726
28	0xbe88d38d	-0.267239
29	0xbec567ee	-0.38555855
30	0x3ea5f095	0.32410112
31	0x3ebcb80d	0.3685917
32	0x3dfca3be	0.12335919
33	0x3efeaf6b	0.49743208
34	0xbe8c9d3c	-0.2746371
35	0x3ef486e1	0.47759154
36	0x3f468a59	0.7755485
37	0x3e9bb81a	0.30413896
38	0x3ef48c4e	0.47763294
39	0xbee88782	-0.45415884
40	0x3ee55ae5	0.4479591
41	0xbe5be394	-0.21473533
42	0x3f158c4c	0.584172
43	0xbe45c011	-0.19311549
44	0x3f66d235	0.901645
45	0xbf03ca49	-0.5148054
46	0xbf24ea70	-0.64420223
47	0xbedbef64	-0.42956078
48	0x3ebfc9b9	0.3745859
49	0xbf1726cf	-0.5904359
50	0x3f022c54	0.5084889
51	0x3efbc0a4	0.4917041
52	0xbf5695d2	-0.8382236
53	0xbdec24d1	-0.1153046
54	0xbdd0fc33	-0.10204353
55	0xbe0b3ede	-0.135982
56	0x3f231c26	0.63714826
57	0xbf32644c	-0.6968429
58	0x3f30be17	0.69040054
59	0x3eb81292	0.35951668
60	0xbe827845	-0.25482383
61	0xbd87ef2f	-0.066374175
62	0xbf21e6f8	-0.63243055
63	0x3dacc99e	0.08436893

exp_avg f4 [30]
0	0x80000004	-6e-45
1	0xb70055e1	-7.64939e-06
2	0xb74f4a7d	-1.2355505e-05
3	0xb6857376	-3.9771503e-06
4	0x80000004	-6e-45
5	0x80000004	-6e-45
6	0x80000004	-6e-45
7	0xb6914a4c	-4.329986e-06
8	0xb6ddc474	-6.6091834e-06
9	0x80000004	-6e-45
10	0x80000004	-6e-45
11	0x80000004	-6e-45
12	0x80000004	-6e-45
13	0x80000004	-6e-45
14	0xb6b13d41	-5.282142e-06
15	0x80000004	-6e-45
16	0xb6b1caad	-5.2986056e-06
17	0x80000004	-6e-45
18	0x80000004	-6e-45
19	0xb719d3d1	-9.168828e-06
20	0x80000004	-6e-45
21	0x80000004	-6e-45
22	0xb6dc9cc2	-6.57476e-06
23	0xb7098b40	-8.198258e-06
24	0x80000004	-6e-45
25	0xb6de98b0	-6.6338907e-06
26	0xb681860a	-3.860104e-06
27	0x80000004	-6e-45
28	0xb6d7e6f8	-6.4343876e-06
29	0x80000004	-6e-45

exp_avg_sq f4 [30]
0	0x10a61607	6.5509394e-29
1	0x30d2d365	1.5339593e-09
2	0x30d0f7fd	1.5204474e-09
3	0x30d86e0a	1.5747343e-09
4	0x0801989a	3.899891e-34
5	0x1fd12952	8.85833e-20
6	0x1125e6f2	1.308737e-28
7	0x30baddb9	1.3596299e-09
8	0x30e3afee	1.6566426e-09
9	0x15d57d22	8.622744e-26
10	0x1f60176a	4.7453213e-20
11	0x01cd0ca7	7.532326e-38
12	0x0718233f	1.1445567e-34
13	0x09bc6fbf	4.536444e-33
14	0x30bc593d	1.3704163e-09
15	0x1bec718c	3.9116303e-22
16	0x30cf8269	1.5098297e-09
17	0x0ed81dab	5.327668e-30
18	0x1b34f03f	1.4966879e-22
19	0x30c064e2	1.3998511e-09
20	0x1c129b48	4.8508044e-22
21	0x0b4e0816	3.968024e-32
22	0x30cd0f7a	1.4920112e-09
23	0x30db8a87	1.5973719e-09
24	0x136df68d	3.0035164e-27
25	0x30dc18c7	1.6014149e-09
26	0x30e2946a	1.6485846e-09
27	0x17ba1cf5	1.2027278e-24
28	0x30c49745	1.430387e-09
29	0x0e2ece69	2.1546539e-30

exp_avg f4 [16, 4]
0	0x00000000	0.0
1	0x00000000	0.0
2	0x00000000	0.0
3	0x00000000	0.0
4	0xbcc81005	-0.024421701
5	0xbcbeedb2	-0.023306701
6	0xbce20353	-0.027589476
7	0xbcc9c7be	-0.024631377
8	0x3c855967	0.016277982
9	0xba2ea2c7	-0.0006661829
10	0x3bdfd5e8	0.0068309195
11	0x3c44cb59	0.0120113725
12	0x00000000	0.0
13	0x00000000	0.0
14	0x00000000	0.0
15	0x00000000	0.0
16	0x3cfccb83	0.03085876
17	0x3c4a53dd	0.012349096
18	0x3cc87a52	0.02447239
19	0x3cace4e2	0.021105234
20	0x3ca24ccf	0.019812016
21	0xbc10ef06	-0.00884605
22	0x3b99100c	0.0046711024
23	0x3c52c48c	0.012864243
24	0x3d27496f	0.040841516
25	0x3c5d9ecd	0.013526631
26	0x3d04d74c	0.032431886
27	0x3cefc61e	0.029269274
28	0xbb9d8693	-0.0048073023
29	0xbb8df172	-0.004331761
30	0xbb457feb	-0.003013606
31	0xbafb3cba	-0.0019167878
32	0x00000000	0.0
33	0x00000000	0.0
34	0x00000000	0.0
35	0x00000000	0.0
36	0xbc968508	-0.018373981
37	0xbcaa9c46	-0.02082647
38	0xbcbb783d	-0.022884483
39	0xbc96d9d1	-0.01841441
40	0xbc902fc3	-0.0176009
41	0xbc3781ab	-0.011200349
42	0xbc89768b	-0.016780159
43	0xbc6a820b	-0.014313231
44	0x3ca81b31	0.020520778
45	0x3bfba7a3	0.007679896
46	0x3c81aa85	0.01582838
47	0x3c8eb086	0.017418157
48	0xbccd60d4	-0.025070585
49	0xbb9f30a8	-0.004858095
50	0xbc8814e2	-0.01661152
51	0xbca4f334	-0.0201355
52	0xbc69d01d	-0.0142708095
53	0xbbba9a5b	-0.00569467
54	0xbc3e642c	-0.0116205625
55	0xbc3e7a16	-0.011625787
56	0x00000004	6e-45
57	0x00000004	6e-45
58	0x00000004	6e-45
59	0x00000004	6e-45
60	0xbcacbf27	-0.021087242
61	0xbc17cdc8	-0.009265371
62	0xbc917ae6	-0.017758798
63	0xbc8e026e	-0.017335143

exp_avg_sq f4 [16, 4]
0	0x00000000	0.0
1	0x00000000	0.0
2	0x00000000	0.0
3	0x00000000	0.0
4	0x3b9f8651	0.0048683067
5	0x3a14c8e3	0.00056756864
6	0x3b4d5168	0.003132904
7	0x3b909350	0.0044120923
8	0x3ac7f1dd	0.0015254576
9	0x393eac0a	0.00018183902
10	0x3a249ee5	0.00062797806
11	0x3aaf136a	0.0013357226
12	0x00000000	0.0
13	0x00000000	0.0
14	0x00000000	0.0
15	0x00000000	0.0
16	0x3bae4918	0.005318772
17	0x3aa0bca5	0.0012263252
18	0x3b5210e7	0.0032053532
19	0x3b57b365	0.0032913324
20	0x3af9390e	0.0019014196
21	0x3a9890d4	0.0011639842
22	0x3ab77171	0.00139956
23	0x3a908f51	0.001102904
24	0x3c301f27	0.010749615
25	0x3b5512f0	0.0032512508
26	0x3beec040	0.0072861016
27	0x3bdbb4b9	0.0067048934
28	0x3a179035	0.00057816814
29	0x3a06d377	0.0005143205
30	0x3a70876a	0.00091754517
31	0x39b28a7a	0.0003405398
32	0x00000000	0.0
33	0x00000000	0.0
34	0x00000000	0.0
35	0x00000000	0.0
36	0x3abdefe6	0.0014491051
37	0x39acbd16	0.00032947276
38	0x3a943576	0.0011307437
39	0x3ac7d803	0.0015246872
40	0x3abe7486	0.0014530576
41	0x3986bd19	0.0002569936
42	0x3a81601c	0.0009870562
43	0x3a8d6d75	0.0010790067
44	0x3b5e9d83	0.0033968396
45	0x39be90b8	0.00036347448
46	0x3aef633b	0.0018263826
47	0x3b39e7e2	0.0028366973
48	0x3b3e1765	0.0029005643
49	0x3a337327	0.0006845467
50	0x3aed9d35	0.0018128516
51	0x3b09d8f1	0.0021033848
52	0x3a77b747	0.00094496127
53	0x39793c67	0.00023768992
54	0x3a2c811c	0.0006580518
55	0x3a30b61b	0.0006741003
56	0x000001f4	7e-43
57	0x000001f4	7e-43
58	0x000001f4	7e-43
59	0x000001f4	7e-43
60	0x3b1040d5	0.00220113
61	0x3a01c71d	0.00049506297
62	0x3ac58e33	0.0015072286
63	0x3ad105b4	0.0015947134

exp_avg f4 [16]
0	0x00000000	0.0
1	0xbcd2302b	-0.025657734
2	0x3c75b65e	0.014997093
3	0x00000000	0.0
4	0x3cfe9ce7	0.031080676
5	0x3c9c86ec	0.019107305
6	0x3d2f9760	0.04286897
7	0xbb97ed21	-0.0046364223
8	0x00000000	0.0
9	0xbc9ddbc6	-0.019269835
10	0xbc954a47	-0.018223895
11	0x3ca98ad4	0.020696081
12	0xbcd030c5	-0.02541388
13	0xbc72bd67	-0.014815665
14	0x00000004	6e-45
15	0xbcb3bbdf	-0.02194017

exp_avg_sq f4 [16]
0	0x00000000	0.0
1	0x3bab2d35	0.005223895
2	0x3ad79b4f	0.0016449484
3	0x00000000	0.0
4	0x3bba0a07	0.005677465
5	0x3b04ddf0	0.0020273887
6	0x3c3993c4	0.011326734
7	0x3a9470d1	0.0011325126
8	0x00000000	0.0
9	0x3acc6bd8	0.0015596105
10	0x3acca80e	0.0015614049
11	0x3b6c023a	0.003601207
12	0x3b4c4c2b	0.003117333
13	0x3a84a016	0.001011851
14	0x000001f4	7e-43
15	0x3b1aa0b5	0.0023594324

exp_avg f4 [16, 2]
0	0x3a6aed55	0.0008961757
1	0xbb9dc6d1	-0.0048149605
2	0x39c3fd1c	0.0003738188
3	0xba84cb5f	-0.001013141
4	0x38108d00	3.4463592e-05
5	0x3a0a4f1b	0.000527607
6	0xb85ec98c	-5.311663e-05
7	0x3b132045	0.0022449654
8	0x3accfbed	0.0015639045
9	0xbbb4d32c	-0.0055183377
10	0x3a51494e	0.00079836405
11	0xbbff84ba	-0.0077978047
12	0x3a16349a	0.0005729884
13	0xbb13f92d	-0.002257894
14	0x00000004	6e-45
15	0x00000004	6e-45
16	0x00000000	0.0
17	0x00000000	0.0
18	0x00000000	0.0
19	0x00000000	0.0
20	0x3a0dff38	0.00054167537
21	0xbb869da1	-0.0041081463
22	0x3a259901	0.000631705
23	0xba9b163a	-0.0011832186
24	0x39b37fd8	0.00034236792
25	0x3a54af09	0.00081132405
26	0xb8aadfd5	-8.147924e-05
27	0xb8aadfd5	-8.147924e-05
28	0x00000004	6e-45
29	0x00000004	6e-45
30	0x3a219e42	0.0006165245
31	0xb9c6187f	-0.00037783754

exp_avg_sq f4 [16, 2]
0	0x398f8185	0.00027371585
1	0x3945f435	0.00018878358
2	0x377baea4	1.50014275e-05
3	0x373a376c	1.1099368e-05
4	0x362e658b	2.5987126e-06
5	0x3601d209	1.9344754e-06
6	0x3839648a	4.420107e-05
7	0x38049724	3.1612013e-05
8	0x39d68e59	0.00040923318
9	0x39976c6a	0.0002888174
10	0x3a1ad912	0.000590698
11	0x39ddc8d7	0.00042302042
12	0x3878bddf	5.930464e-05
13	0x38374f81	4.3704644e-05
14	0x000001f4	7e-43
15	0x000001f4	7e-43
16	0x00000000	0.0
17	0x00000000	0.0
18	0x00000000	0.0
19	0x00000000	0.0
20	0x39313ae1	0.0001690197
21	0x38ff157b	0.000121633486
22	0x37b84b61	2.196961e-05
23	0x37895f3a	1.6376016e-05
24	0x36718f10	3.5995072e-06
25	0x361434bc	2.2084414e-06
26	0x378faa2b	1.7126169e-05
27	0x378faa2b	1.7126169e-05
28	0x000001f4	7e-43
29	0x000001f4	7e-43
30	0x36dce001	6.5825884e-06
31	0x36a21acf	4.831097e-06

exp_avg f4 [16]
0	0x390a5b74	0.00013194775
1	0x395d4496	0.00021101753
2	0x394d1e25	0.00019561553
3	0x39fecbde	0.00048598548
4	0x3a4586da	0.0007535048
5	0xba5b6b1e	-0.0008370149
6	0x39389802	0.00017604235
7	0x00000004	6e-45
8	0x00000000	0.0
9	0x00000000	0.0
10	0xb996d10d	-0.00028765984
11	0x3a0376f0	0.00050149765
12	0x3a20753f	0.00061209867
13	0xba27e7d9	-0.00064050924
14	0x00000004	6e-45
15	0x3a32ac09	0.00068157964

exp_avg_sq f4 [16]
0	0x39d706f9	0.0004101319
1	0x37c4d872	2.3465811e-05
2	0x36809210	3.831701e-06
3	0x38885c09	6.502128e-05
4	0x3a20789c	0.0006121488
5	0x3a666567	0.0008788914
6	0x38bb9e0c	8.9462934e-05
7	0x000001f4	7e-43
8	0x00000000	0.0
9	0x00000000	0.0
10	0x398431d4	0.00025214127
11	0x3812f246	3.5034747e-05
12	0x36c2ee21	5.8093724e-06
13	0x3a90044a	0.0010987606
14	0x000001f4	7e-43
15	0x3745a4b5	1.1780464e-05

exp_avg f4 [48, 16]
0	0x37c27830	2.3182569e-05
1	0x38a322b7	7.778912e-05
2	0x387b946b	5.998129e-05
3	0x38f603ad	0.00011730879
4	0x38415c55	4.6100777e-05
5	0x376fae8b	1.4286149e-05
6	0x387eaf77	6.0721733e-05
7	0x00000004	6e-45
8	0x00000000	0.0
9	0x00000000	0.0
10	0x37afcc13	2.0956655e-05
11	0x3896e18e	7.19457e-05
12	0x3876e42f	5.8863483e-05
13	0x34045bba	1.2326828e-07
14	0x00000004	6e-45
15	0x387b8b72	5.9972932e-05
16	0x382bf4f9	4.0997726e-05
17	0x391025d7	0.00013747007
18	0x38de485c	0.00010599263
19	0x3959a48d	0.00020756033
20	0x38aab01a	8.139033e-05
21	0x37d7a195	2.570524e-05
22	0x38e0e1aa	0.000107231856
23	0x00000004	6e-45
24	0x00000000	0.0
25	0x00000000	0.0
26	0x381d97de	3.7573154e-05
27	0x39056fec	0.00012725563
28	0x38dab3ce	0.00010428541
29	0x33496498	4.689045e-08
30	0x00000004	6e-45
31	0x38ddeb73	0.00010581957
32	0xb85311ee	-5.032302e-05
33	0xb92ec49c	-0.00016667176
34	0xb9073b1a	-0.0001289662
35	0xb9832d22	-0.00025019894
36	0xb8d10e45	-9.9685545e-05
37	0xb7ff9ebe	-3.0472289e-05
38	0xb908f53f	-0.00013061332
39	0x80000004	-6e-45
40	0x00000000	0.0
41	0x00000000	0.0
42	0xb839883a	-4.4234308e-05
43	0xb921059f	-0.0001535625
44	0xb90407c9	-0.00012591401
45	0xb312e61f	-3.4202568e-08
46	0x80000004	-6e-45
47	0xb907a701	-0.00012936817
48	0xb82b72b2	-4.0876395e-05
49	0xb90c8f1e	-0.00013404756
50	0xb8da1961	-0.00010399777
51	0xb9523c1c	-0.00020049553
52	0xb8a961a2	-8.0767335e-05
53	0xb7cc74b7	-2.4373045e-05
54	0xb8dcf8b0	-0.00010536739
55	0x00000004	6e-45
56	0x00000000	0.0
57	0x00000000	0.0
58	0xb813416e	-3.5108467e-05
59	0xb9011d09	-0.00012313215
60	0xb8d40c00	-0.00010111183
61	0x34847eb8	2.4679116e-07
62	0x00000004	6e-45
63	0xb8db6005	-0.00010460619
64	0x38606727	5.350183e-05
65	0x39451a07	0.0001879708
66	0x3915d1a2	0.00014287842
67	0x3998ea60	0.00029166322
68	0x38def0be	0.00010630627
69	0x382b9d58	4.0916115e-05
70	0x39167f87	0.00014352622
71	0x80000004	-6e-45
72	0x00000000	0.0
73	0x00000000	0.0
74	0x387d308c	6.0365113e-05
75	0x393a7cc4	0.00017784821
76	0x39198f33	0.00014644563
77	0xb4a50bad	-3.074214e-07
78	0x80000004	-6e-45
79	0x3911bbab	0.0001389819
80	0xb7d5da84	-2.5493333e-05
81	0xb8ba5b0a	-8.8861285e-05
82	0xb88e1c87	-6.776401e-05
83	0xb90f32cc	-0.00013656466
84	0xb855b2bf	-5.0949628e-05
85	0xb7953f4a	-1.7791655e-05
86	0xb88f4838	-6.832223e-05
87	0x80000004	-6e-45
88	0x00000000	0.0
89	0x00000000	0.0
90	0xb7de4245	-2.6495321e-05
91	0xb8af0419	-8.3454135e-05
92	0xb88f3798	-6.8291265e-05
93	0xb381b3c5	-6.0397305e-08
94	0x80000004	-6e-45
95	0xb88bbde5	-6.663407e-05
96	0xb842bc9d	-4.6428864e-05
97	0xb92a37ab	-0.00016233201
98	0xb9016c6f	-0.00012342793
99	0xb984ae3d	-0.0002530682
100	0xb8bf96e4	-9.135695e-05
101	0xb81eb8b5	-3.7842157e-05
102	0xb9019e81	-0.00012361446
103	0x00000004	6e-45
104	0x00000000	0.0
105	0x00000000	0.0
106	0xb866a250	-5.498744e-05
107	0xb9219818	-0.00015410816
108	0xb9061682	-0.0001278762
109	0x3481efe3	2.4202663e-07
110	0x00000004	6e-45
111	0xb8f9faec	-0.00011919983
112	0x38c04741	9.1685455e-05
113	0x39a6ff98	0.0003185242
114	0x397ea757	0.00024285667
115	0x3a0101ba	0.0004921217
116	0x393e794f	0.00018165003
117	0x389008b5	6.868077e-05
118	0x397ff9ec	0.00024411798
119	0x80000004	-6e-45
120	0x00000000	0.0
121	0x00000000	0.0
122	0x38d32c56	0.00010069522
123	0x399d71d6	0.00030030188
124	0x3981cceb	0.00024757473
125	0xb4bf53bc	-3.5637447e-07
126	0x80000004	-6e-45
127	0x397895b2	0.00023706889
128	0x3953bdad	0.00020193188
129	0xb981ce3f	-0.00024758463
130	0x375ab083	1.303491e-05
131	0xba831f0d	-0.0010003761
132	0x3997c031	0.00028944158
133	0xb9a60b99	-0.00031670628
134	0x3891a9c3	6.9457594e-05
135	0x00000004	6e-45
136	0x00000000	0.0
137	0x00000000	0.0
138	0xba202dec	-0.00061103585
139	0xba0e611d	-0.0005431341
140	0xb9d16bb7	-0.0003994384
141	0xb3b726c6	-8.5286544e-08
142	0x00000004	6e-45
143	0x398de381	0.0002706312
144	0xb976b5c1	-0.00023528097
145	0x3a131159	0.000561019
146	0x390cbbcf	0.00013421405
147	0x3ae7f6d1	0.0017697458
148	0xb9a16a9a	-0.00030787737
149	0x3a0645ed	0.0005122114
150	0x3858c74b	5.168402e-05
151	0x00000004	6e-45
152	0x00000000	0.0
153	0x00000000	0.0
154	0x3a7c2319	0.0009618267
155	0x3a809ec8	0.0009812946
156	0x3a427722	0.0007418265
157	0x33e53b3b	1.06744174e-07
158	0x00000004	6e-45
159	0xb9817d1b	-0.00024698008
160	0xba110742	-0.00055323925
161	0x38fde0c0	0.00012105843
162	0xb9b487f5	-0.0003443357
163	0x3acac6bb	0.0015470603
164	0xba649615	-0.0008719874
165	0x3a280499	0.00064093765
166	0xb9f8f9ed	-0.00047488455
167	0x80000004	-6e-45
168	0x00000000	0.0
169	0x00000000	0.0
170	0x3aa2f2eb	0.0012432014
171	0x3a504461	0.00079447596
172	0x3a14c545	0.00056751474
173	0x346e16ca	2.2173768e-07
174	0x80000004	-6e-45
175	0xba6e9e56	-0.00091025734
176	0xb9730af3	-0.00023178365
177	0x3a4cd3bf	0.0007813535
178	0x39873e24	0.00025795505
179	0x3b132281	0.0022450986
180	0xb990c56f	-0.0002761292
181	0x3a218d28	0.00061626965
182	0x392bd4f6	0.00016387165
183	0x00000004	6e-45
184	0x00000000	0.0
185	0x00000000	0.0
186	0x3a965521	0.0011469462
187	0x3aa4b772	0.0012566878
188	0x3a7b1651	0.00095782155
189	0x33d723f7	1.00182596e-07
190	0x00000004	6e-45
191	0xb93f1681	-0.00018223563
192	0x3a0321ed	0.0005002309
193	0xba483036	-0.00076365785
194	0xb84c5d86	-4.872449e-05
195	0xbb3972b0	-0.002829712
196	0x3a39debf	0.00070903817
197	0xba69f567	-0.00089248124
198	0x38dbd9a6	0.00010483274
199	0x80000004	-6e-45
200	0x00000000	0.0
201	0x00000000	0.0
202	0xbadd110c	-0.0016866042
203	0xbacaa2f8	-0.0015459945
204	0xba97e28d	-0.0011587903
205	0xb45c7d55	-2.0534692e-07
206	0x80000004	-6e-45
207	0x3a293366	0.00064544973
208	0x39ea1ce8	0.00044653495
209	0xb93bf485	-0.000179248
210	0x39741696	0.00023278067
211	0xbaba72ae	-0.0014224851
212	0x3a353f2d	0.0006914016
213	0xba0fd8c5	-0.0005487318
214	0x39b2fe55	0.00034140298
215	0x80000004	-6e-45
216	0x00000000	0.0
217	0x00000000	0.0
218	0xba8b84ce	-0.0010644437
219	0xba429a2d	-0.00074234867
220	0xba0c06c6	-0.00053415855
221	0xb40ff227	-1.3406007e-07
222	0x80000004	-6e-45
223	0x3a39ea13	0.000709207
224	0xba0c7d04	-0.0005359205
225	0xb91eef85	-0.00015157282
226	0xb9fc7969	-0.00048155643
227	0x3a6eab58	0.00091045117
228	0xba65e7c9	-0.00087701954
229	0x3a00ecf7	0.0004918123
230	0xba1b8b33	-0.0005933523
231	0x80000004	-6e-45
232	0x00000000	0.0
233	0x00000000	0.0
234	0x3a7ef7b0	0.00097262394
235	0x39e12424	0.0004294227
236	0x3994fcdf	0.00028417163
237	0x34458371	1.8394873e-07
238	0x80000004	-6e-45
239	0xba7a39d5	-0.0009545361
240	0xba5ed6bc	-0.0008500626
241	0x3a1aa327	0.00058989454
242	0xb9a0fc15	-0.00030705394
243	0x3b55d58a	0.00326285
244	0xbaa943e3	-0.0012913909
245	0x3a9ad795	0.0011813516
246	0xba0af664	-0.0005300997
247	0x00000004	6e-45
248	0x00000000	0.0
249	0x00000000	0.0
250	0x3b143832	0.0022616503
251	0x3ae31ebd	0.0017327886
252	0x3aa6cc50	0.0012725685
253	0x3496d593	2.8095073e-07
254	0x00000004	6e-45
255	0xbaa9240d	-0.0012904421
